result/Dilation_X_net_new/model_ph1.pth (torch, 22223 bytes, 8 tensors)

scale_down.conv1.dilation_conv1d.weight f4 [16, 1, 4]
000000 45 31 ed be 21 eb d3 bd 7d c7 8d be 7a 2d 6d be
       -0.46326652 -0.10347582 -0.2769126 -0.23161879
000010 cb 4a df be be f5 3b 3e e9 81 07 bf 9e 05 3c be
       -0.4361175 0.18355462 -0.529326 -0.18361518
000020 4c 61 27 3e 4d 21 33 be f9 64 94 3e 20 24 be 3d
       0.1634571 -0.17493172 0.28983286 0.09284234
000030 0a 1a 8d 3e 60 0b a4 3e 2d 07 68 be 08 e6 29 3e
       0.2755893 0.32039928 -0.22658987 0.16591656
000040 22 de 6b be 8d 9a 17 3e 50 8a 81 be 1a ad 8a 3e
       -0.23033956 0.1480505 -0.25300837 0.2708519
000050 d8 02 f3 3d df 5b 41 be 97 c5 84 be 56 11 bd 3d
       0.11865777 -0.18882702 -0.25932 0.09231822
000060 9e 94 ec 3e 0a ed 71 3e 5b 19 51 bd ad a0 ba bc
       0.46207136 0.2362558 -0.05104957 -0.022781694
000070 09 42 95 3e ba fb b1 be 9c db 17 3e 1e 82 5e be
       0.29151943 -0.34762365 0.14829868 -0.21729323
000080 40 12 90 3e de 41 38 be d7 70 18 3d ce b7 4f 3e
       0.28138924 -0.17993876 0.037216987 0.2028496
000090 eb 4c b3 3e 9e 5f 81 bd 3d 78 ef 3e 6d 4c d4 be
       0.3501962 -0.06317066 0.46771422 -0.41464558
0000a0 5c 83 a0 bd da 09 fa be 72 0b 43 3d a2 d7 0d 3e
       -0.07837555 -0.4883564 0.047618337 0.13851789
0000b0 a5 4d 3a be 08 26 61 3e 7c 18 b2 bd 04 4c f3 be
       -0.18193682 0.21987164 -0.08696076 -0.47518933
0000c0 e7 9f c1 3e 0e 07 9e 3e 7d 42 89 3e 10 c8 e1 3e
       0.37817308 0.30864757 0.2680854 0.44097948
0000d0 d7 da 3a 3e c1 b2 96 3e db 9e f9 3e ea d2 9d bb
       0.18247543 0.29433253 0.4875401 -0.0048164027
0000e0 76 ce c4 be c0 e1 7a be af c0 97 bd 7d 2a 91 bd
       -0.38438767 -0.2450018 -0.07409798 -0.07088182
0000f0 fa b0 25 3c 95 4c 98 3e 01 61 26 3e 60 6a c5 be
       0.010112995 0.29745927 0.16247942 -0.3855772

scale_down.conv1_1.dilation_conv1d.weight f4 [16, 16, 4]
000000 d1 c9 0b bd 47 77 dd bc e9 1b a0 3d 06 33 3d bd
       -0.034128014 -0.027034415 0.078178234 -0.046191238
000010 d9 7e 47 bd 35 f9 8f bc 89 2f f0 bc cc 15 04 bd
       -0.048704956 -0.017574886 -0.029319542 -0.03224735
000020 29 5a 00 be 9f d6 df 3d 5f 1a 83 3d 19 d5 63 bd
       -0.12534393 0.109296076 0.06401514 -0.055623148
000030 a5 a2 a6 bd 42 99 ff 3a 46 e3 8e 3d 32 08 b8 bd
       -0.08136491 0.001950063 0.06976943 -0.08985938
000040 b1 e3 2a bd 51 8c 64 3d 95 29 9f bd 81 11 09 3c
       -0.04172105 0.05579788 -0.07771603 0.00836599
000050 8b d1 b9 bd 52 0d f1 3d 93 ad 8f 3d 3a 0d e4 bd
       -0.0907317 0.11770119 0.070155285 -0.11135335
000060 5b 17 95 bd 42 6d 2a 3d d9 3d ab 3b d4 70 f5 3c
       -0.07279845 0.041608103 0.0052258787 0.029961027
000070 fa ea cb bd 39 1d 83 bd 90 d3 75 3d cc 90 e3 bd
       -0.099569276 -0.06402058 0.060016215 -0.11111602
000080 90 f2 f0 bc 4a c1 56 3d a8 87 80 3d c8 1b 50 3c
       -0.029412538 0.05243043 0.062758744 0.012701936
000090 11 30 00 3d 60 f7 55 3d ae 69 8e bc d2 1a 3d bd
       0.03129584 0.05223787 -0.017384376 -0.046168156
0000a0 d7 7f cb 3d 72 ac fe 3d 89 a1 73 3d d9 be 44 bd
       0.09936493 0.12435235 0.059480224 -0.04803357
0000b0 8d 8a d9 bd 9b 70 f8 bd 10 f7 57 3b ae fb 6c bd
       -0.106221296 -0.12130853 0.0032953657 -0.057857208
0000c0 ab 6d 0d bd 0f e3 a0 bc 10 d4 ed 3d 34 5b f7 3d
       -0.034528416 -0.01963952 0.11612713 0.120779425
0000d0 ea 16 7c bc 0c 78 23 bd 25 22 6f 3d 53 ac 32 bc
       -0.0153863225 -0.039909407 0.058382172 -0.010905343
0000e0 5b 69 ec bd 51 ba 30 3d f0 c1 f8 3d 23 a8 c8 bd
       -0.115435325 0.043146435 0.12146366 -0.097976945
0000f0 5a d8 0f bd b1 16 b2 3c da f6 db bd 96 f3 1c be
       -0.03511844 0.021739336 -0.107404426 -0.15327296
000100 fb e6 b2 3d 76 e5 4f bd 24 8b 9e 3d 1a 9a 42 3d
       0.08735462 -0.05075594 0.07741383 0.047510244
000110 3c 9e c2 3c 82 4b b9 bd 5b a7 b4 bc c7 11 fc 3d
       0.023757093 -0.09047605 -0.022052458 0.12308078
000120 52 80 84 3d 51 3f ff bc 6b 43 9a 3b 9d d1 2e 3d
       0.06469788 -0.031158121 0.004707744 0.04268037
000130 7b 08 d7 bd 94 6a b0 3d b7 04 24 bd 81 02 4f bd
       -0.104996644 0.08614078 -0.04004356 -0.050539497
000140 7b ba 73 3d 73 67 d1 bd 52 41 49 bd 42 b8 86 3d
       0.059504014 -0.102248095 -0.04913456 0.06578113
000150 12 37 25 3d 8f 38 67 bd c6 b9 00 bd c1 c8 03 3e
       0.040335722 -0.056450423 -0.031427167 0.1286955
000160 ba ac 4d 3d 0d 79 ba 3d 7d 9e 9b bd 0e b0 ce 3c
       0.050213553 0.0910512 -0.075985886 0.025230434
000170 3d 4a a3 3c fc f2 c3 3c 4c a0 15 3e ca 42 2d 3e
       0.01993286 0.023919575 0.1461193 0.1692001
000180 d4 86 c0 3d ba b1 73 3d f8 ef 26 3d 21 fe 90 bd
       0.094007164 0.059495665 0.040756196 -0.07079721
000190 86 95 e1 bd d6 45 c8 bd 1a 43 5c bd 92 c2 6c bd
       -0.110148475 -0.09778945 -0.05377493 -0.057802744
0001a0 06 6e 6b 3d 98 b7 fd 3c d0 30 3a bd 6e 18 be bd
       0.057477973 0.030971333 -0.045456707 -0.09282003
0001b0 54 75 eb 3d 13 1a be 3d 35 af a9 3d 03 95 4f 3e
       0.11496988 0.09282317 0.08285371 0.20271687
0001c0 a6 d9 76 bd 4c 5c 87 bd 82 7c a8 bd 71 ba 53 bd
       -0.06026616 -0.06609401 -0.08226873 -0.051691476
0001d0 10 ab d6 bd 0b f8 da 3d 32 e4 0e 3b 75 ae ee 3c
       -0.10481846 0.10691842 0.0021803495 0.029135922
0001e0 9f d6 95 bd bd 7e a0 bc 6b 86 89 3c eb 64 1d bc
       -0.07316326 -0.019591684 0.016787728 -0.00960658
0001f0 56 d6 ee 3d 76 ee 50 bd 96 b9 bc 3d 8f 66 da 3a
       0.11661975 -0.051008664 0.09215085 0.0016662645
000200 57 40 9a bc fe d5 1d bd f4 13 6c 3d 73 9b 0a 3e
       -0.018829508 -0.038534157 0.057636216 0.13535862
000210 31 c1 d2 3c bd 52 8e bc 83 c9 e6 bc 3d f5 1b 3e
       0.025726886 -0.017373437 -0.02817226 0.1523027
000220 a4 95 c8 bc 0c b4 c1 3d 46 49 87 bd 70 5f c5 3c
       -0.024485417 0.09458169 -0.06605773 0.02409336
000230 81 62 02 3e e9 f5 b8 3d 17 c5 8e 3d 2c d0 74 3c
       0.12732889 0.09031279 0.06971186 0.01494221
000240 00 9d 72 bd 93 1f 5d 3b 1c b8 97 3c ef 12 ae bd
       -0.059231758 0.0033740744 0.018520407 -0.08499705
000250 d4 40 95 3c e7 ab 85 3d ef f4 f4 bd d6 a8 93 bd
       0.018219389 0.065269284 -0.1196078 -0.07209937
000260 0c 5b 95 bd af 3e a4 3c 3d eb 9c bc 5d b0 76 3c
       -0.072927564 0.020049421 -0.01915514 0.015056697
000270 53 3a 07 bd 91 ba 95 bd cc d5 a9 3d d2 0d 8c 3e
       -0.033014607 -0.07310975 0.08292732 0.27354294
000280 70 fc 8f bd 0c d7 e8 3d 33 b0 a4 3c e3 eb 63 3d
       -0.070305705 0.11369142 0.02010355 0.05564488
000290 3d 6a ea bd 1b 92 e8 bd ab 73 7e 3d ef 32 bb bd
       -0.114460446 -0.113559924 0.06212203 -0.09140574
0002a0 a0 7d d4 bd 3b c0 6c 3d 44 83 55 3d 26 a5 e5 bd
       -0.103755236 0.057800513 0.052127138 -0.1121314
0002b0 71 f4 ab 3d f3 02 d5 bc 4c b1 f5 3d 58 93 88 3d
       0.08396233 -0.026002383 0.11996707 0.066687286
0002c0 4f 82 ea bd 32 a8 a0 bd de fd e4 bc b0 85 43 be
       -0.11450636 -0.07844581 -0.027953085 -0.19093966
0002d0 3e cb 8d bb e0 f9 64 bd 39 c5 f2 bc 1b e3 31 bd
       -0.004327207 -0.055902362 -0.029635059 -0.043429475
0002e0 c7 f9 83 3b ff 9b 02 be 54 96 83 3d 9f 26 3d bd
       0.0040275785 -0.1275482 0.06425157 -0.04617941
0002f0 1c 2f 9b 3d 81 ee f9 3d 65 80 ea 3b 81 d7 ca 3d
       0.07577345 0.12203694 0.007156419 0.09904385
000300 b7 32 89 3d 54 7b 91 bc 1f e3 e1 bd 9c 43 a1 3d
       0.06699126 -0.017759003 -0.11029648 0.078742236
000310 31 e2 68 3d 41 14 9e bd e7 72 b8 bd e9 35 ad 3b
       0.056856338 -0.07718707 -0.09006291 0.0052859676
000320 6b 4e ed 3c 2d b4 5e bd 92 05 6c ba 31 ff c4 bd
       0.028968057 -0.054371048 -0.00090035156 -0.096189864
000330 85 53 46 bd 82 d8 37 bc 0b e3 2a bd ab 9e ac 3d
       -0.048419494 -0.011221053 -0.04172043 0.08428701
000340 1c a6 32 3d 7f eb ee 3d 6b ab aa 3d 2b 24 3a bd
       0.043615445 0.11666011 0.08333477 -0.04544465
000350 b2 7f 5a bd 0c 7b 81 3d 93 ec 90 bc e1 26 dd 3d
       -0.053344436 0.063222975 -0.017690932 0.10798431
000360 c5 8a e7 bc d8 75 ec 3d 79 8b db 3c 54 7a cb bc
       -0.028264413 0.115459144 0.026799904 -0.024838604
000370 f0 d6 bf bd 3d 66 a5 3d 66 0e 2b 3d 04 f0 63 3e
       -0.09367168 0.08076141 0.04176178 0.22259527
000380 c1 a1 5e 3d 32 22 5d 39 d8 50 80 bd ea f5 99 bd
       0.05435348 0.00021088941 -0.0626542 -0.075176075
000390 29 81 40 bc 4a a7 a7 3d 34 fa 6f 3c da d7 2f 3b
       -0.011749544 0.08186205 0.014647055 0.0026831538
0003a0 11 a4 66 bc b8 b8 68 3c dc 73 ae 3d 5b cc a7 3d
       -0.014077202 0.014204197 0.08518192 0.081932746
0003b0 f7 fe 75 bc da ee 02 3c 29 a5 f8 3d f2 60 0b 3e
       -0.015014402 0.007991517 0.12140877 0.136112
0003c0 c7 63 25 bc 48 9d a8 3d 7e e5 74 3d c2 68 89 bd
       -0.01009459 0.08233124 0.059789173 -0.06709434
0003d0 31 73 55 3d fb f9 9c 3c 79 03 1b bd 15 e3 e6 bc
       0.05211181 0.019162169 -0.03784511 -0.028184453
0003e0 67 72 f0 3d b4 54 fc 3c 52 9e e3 bd a5 ad b8 3d
       0.117405705 0.030802108 -0.111141816 0.09017495
0003f0 74 df 33 3c db 36 87 3d 88 89 6e 3d 3f d0 1c 3e
       0.010978568 0.0660226 0.05823663 0.15313815

scale_down.conv1_2.dilation_conv1d.weight f4 [16, 16, 4]
000000 fc 50 a2 bb dd ed d6 bd 7d 05 be 3d c6 11 d5 3d
       -0.0049535017 -0.104945876 0.092783906 0.10403781
000010 c8 5a c6 bd d9 75 09 bd 8f c6 8e bd fa c6 88 bd
       -0.09685284 -0.033559654 -0.06971466 -0.06678577
000020 60 8a dc 3d a5 ff 77 bd da 1e 83 3d 4e f4 88 3d
       0.107685804 -0.060546536 0.06402369 0.066872224
000030 6f c7 97 3c a1 1f 97 bd c3 7f 5d 3b c4 8d 33 bd
       0.018527715 -0.073790796 0.0033798076 -0.04383637
000040 6e dd f6 3d de 2c a6 3d 16 ac df 3a b4 73 e5 3d
       0.12053953 0.081140265 0.0017064835 0.11203709
000050 40 4e ca bd d4 b1 8d 3d b8 a1 84 3d d0 cb 08 3e
       -0.09878206 0.06918684 0.06476158 0.13358998
000060 ce 16 03 bd 43 ed a8 bd 7c fb c9 3d ae 47 f8 3d
       -0.03200417 -0.08248379 0.0986242 0.12123047
000070 93 f3 53 3b 58 8d d5 3c 8f 7e 02 3e 28 bd d1 bd
       0.0032341226 0.026068375 0.12743591 -0.10241157
000080 2d ce e4 bc 51 94 c4 bd 72 55 5c 3d 00 82 d5 3d
       -0.027930344 -0.095986016 0.053792424 0.10425186
000090 da 6d ce bd a5 c4 9d bc 16 25 fc bd 7b 47 c4 3d
       -0.10079546 -0.019258806 -0.12311761 0.09583946
0000a0 55 5e bf 3d 0b d4 1e 3d 61 b4 8b 3b 69 bc 7a 3b
       0.09344164 0.03877644 0.004263446 0.0038259274
0000b0 31 a1 93 3d b3 e8 1d 3d d5 17 b9 bd 37 ea f7 3c
       0.07208479 0.038551997 -0.09037749 0.03026305
0000c0 94 38 d0 3d 64 7a 9f 3d 79 13 c7 bd c7 10 99 bd
       0.101670414 0.07787016 -0.09720511 -0.07473903
0000d0 94 99 ab 3d 80 54 c7 3d 6d 54 99 bd fc c9 8e bd
       0.08378902 0.09732914 -0.07486806 -0.06972119
0000e0 5d 76 eb 3c 3e 3b 70 bd 2b 26 9d 3d db 9c b7 3c
       0.028742963 -0.058650248 0.076732956 0.022413662
0000f0 c3 45 b3 3d 44 25 69 bc d9 61 bf bc e6 83 e0 bd
       0.0875354 -0.014230076 -0.023362087 -0.10962658
000100 c9 48 e7 3d ec 2c 87 3d 0e 47 50 3c 77 55 70 bd
       0.112931795 0.06600365 0.012712253 -0.058675256
000110 d0 1a d2 3d d9 2a e5 3d 7d 2f f3 bc 3f 83 a9 bd
       0.1025902 0.11189813 -0.02968573 -0.08276986
000120 88 71 66 bd c6 b9 a1 3d 5d a2 d9 bd 0e b5 8f bd
       -0.056260616 0.078967616 -0.106266715 -0.07016955
000130 6b 86 92 bb 47 e7 9c 3d c2 6d 09 bc 36 73 0e be
       -0.0044715903 0.076613 -0.008387985 -0.13911137
000140 03 42 b6 bd 25 06 1c 3d 58 c7 80 bc f1 19 c8 3d
       -0.088993095 0.038091797 -0.015720055 0.09770573
000150 da 69 a3 3d 40 d6 38 3d 07 1b 41 3c be f7 26 bd
       0.07979174 0.0451262 0.011786229 -0.04076361
000160 04 7a a6 bd 04 a6 f8 bd 7f 39 71 3d 76 5b 61 3c
       -0.081287414 -0.1214104 0.058892723 0.013754716
000170 e6 b0 cf 3d 9b 52 41 bd 42 dd f3 bd f0 07 95 bd
       0.101411626 -0.04719792 -0.11907436 -0.072769046
000180 83 39 b5 bd 39 bf e6 bc d0 f1 fd bd c2 99 ed 3d
       -0.0884886 -0.028167354 -0.12399638 0.116015926
000190 d7 e6 bc 3d 78 40 fe 3b 5f 75 02 be 6b 7c 7d 3d
       0.09223717 0.00775915 -0.12740086 0.061886232
0001a0 87 fc e4 bc 31 fb f6 3c cd 39 18 bd 40 f2 cd bd
       -0.027952446 0.030149074 -0.037164498 -0.10055971
0001b0 67 09 d3 bd da 0c 09 3d 97 f3 21 bd 0b e0 e7 3d
       -0.10304528 0.03345952 -0.039538946 0.1132203
0001c0 27 18 63 bc 1d d3 90 3c 69 93 9d 3d 95 35 24 3e
       -0.013860739 0.017678792 0.07694132 0.16036065
0001d0 16 35 49 3d ee a1 dd 3d b9 25 c3 3d bd 5f 1e 3e
       0.049122892 0.10821901 0.095286794 0.15466209
0001e0 6a 9d cd bd ce b3 4a 3d 21 3b 24 bd 0e 41 2f be
       -0.1003979 0.04948788 -0.040095452 -0.1711466
0001f0 32 d3 08 3c 85 60 b4 3d e4 09 e5 3d 3f a6 3d bd
       0.008351134 0.08807472 0.11183527 -0.046301123
000200 db 01 5d 3d 06 85 e7 bb 21 5c a6 3c 1b d8 82 3b
       0.053956848 -0.007065418 0.020307602 0.003993047
000210 fe b0 76 bd 03 94 a4 bd 69 3c e9 bd ba 8b 16 bd
       -0.060227387 -0.080360435 -0.113884754 -0.036754347
000220 39 1e eb 3d 56 94 31 3d d0 2b e9 3b ae 99 08 be
       0.11480374 0.043354355 0.0071158186 -0.13339874
000230 18 93 6f bc 0f 4b f5 bd c9 86 c1 3c 3a 8e 01 be
       -0.014622472 -0.11977207 0.02362384 -0.12651911
000240 1e 12 ba 3d 21 64 a0 3d 80 ac c0 bd 4f 7a 57 3e
       0.09085487 0.07831598 -0.09407902 0.21042751
000250 41 8f 00 bd 5b 3f fe bd 8f a2 2c bd e9 13 81 3b
       -0.031386618 -0.12414428 -0.042147215 0.003939141
000260 30 50 8f 3d a3 e1 0e 3c 01 01 c4 3d 6d ff b2 bd
       0.069977164 0.008720788 0.09570504 -0.08740125
000270 33 05 6b bd 71 d9 ff bd bc 34 51 bc af 5a d0 bd
       -0.057378005 -0.124926455 -0.0127689205 -0.101735465
000280 15 e2 89 3d 13 ec 8c 3d 4e 45 23 bd bf f4 52 3e
       0.06732575 0.06880965 -0.039861016 0.20601176
000290 ce 18 ab bd a0 7b bb bd d4 fe dd bc f8 10 74 3d
       -0.083543405 -0.09154439 -0.02709905 0.059586495
0002a0 d7 d6 e0 3d c3 ca b1 bd e6 58 c7 3d 99 2d 16 3d
       0.109784774 -0.08681252 0.09733753 0.03666458
0002b0 92 e3 85 bd 20 4d ab bd 9a 3e 37 3d ef 53 49 bc
       -0.06537546 -0.0836432 0.044737436 -0.012288078
0002c0 9d 70 d0 3d 3f d3 81 3c 36 db f1 bd 82 ce 19 3d
       0.10177729 0.0158478 -0.11809389 0.037550457
0002d0 9b 30 37 bd 80 f9 8d bd c6 01 91 bc 0a fe e6 3d
       -0.04472409 -0.06932354 -0.017701041 0.11278923
0002e0 2f ab 93 bd e1 d8 aa bc 73 2b 6c bd 07 f4 82 bd
       -0.07210385 -0.020855369 -0.057658624 -0.06394201
0002f0 29 16 b7 3d 35 d4 cf 3d 44 d0 ea 3d 7f 4b 02 be
       0.089397736 0.10147897 0.11465505 -0.12724112
000300 a9 b4 bd bd 52 24 b6 3d 85 0d 6c 3d 60 bb 88 bb
       -0.09262974 0.08893646 0.05763008 -0.0041727275
000310 2d 38 82 bd 54 b3 c6 bd 49 d0 3c bd 5c c0 e8 3d
       -0.06358371 -0.09702173 -0.046097074 0.11364815
000320 35 0e 66 bd 24 88 9d bd 73 cf 27 3d 6f f8 f5 3d
       -0.056165893 -0.076919824 0.040969323 0.120102756
000330 09 6a 6a 3c b1 41 05 3d b2 86 93 3d b7 fd a0 3c
       0.014307507 0.03253335 0.072034255 0.01965223
000340 03 2f da bd 98 0a ba 3c 13 7e 8c bd db 6a 80 bd
       -0.10653498 0.02271013 -0.06859984 -0.06270381
000350 e1 e7 82 bd 4a d9 f2 3d 1a 3d 8b bc ac 6f cc 3d
       -0.06391884 0.11857851 -0.016996909 0.09982237
000360 63 c6 be bd ca 77 dd bd bc 3e 65 bd ff 55 3a bd
       -0.09315183 -0.108138636 -0.05596803 -0.04549217
000370 ca 8b d0 3d 91 ea c0 bd 11 a8 5b bd f7 9b 1f 3d
       0.10182913 -0.0941974 -0.053627077 0.0389671
000380 a9 58 26 3c 35 d7 31 bd 8d 4c b7 3d 23 d0 0b be
       0.010152974 -0.043418128 0.08950148 -0.13653617
000390 bf e7 52 3d a2 07 d4 3c e1 6b 82 bd a2 53 f6 3a
       0.05149054 0.025882546 -0.063682325 0.0018793235
0003a0 8b 2d 38 3d 31 26 16 bc 3e ee 2a bd a2 03 84 3d
       0.04496531 -0.009164379 -0.04173111 0.064460054
0003b0 e4 b2 3b bd 30 43 ab bc d9 d0 b0 bc 2a 89 17 3b
       -0.0458249 -0.020906061 -0.021583961 0.0023122528
0003c0 26 75 61 3c 9e 6a d8 3c 06 87 c8 bd ed 2c 06 be
       0.0137608405 0.026418027 -0.09791379 -0.13103075
0003d0 6c 12 cf 3c 2f 16 d3 3d 64 0f 96 bd 14 3f 94 bd
       0.025277339 0.103069656 -0.07327154 -0.07238594
0003e0 ec 12 a5 bd df c0 dd bd af 34 f4 bd 17 77 11 3e
       -0.0806025 -0.10827803 -0.11924111 0.14205585
0003f0 ee 1a 02 ba 6c df 83 bd ee 9e ec 3d f9 93 02 3d
       -0.0004963119 -0.06439099 0.11553751 0.0318794

scale_down.conv2.dilation_conv1d.weight f4 [1, 16, 16]
000000 02 3a 45 bd 2a d1 db 3c 1f 76 49 bd 14 45 69 3d
       -0.048151024 0.026833136 -0.049184915 0.056950644
000010 7f b5 b3 bc 18 8a c9 3c 3f 9f 3f 3c a3 80 36 bd
       -0.02193713 0.024601981 0.011695682 -0.04455627
000020 4c e5 09 bd e4 da 82 3c b4 4d 4b 3c 83 83 e6 bc
       -0.03366594 0.015973516 0.012408663 -0.028138882
000030 b7 7c 19 3c fa bc 0b bd da 98 80 3d 8e ca 8a 3c
       0.009368113 -0.03411577 0.06279154 0.016942289
000040 ce a9 1c 3d 27 95 2e bd fc e6 09 3d 39 6f 36 3d
       0.038247876 -0.04262271 0.03366755 0.044539664
000050 99 87 e6 3c 61 ce 37 3d 7a ef 5a 3d f1 b1 2c 3d
       0.02814083 0.044874553 0.05345104 0.042161886
000060 1b 07 bc 3a a1 6e 33 3d 51 e6 7a bc 54 ad 76 3c
       0.0014345379 0.043806676 -0.015313701 0.015055973
000070 1d 08 05 3d 34 02 7f 3d 2e 61 55 3d 23 66 43 3e
       0.03247844 0.06225796 0.05209463 0.19081931
000080 ba e2 81 bc f2 4c 18 3d e8 f0 5b bb 49 12 5f bb
       -0.015855182 0.037182756 -0.003356034 -0.0034037998
000090 1d 19 12 3d 80 70 24 3d 2b 85 af bc ff 2c 20 3d
       0.03566848 0.04014635 -0.021425804 0.03910541
0000a0 65 9e ad 3a e7 20 38 bd 29 6e 08 bc 3c 68 43 3d
       0.0013246058 -0.044953253 -0.0083270455 0.047706828
0000b0 9f 18 19 3d f4 bc 7c 3d 87 0b 1a 3d fa 29 27 3e
       0.037376996 0.061703637 0.03760865 0.16324607
0000c0 3c ae 17 3d 2f 65 ce 3c c0 4a 55 bc 77 d1 35 bd
       0.037031397 0.025194732 -0.01301831 -0.044389214
0000d0 bd fd 36 bc 5e f0 1a 3c c5 88 e4 bc 9b d6 2a 3d
       -0.011168894 0.009456722 -0.027897248 0.04170857
0000e0 7b 42 6c bd 77 1a dc bc 64 d2 1c bd d6 3f 1e bd
       -0.05768059 -0.026868088 -0.03828658 -0.038635097
0000f0 d4 7a b1 bc d1 aa 8a bd 9a b3 93 bd 33 0b dd bd
       -0.021665014 -0.06770862 -0.07211991 -0.10793152
000100 13 13 e7 3c 57 c7 92 bd 3f ad 3a bd 08 78 1d 3d
       0.028207337 -0.07166927 -0.045575377 0.03844455
000110 c9 56 5a 3d 5b a2 16 3d 6a d0 64 bd fb 07 08 3c
       0.05330542 0.036775928 -0.05586282 0.008302684
000120 44 18 41 3d 74 b6 05 3b c6 8d 68 3d 6e 4b 61 3d
       0.047142282 0.002040294 0.05677583 0.055003576
000130 00 e6 97 bc 34 f7 0a 3c 67 fc c2 bc 6f 6b 20 bd
       -0.01854229 0.008481789 -0.023801995 -0.039164957
000140 d3 e7 5f 3d 69 f0 63 3c 6b d2 52 3d d7 fe ba 3c
       0.054664444 0.013912299 0.0514702 0.022826595
000150 22 8d 14 bc a6 89 71 3d 39 8a 12 bd a0 69 1f bd
       -0.009066852 0.058969162 -0.03577635 -0.03891909
000160 f7 89 22 3d 79 22 84 3d b7 4f a3 bc 72 5c fe 3c
       0.039682355 0.06451888 -0.019935472 0.03104994
000170 eb cf 4c bc ea a6 5a 3d 2d 98 c2 bc 4f 3f 38 bd
       -0.012500743 0.053381838 -0.023754204 -0.04498225
000180 95 d0 21 bb 2e fa 7f 3d e5 fe 9d bc e9 2c 55 bd
       -0.0024690975 0.06249445 -0.019286582 -0.052044783
000190 10 15 83 bc 91 a5 c9 3c ca 9c 06 3d 9e 1b 71 3d
       -0.016001254 0.024615081 0.03286437 0.05886423
0001a0 bb 53 7d 3c 5a df 05 3d 1b d6 b4 bb a2 60 ac bc
       0.015461857 0.032683708 -0.0055186874 -0.021042172
0001b0 a4 8b a4 3a 89 fd 9b 3d af 93 93 3d 59 9a 0e 3e
       0.0012553823 0.07616717 0.07205903 0.13926066
0001c0 ef a5 e2 3b b9 29 0c bd cf 7c e2 bb 6a 08 b3 bc
       0.0069167535 -0.034219477 -0.006911851 -0.021854598
0001d0 0e 91 74 3d ea 91 90 bb 22 f6 74 3c 99 d5 67 3d
       0.059708647 -0.0044119256 0.014951261 0.056600187
0001e0 78 c3 93 bc db 81 03 3d 9e 64 06 bd ee 8c 0c bd
       -0.018037543 0.03210626 -0.0328108 -0.03431409
0001f0 aa 81 ee 3c 6a 9f 2d 3c 67 c8 7b 3d f8 b3 40 3d
       0.029114563 0.010597089 0.061470415 0.04704663
000200 0d a5 9a bb 5c 0a 2b 3d 83 a3 98 bb f9 45 fc bc
       -0.0047193826 0.041757926 -0.004658164 -0.030795084
000210 8d c5 72 3d 35 5f 9b bc b5 fa 69 bd 04 78 42 3d
       0.05927043 -0.018966297 -0.05712386 0.047477737
000220 a6 92 73 bd e6 e8 8e bc bd 98 6b 3d 47 5f df bc
       -0.059466027 -0.017445039 0.05751871 -0.027267111
000230 6a 58 75 3d 4f 4e 5b 3d e3 6a c4 bc bd f9 1d be
       0.05989877 0.053541478 -0.023976749 -0.15427299
000240 39 6d 1f bc cb c3 53 3d ed 82 15 bd 95 d5 ab 3b
       -0.009730631 0.051700395 -0.036501814 0.005243967
000250 98 9f 40 bd eb 06 92 bc c3 e9 0e 3c 07 4a 7f bc
       -0.0470272 -0.017825564 0.008722725 -0.015581614
000260 e3 f8 c4 3c ad 71 d0 bc e7 e3 4b bd 41 88 43 3d
       0.02404446 -0.02544483 -0.04977789 0.047737364
000270 1a c6 62 3c 9f 3d 8d bc 08 7c 36 bb a5 90 42 bd
       0.013841176 -0.017241297 -0.0027844924 -0.047501225
000280 cf 12 a0 3b be b6 74 3d be be d7 bc 86 33 50 bd
       0.0048850547 0.05974459 -0.02633607 -0.050830387
000290 de ba b5 3c 9e d4 35 bd 25 31 17 bd ac e0 58 3d
       0.022183832 -0.04439222 -0.036912102 0.05294864
0002a0 49 2f 83 bd 4e f2 2b bd b0 b7 04 3d 45 ea 1d 3c
       -0.06405503 -0.041979127 0.03240174 0.009638374
0002b0 47 7e 21 3d 9f 84 df 3d 22 d9 fe 3d bc bd 06 3e
       0.039427068 0.10913967 0.124437585 0.13158315
0002c0 10 d6 53 3b 96 8f 7c bd 81 42 e7 3b 87 ac a5 bb
       0.0032323636 -0.06166037 0.0070574884 -0.0050559673
0002d0 de 65 2d bd 1a 01 0a 3d 41 f7 80 3c d1 16 67 3b
       -0.042333476 0.033692457 0.0157429 0.0035261402
0002e0 f0 84 1e 3d a5 c0 1e 3d 99 a4 d6 3c 3e 0c 9d 3c
       0.038700998 0.03875794 0.026201533 0.019170877
0002f0 c4 b0 81 3c 45 f2 95 3c a6 e8 53 3d f8 67 59 bc
       0.015831359 0.018304 0.051735543 -0.013269417
000300 2b 12 a8 3c 08 90 60 3d d6 00 67 3c a0 7d c7 bc
       0.020516476 0.05482486 0.01409932 -0.024351895
000310 2a 48 01 3d dc d4 1d bc bc bf ea bc 0c 06 35 bd
       0.03156296 -0.009633269 -0.02865588 -0.04419522
000320 8d 04 bc 3c 35 4e 9d ba 2f 86 81 bd df e3 13 3d
       0.022951389 -0.0012001457 -0.063244216 0.036105987
000330 30 61 57 3d bf 8b 3e bc 73 10 a5 ba 1f 1d b2 3d
       0.05258292 -0.011629998 -0.0012593403 0.08696961
000340 d2 4e c7 bb cf 67 b7 3c e3 dc 39 bd c2 f5 50 bd
       -0.006082394 0.022388367 -0.04537667 -0.051015623
000350 35 d1 01 bd ad 61 55 bd 06 b0 81 3c 2d 15 46 3d
       -0.031693656 -0.052095104 0.015831005 0.04836004
000360 b7 a3 d4 3a aa a4 f3 3c 92 af 99 3c 55 65 52 bc
       0.0016223107 0.029741604 0.018760476 -0.012841542
000370 c1 8c c3 bc e8 a6 48 3d af ad 3e 3d a1 2b b8 3c
       -0.023870828 0.0489873 0.046552356 0.022481741
000380 e8 4b 89 3d 8e c4 25 bd a5 29 06 3d 60 66 24 3c
       0.06703931 -0.040470652 0.03275456 0.010034174
000390 2f 23 50 3d 3b 10 e2 bc 62 23 74 3c 6d 52 4b bd
       0.050814804 -0.02759563 0.014901014 -0.049639154
0003a0 42 f9 55 bd e6 30 af bb af 28 6e 3d ba 1c c4 3b
       -0.052239664 -0.0053464053 0.058144268 0.00598487
0003b0 b8 1f 83 3c 86 86 93 3d c1 de 75 3d 23 c1 e3 3d
       0.016006336 0.07203393 0.060026888 0.11120822
0003c0 2e 6a b8 bc 1e b5 e7 bc 53 46 87 3d 22 43 14 bd
       -0.022511568 -0.028284606 0.0660521 -0.036196835
0003d0 48 27 5e bd 9e 54 98 3c 89 b4 e2 ba ef fe 6b 3c
       -0.05423668 0.018595036 -0.0017296235 0.014404043
0003e0 cf ca 47 bd 91 26 f7 3c 3a 5d ee 3c d1 d0 9e bc
       -0.048777398 0.030169757 0.029097188 -0.01938668
0003f0 da 76 ba bc ee b9 5f 3d 3c 24 c3 3d 4e d8 fc 3d
       -0.022761751 0.054620676 0.095283955 0.12345944

scale_up.conv1.dilation_conv1d.weight f4 [16, 1, 4]
000000 7b ea 58 bd 37 22 81 3d ba 6a a2 be b9 13 a7 bd
       -0.052957993 0.06305354 -0.3172205 -0.08158059
000010 b5 96 00 3e f7 99 9c 3e 8b 24 ae be d4 34 e5 3e
       0.1255749 0.30586216 -0.34012255 0.44766867
000020 4f 79 1d 3c ef 40 30 bc 37 db 71 3e e8 50 dc 3d
       0.009611442 -0.010757669 0.2361878 0.10757619
000030 32 e0 f0 be cc 24 f2 be a5 bd 12 be 3f 8a d6 3e
       -0.47046047 -0.472937 -0.14330156 0.41902348
000040 bd 53 c1 be 9c cd fe 3e fb 6a 32 be e3 25 bd 3e
       -0.377592 0.49766243 -0.17423622 0.36942968
000050 e5 06 6d 3d 33 69 e2 be eb 95 a8 3e 03 91 e6 be
       0.057867903 -0.44220886 0.32926878 -0.4503251
000060 e9 27 d2 bd be 05 07 be 51 81 b9 3e ae 11 01 bf
       -0.102615185 -0.13185784 0.36231473 -0.504176
000070 b2 d8 f6 be b5 bb a1 3c 01 9c 62 be 30 35 da be
       -0.482122 0.019742826 -0.22129823 -0.42618704
000080 79 21 ad be 8d 81 f6 be 19 d2 bd 3e 33 9a ed be
       -0.338146 -0.48145714 0.37074354 -0.46406707
000090 7f e6 29 3e 43 b8 95 3e 60 07 be 3d ba bd 76 3e
       0.16591834 0.29242143 0.092787504 0.24095812
0000a0 d9 aa 66 3e e6 e9 d7 be 4d 4a d9 3e 16 09 72 3e
       0.2252611 -0.42170638 0.424395 0.23636279
0000b0 f6 8f f2 3e db c8 7c be f7 02 66 be 5b 36 fa 3e
       0.47375458 -0.24685995 -0.22462068 0.48869595
0000c0 ce 8d 03 bf 51 8b a3 be 9f ce a5 3e de 1c 3b 3e
       -0.5138825 -0.31942227 0.32384202 0.1827273
0000d0 4e 5f c5 be d4 f4 9f be 1b 34 b5 3e 8b ed 3e 3e
       -0.38549274 -0.31241477 0.35391316 0.18645303
0000e0 e1 db 09 be cd d4 dc be 65 65 fe be ae 56 9b 3e
       -0.13462783 -0.43131104 -0.49686733 0.3033957
0000f0 7d 8e 9c 3d db 47 91 3e 27 11 c7 3d 70 67 10 3f
       0.07644365 0.28375134 0.097200684 0.56407833

scale_up.conv1_1.dilation_conv1d.weight f4 [16, 16, 4]
000000 c0 57 2f 3d 95 02 12 3c c1 e1 9f 3b d9 6b 58 be
       0.042808294 0.008911748 0.004879207 -0.2113489
000010 da 90 ff bd bb 27 df 3d 8a d2 c6 3d 8b 6c 1a 3e
       -0.124788 0.1089625 0.09708126 0.15080468
000020 94 ad 83 3c c3 33 06 3a 0b f6 1a 3d 5a 48 5a 3d
       0.01607398 0.00051194074 0.0378323 0.053291656
000030 db e9 2b 3d b0 92 ca b8 16 5f b8 3d 9e 73 d5 bd
       0.04197107 -9.659433e-05 0.09002511 -0.10422443
000040 ec 1e 7f 3d c4 af 8d bd 83 0b 80 3b ec 04 7d 3e
       0.06228535 -0.0691829 0.0039076223 0.24708909
000050 23 15 9c 3d c6 7c df bc ab a5 6c bd c9 b0 1a bd
       0.07621219 -0.027281176 -0.05777518 -0.03776625
000060 ee 0b db bd 2c 1d 81 bd af c8 3f be 39 5e 46 be
       -0.10695635 -0.06304392 -0.18728898 -0.1937188
000070 1e c0 79 bd 97 65 c3 3c 2d a7 6c bc ea 99 06 be
       -0.060974233 0.023852153 -0.014444155 -0.13144651
000080 a5 bf 67 3c 16 b5 ca bc 30 7d 83 bd 1e d9 b0 bd
       0.014144813 -0.024744552 -0.06420362 -0.08635162
000090 3a 73 da 3d ce f3 a2 3d ee 65 98 3d 10 bf 96 3d
       0.10666509 0.07956658 0.074413165 0.07360661
0000a0 09 95 bb 3d 08 34 59 bd c2 40 4f 3e de 19 c1 3d
       0.091592856 -0.053028136 0.20239547 0.09428762
0000b0 55 5e 86 3d fd 28 af 3d ad 10 05 3e c2 83 df 3c
       0.06560961 0.0855274 0.12994643 0.027284507
0000c0 7f e1 55 bc fc 2f 05 bc be 66 11 3d cc 6e 03 3e
       -0.013054251 -0.008129116 0.035498373 0.12835234
0000d0 cb 50 38 3b 0d e4 86 3c 36 99 01 3d 14 03 18 3e
       0.0028124328 0.016466165 0.031640254 0.14844924
0000e0 20 52 a4 3c 42 bf 35 3d f8 9e b4 3c a7 6e d9 3c
       0.020058692 0.04437185 0.022048458 0.026542021
0000f0 99 91 b1 3d 66 ad 16 3e 8b dc 45 3e 02 78 b2 3d
       0.08670349 0.14714584 0.19322412 0.08714296
000100 58 ab e2 3d a1 86 69 bc 2b 0b 42 3e 71 98 c8 3c
       0.110678375 -0.014253289 0.18949573 0.024486752
000110 e6 30 9d 3d f5 8d 9b 3b 9c 8f 99 bd 34 fe bc 3c
       0.07675342 0.004747147 -0.074980944 0.023070432
000120 12 51 0b be ab 63 05 3d 67 26 8a bd 44 e5 3a be
       -0.13605145 0.032565754 -0.06745606 -0.1825152
000130 ac e3 e3 3d 37 ef c0 3d 8b c8 cd bd c2 db 03 3e
       0.11127409 0.094206266 -0.10048016 0.128768
000140 ff a6 81 3d 74 19 a5 3c 2c 86 3f be 01 55 5f be
       0.0633068 0.020153739 -0.18703526 -0.2180977
000150 1a c3 1a bd ef 63 45 3d 94 2d 49 3e e7 d0 06 3e
       -0.03778372 0.048191007 0.19646293 0.13165627
000160 6a fa 04 3e ee 68 21 bd 51 aa ae 3d 9b 0e b0 3d
       0.1298615 -0.03940671 0.08528579 0.08596536
000170 05 c4 1b bc 31 6d 94 3d f5 5b 79 bd 32 6c 44 3d
       -0.009507184 0.07247389 -0.060878713 0.047954746
000180 06 e5 6d 3d f9 a0 92 bd 1d c1 7f bd bd 49 d1 3c
       0.058079742 -0.07159609 -0.062440027 0.025547856
000190 75 37 1d bd 54 85 b1 bd 45 99 d1 3c da d4 da bd
       -0.038382966 -0.086680084 0.02558578 -0.106851295
0001a0 64 f9 58 bb f7 7c 71 bd 53 33 1c be 62 e1 91 bd
       -0.0033107633 -0.058957066 -0.15253954 -0.071230665
0001b0 9e 40 4f bd a1 34 09 be 6d 39 80 bd 60 4c 3e bd
       -0.050598733 -0.13398983 -0.06260953 -0.046459556
0001c0 c8 a8 00 be c2 7b ad bd 50 a0 8c bd 26 40 c3 3d
       -0.12564385 -0.084708706 -0.06866515 0.0953372
0001d0 d8 25 f7 bd ae b8 23 bd 2b 56 35 bc 78 86 6b bd
       -0.12067765 -0.039971046 -0.011067907 -0.057501286
0001e0 ad ef 8f 3d 1a 23 24 bd b0 f0 08 3e d1 5f 47 3d
       0.070281364 -0.040072538 0.13373065 0.048675362
0001f0 ef 41 90 bd 28 d3 8d bd 02 6e 29 bd b8 a5 21 3b
       -0.07043826 -0.069250405 -0.041364677 0.0024665426
000200 23 70 a0 3b 34 67 e8 bc 4a 3c 20 bb e4 26 46 be
       0.0048961802 -0.028369524 -0.0024449998 -0.19350773
000210 3d d6 79 bb 87 4b 1b bd d9 c9 44 bc 75 e1 2b 3e
       -0.003812208 -0.037913825 -0.012011015 0.16785224
000220 96 ab b7 bd 83 83 d6 3d 6f 3e 31 3d 3d c9 43 3e
       -0.08968274 0.104743026 0.043272432 0.19119735
000230 63 74 60 3d de 4b 95 bd 5b 09 7a bd 90 b7 fd 39
       0.054798495 -0.07289861 -0.06104408 0.00048392685
000240 a8 ab a7 3d 76 a8 fd 3d cb 98 31 3e 9d 83 91 3e
       0.08187038 0.12385647 0.17343442 0.28420725
000250 95 97 46 bd 84 b2 3b 3d b6 ca df bc e0 bd 62 be
       -0.048484404 0.045824543 -0.02731834 -0.22142744
000260 30 44 f8 3d b6 9d 14 3d 32 a9 05 be fa 14 da bd
       0.12122381 0.036283217 -0.13052824 -0.10648532
000270 ee e3 14 bc 47 a6 9a bc cf 59 e8 bd ee 82 46 be
       -0.009087546 -0.018878115 -0.11345255 -0.19385883
000280 8a d3 05 3d 40 d7 a4 bd 66 01 94 3d c4 df 33 be
       0.032672442 -0.08048868 0.07226829 -0.17565829
000290 82 56 a1 3c 8d 81 05 3d ba 3e 92 bd 51 b7 5f 3e
       0.01969457 0.032594252 -0.071408704 0.21847273
0002a0 89 a0 4b bd fc f9 65 3d 32 a5 2a bd e6 d8 93 3d
       -0.049713645 0.056146607 -0.04166145 0.072191045
0002b0 be a4 c7 3c b5 f5 b0 3d 12 12 a0 3d a7 b9 1b 3e
       0.024370547 0.08640615 0.07815947 0.1520754
0002c0 b2 48 3c bd 0f b4 a7 3c fb 85 9c 3d 92 6c ed 3d
       -0.045967765 0.0204716 0.07642742 0.11592974
0002d0 1e d5 c1 bb 24 2d fe 3d fd 6b 42 bc 50 d4 64 bb
       -0.005915298 0.12410954 -0.011866567 -0.0034916587
0002e0 f2 fa f2 3d e3 7c 15 bd d0 ec 9f bd a4 a5 4b ba
       0.1186427 -0.036496054 -0.0780884 -0.0007768518
0002f0 2b 83 8c bd a0 3b 25 bd d6 84 82 3c 28 ad 81 3e
       -0.06860956 -0.040340066 0.015932482 0.2532742
000300 74 85 f3 3d de 37 89 bd 73 ad aa bd 1b f9 b3 bd
       0.118906885 -0.06700109 -0.08333864 -0.087877475
000310 54 e4 0a be d7 4e 69 3d c7 ca 06 be a7 89 7a 3d
       -0.13563663 0.056959953 -0.13163291 0.06116643
000320 3d 09 8b 3d 2f c9 cb bc 93 4e 45 bd 08 08 d4 bd
       0.067888714 -0.024876205 -0.048170637 -0.10353094
000330 78 1d 8f 3d 53 e9 a7 3d 8b 2d 9b 3d 6c 76 69 bd
       0.069880426 0.081988 0.07577046 -0.0569977
000340 dd f6 f7 3c 69 59 e7 3c f6 ed 56 3d 55 6b 08 3d
       0.03026908 0.028240876 0.05247303 0.033305485
000350 5f fd 4d 3d 3f d3 a6 3c 4e 15 19 3e 4b 76 db bc
       0.05029046 0.020364402 0.14949533 -0.026789805
000360 7b 4d 14 3d ba e7 bf bd a7 ca c7 bd 57 d7 3b bd
       0.036206704 -0.0937037 -0.0975545 -0.04585966
000370 34 0c 08 3e 18 df e0 3c f2 99 44 bc 70 fc 07 bc
       0.13285905 0.02745013 -0.011999594 -0.008299932
000380 7d de 15 3c 3a 19 80 3a a1 f6 a2 bd c6 73 97 3d
       0.009147284 0.0009773143 -0.07957197 0.07395129
000390 9c 6f 98 bd 70 41 c0 bc 6f 7f 32 bd bc b6 4d 3d
       -0.07443163 -0.023468703 -0.04357856 0.050223097
0003a0 7e aa 55 3a cd 06 0b be 3e 06 c3 3d ff 88 22 be
       0.00081507105 -0.13576813 0.09522675 -0.15872572
0003b0 fe 84 86 3d 71 0d 9e 3d 5e a6 bd bd 5c 3d 5e bd
       0.06568335 0.077174075 -0.09260248 -0.054257736
0003c0 60 54 51 3d 3f 04 a5 3d 35 8f f4 3d 8f 0c 42 bd
       0.051105857 0.080574505 0.11941377 -0.047375258
0003d0 6b 11 d0 3d 3e 56 a4 3c 09 6f 6c bd b7 ba a0 3d
       0.10159572 0.020060655 -0.05772308 0.07848113
0003e0 e8 c2 0d 3e 78 23 8a bd 1b fc 2a bd 3e b2 2d bc
       0.13843882 -0.067450464 -0.041744333 -0.010601578
0003f0 24 d5 aa bd 05 14 d1 bd d1 f5 09 3d c8 47 f9 bd
       -0.083414346 -0.102088965 0.033681694 -0.12171894

scale_up.conv1_2.dilation_conv1d.weight f4 [16, 16, 4]
000000 a8 d0 87 bc b9 24 92 3d f1 82 87 bd dd 91 76 bd
       -0.016578987 0.071359105 -0.06616772 -0.0601977
000010 7f 37 92 3b a3 97 c5 bd 94 df a6 3d b1 54 a9 3d
       0.004462182 -0.09648063 0.08148113 0.08268107
000020 f8 52 8c 3d 5f ba be bd 47 30 c5 bc 2d 68 ac be
       0.068517625 -0.09312891 -0.024070872 -0.3367323
000030 c1 91 ec 3a 6e 33 2e 3c 49 98 f3 bd fa 4c de bc
       0.0018048809 0.010632379 -0.118942805 -0.027136315
000040 1d a8 d2 3d 9a ea 04 bd ac 7e 3d bd 1f 82 db bd
       0.10285971 -0.032450296 -0.04626338 -0.10718178
000050 c2 1b c5 bd af d9 08 3e 07 e4 fb 3b a6 9a 4e be
       -0.09624435 0.1336429 0.007687095 -0.20176181
000060 93 b2 77 3d 31 f6 74 bc bb e0 e0 bc 0d 8e 94 3d
       0.060473036 -0.014951275 -0.02745091 0.072536565
000070 0d 2c 8a 3d da 86 8e 3d a1 91 0a 3c 77 c5 ea 3d
       0.06746683 0.06959315 0.008457572 0.11463445
000080 64 67 af bd d9 20 ac bc d8 be 2f bd 93 24 30 be
       -0.08564642 -0.021011757 -0.042906612 -0.17201452
000090 c5 e6 00 3e 80 d0 a7 3d 6d c7 03 bd d4 2c 6e be
       0.12588032 0.08194065 -0.03217261 -0.23259288
0000a0 60 73 82 3d c4 e8 02 3b 29 91 bf bc db 23 45 3e
       0.06369662 0.0019975165 -0.023384647 0.19251959
0000b0 b2 e8 64 3d a1 22 01 be 67 06 38 bd f5 4a 09 bd
       0.055885978 -0.12610866 -0.04492798 -0.03351875
0000c0 55 23 de 3c 5e ab d7 3d d6 e1 3f bd 0a 49 5c 3e
       0.027116457 0.105307326 -0.046846233 0.21512237
0000d0 39 ee 61 bd 95 36 14 3c 89 95 17 be f8 01 9a be
       -0.055158827 0.0090462165 -0.14803137 -0.30079627
0000e0 95 c5 ad 3d af 27 40 bd de dd cb 3d e9 83 76 3e
       0.084849514 -0.046912845 0.09954427 0.24073757
0000f0 b4 0c fc bd e1 ea 82 3d bf 9e 8d 3d 84 ba d2 bd
       -0.123071104 0.06392456 0.06915044 -0.10289481
000100 1c 76 ce 3d 3f a2 27 bd cd 6b e4 bd a8 8d 21 be
       0.10081121 -0.040926214 -0.11153374 -0.15776694
000110 e7 e8 02 bd ca 00 85 bd d5 69 aa bd c1 2f 90 bb
       -0.031960394 -0.06494291 -0.08320967 -0.004400224
000120 5a 85 2a bc 59 c9 48 3d c5 88 b8 bd da cc 24 be
       -0.01040777 0.049020145 -0.09010462 -0.1609377
000130 05 05 8a 3d aa 49 a5 bd c7 56 f3 bd 8b e1 54 3d
       0.06739239 -0.08070691 -0.11881786 0.051972907
000140 a7 2f da bb 1e 3f 22 bd 1a b4 f0 bd a9 9b aa bd
       -0.0066585126 -0.039610974 -0.11753102 -0.08330471
000150 87 b0 dd 3d 2a d3 c2 3c 30 7e 16 3c ef 3d f8 3c
       0.108246855 0.023782331 0.009185359 0.03030297
000160 08 15 02 3e 3d d1 1f bd c8 b3 0e 3d 24 54 c9 bd
       0.12703335 -0.039017905 0.03483942 -0.09830502
000170 4b a5 92 3d 6c 36 c2 3b 64 14 4b 3b 82 4d 00 3e
       0.071604334 0.0059268977 0.0030987496 0.12529567
000180 6f e4 e0 bc b7 87 ce 3c 80 e0 81 3c 30 46 0a be
       -0.027452676 0.025211198 0.01585412 -0.13503337
000190 a0 2e 56 bd 0b 61 77 3d 16 d6 14 be 71 46 e9 bd
       -0.05229056 0.06039528 -0.14534792 -0.11390389
0001a0 14 3c 1d 3d 94 a0 c1 bc f7 12 0b 3e 3b 32 6d 3e
       0.038387373 -0.02363614 0.13581453 0.23163693
0001b0 9f 6a 9d b9 31 b9 d4 bd 30 62 35 3a 3d fe c1 3d
       -0.00030024812 -0.10386885 0.0006919233 0.0947232
0001c0 87 2d 88 3d e4 04 eb 3d 24 3c 5f 3d 1b 33 eb 3c
       0.06649309 0.11475542 0.054500714 0.028710892
0001d0 18 92 11 bd f7 97 91 3d 30 74 b3 bc 20 e4 17 bd
       -0.035539716 0.07109063 -0.021905988 -0.03708279
0001e0 30 94 d4 3d 6b 88 79 bd 54 f2 ce bd 6a 62 c7 3c
       0.10379827 -0.060921114 -0.10104814 0.02433892
0001f0 1c ae 1f bd 11 fe 0d 3d 30 41 a3 3b 90 d8 37 be
       -0.038984403 0.034666125 0.004982136 -0.17953706
000200 de 6a 9f 3d 99 d7 44 bc 30 1d 3e 3d f3 ff ff 3c
       0.07784055 -0.012014293 0.046414554 0.031249976
000210 37 58 49 3c 8e e9 b0 3d bc 01 b7 bd 63 14 ab 3d
       0.012289098 0.08638297 -0.08935878 0.08353498
000220 32 8f 94 bc 5d 34 c9 bd d4 50 a2 bd ab 49 ab bd
       -0.018134687 -0.09824441 -0.07925573 -0.083636604
000230 c2 59 02 3e 32 9d be bd c3 a5 ec 3d f2 03 e1 bd
       0.12729552 -0.093073264 0.11555054 -0.10987081
000240 b4 a6 7e bd c5 c1 5a bd aa a4 d9 3d d8 a3 b1 3b
       -0.0621707 -0.05340745 0.1062711 0.005421143
000250 dd 27 d1 bc 71 e5 61 bd 7d a0 e9 3d 6c c1 87 bc
       -0.025531704 -0.055150453 0.11407564 -0.016571723
000260 92 1e 4f bd a2 53 f3 bc 8f 44 6a 3d 17 f2 91 bc
       -0.050566263 -0.029702965 0.05719429 -0.017815633
000270 1d 42 9a 3d 7b d9 66 bd b6 91 9e 3d ea b0 26 3e
       0.07532141 -0.05635975 0.07742636 0.16278425
000280 aa bc db bd f8 d1 9d 3c 6e 47 d6 bd 11 ec a2 bc
       -0.10729344 0.01926516 -0.10462843 -0.019887956
000290 3e 80 ca bd 1c 5c ba bd 00 e3 ed bd 7c d6 1e be
       -0.098877415 -0.090996 -0.116155624 -0.15511507
0002a0 39 ef 1b 3d 71 0c 8f 3d bd a2 77 3d 30 b3 a1 3c
       0.038069937 0.06984795 0.060457934 0.019738764
0002b0 ec a5 7f bd 05 bd 74 3d 7a a4 0c 3d 17 3e 86 3a
       -0.062414095 0.059750576 0.034336545 0.0010241893
0002c0 46 55 c6 bd 53 c2 df 3d 5e ec 83 bd 63 6e 8a bd
       -0.09684233 0.10925736 -0.06441568 -0.06759336
0002d0 53 20 71 bc 9f d5 d4 bc 8e 8f de bd b4 46 6d bd
       -0.014717179 -0.025980769 -0.10867225 -0.057928756
0002e0 35 b7 f4 3d 50 44 97 3d cc 85 97 3d 94 ed 40 3d
       0.119490065 0.073860765 0.073985666 0.047101572
0002f0 60 82 cb bd ec a0 40 bd ef 8a 02 bd f1 76 27 bd
       -0.099369764 -0.047028467 -0.03187078 -0.040884916
000300 79 34 d5 bd 3f 30 d5 3d 36 88 af 3d 62 d4 e3 bd
       -0.10410399 0.10409593 0.08570902 -0.11124493
000310 29 f3 68 3d 9d 5c cc bc d6 d5 56 3b 4f 09 99 3d
       0.05687252 -0.024946505 0.0032781265 0.074724786
000320 31 5d b4 3c d5 23 e4 3d 94 35 99 bd 6a 15 a1 bd
       0.022017093 0.11139647 -0.07480922 -0.078654125
000330 4c e7 a1 bd 52 0a 82 3d d7 81 03 bd 28 43 e0 3d
       -0.079054445 0.06349625 -0.032106247 0.10950309
000340 8b ae 5b bc f7 be ef bd ee b4 2d bb 94 b6 13 be
       -0.0134083135 -0.117063455 -0.0026505548 -0.14425117
000350 6e 8a 84 bd a4 93 0c bd 00 ef 01 be a0 78 ea bd
       -0.06471716 -0.03432049 -0.12688828 -0.11448789
000360 5d ee 1e 3c 07 85 cf bd c1 96 c9 bd 0a 19 91 bd
       0.009700385 -0.10132795 -0.09843207 -0.07084854
000370 1e c8 ba 3c c7 e1 4a bd 60 f0 51 bd 3c 0c 7d 3d
       0.022800501 -0.049531724 -0.05125463 0.061779246
000380 72 4f ec 3d 39 6d 07 bd d6 d8 a9 bd e7 b0 0f be
       0.115385905 -0.033063147 -0.08293311 -0.14032327
000390 02 21 a2 3c ef 60 6e bd 95 7d 38 3d 5d fd 52 be
       0.01979113 -0.05819791 0.04504164 -0.20604463
0003a0 ff 0e d3 3c 16 97 02 be 45 c0 15 ba 38 fb 29 3e
       0.025763987 -0.12752947 -0.00057125493 0.16599739
0003b0 bc 1d 57 3d 01 11 8a bc 87 f7 a7 3d 69 66 37 3d
       0.05251859 -0.016853811 0.08201509 0.0447754
0003c0 43 0e bc 3d d2 b7 8f bd 32 51 c6 bd 02 3e 99 3d
       0.09182408 -0.07017483 -0.096834555 0.0748253
0003d0 f7 72 bf 3d 89 29 68 3d 16 ad 94 3d f5 b3 4a be
       0.093481 0.056680236 0.07259576 -0.1979521
0003e0 ce 64 19 3d 2f 4d 78 3d 0c 3d 06 3e b1 4b 00 3d
       0.03744965 0.060620483 0.13109225 0.031322185
0003f0 02 23 e9 bd 05 9d ae bd 6f 18 24 bd 6d e5 92 3d
       -0.1138363 -0.08526043 -0.040062364 0.07172666

scale_up.conv2.dilation_conv1d.weight f4 [1, 16, 16]
000000 16 67 01 bd fd b5 95 3c fb dd 2f bd d9 89 1c 3d
       -0.03159245 0.018275255 -0.042936306 0.0382174
000010 14 a0 3f 3d 76 aa a8 3b f8 8e 20 3d 9e 09 31 3d
       0.04678352 0.0051472737 0.039198846 0.043222062
000020 32 6b 99 3a 9d 46 54 3d 7b 2d 7a bd 9a a8 11 3c
       0.001170492 0.051825155 -0.06107853 0.008890295
000030 f5 3f 8a bd 07 a4 f6 bd 2f 62 01 be 5a 3c 79 be
       -0.0675048 -0.120430045 -0.1263511 -0.24339429
000040 60 76 c8 3c 3f 80 29 3c ab 8e 8e 3b 7c a9 06 3b
       0.024470508 0.010345518 0.0043505034 0.0020547798
000050 00 98 15 bd cd b1 5b 3d 9f 98 11 bd 84 4f cb bc
       -0.03652191 0.05363636 -0.03554594 -0.02481819
000060 1b 0a 64 3d 96 2d af bc b9 d9 9a bc 48 f7 96 bd
       0.0556737 -0.021384042 -0.018902646 -0.07371384
000070 cb cd 9c bd f5 23 8b bd 58 1d 08 be 8d 5e 1e be
       -0.076564394 -0.06793968 -0.13292444 -0.15465756
000080 d5 8d 39 3d 43 50 c6 bc c6 3f ae ba 39 00 61 3c
       0.045301277 -0.024208194 -0.0013294152 0.013732963
000090 95 b4 3a 3d cc 1b 66 bc ab 1f 71 bd 9f 55 70 bd
       0.045582373 -0.014044713 -0.05886809 -0.058675405
0000a0 49 89 50 bd 41 47 91 3c 31 62 13 3d bb 68 07 3d
       -0.050912175 0.017734172 0.035982314 0.033058863
0000b0 3d 21 04 bd a5 2b 90 bc 33 ef 23 bc b5 7c 79 bd
       -0.03225826 -0.017598936 -0.01000576 -0.060909946
0000c0 57 1a ef ba e0 1d 1a 3c b2 c5 54 bd 90 c7 b6 3c
       -0.0018242103 0.009406537 -0.05194635 0.022311956
0000d0 0f f0 fb bb c5 df 94 bc 95 12 ef bc b8 cd 14 bd
       -0.0076885293 -0.018173108 -0.029183665 -0.036329
0000e0 9b 5c 54 bd 2b 12 dd 3c 57 0c 6a bc c6 c5 d2 3c
       -0.051846128 0.026986202 -0.014285169 0.025729071
0000f0 ef a2 af bd dc 43 cb bd d9 05 a5 bd e4 02 4a be
       -0.08575999 -0.099250525 -0.08057756 -0.19727665
000100 24 a9 4a 3d ed d5 4a 3d c3 41 4a bd d6 3b 64 3d
       0.04947771 0.04952042 -0.04937912 0.055721126
000110 3d bb b2 bc 34 28 64 3d 4f a8 80 3c 56 2f da 3c
       -0.021817798 0.055702403 0.015705256 0.0266339
000120 dd 48 8e 3b 4e eb 18 3d fc 74 77 bc 20 2d a4 bd
       0.004342182 0.03733378 -0.015103575 -0.080164194
000130 55 68 8a 3c 64 c5 5b bd 58 5c c8 bd 0c 7e 94 bd
       0.016895453 -0.053655043 -0.09783238 -0.07250604
000140 7e 84 1f bd a9 3f 5b 3c 6c f9 e3 3b 40 0f 5e bc
       -0.038944714 0.013381877 0.0069572236 -0.013553441
000150 f0 7f 3c 3d b3 86 d0 bc 3c 45 15 bc f5 db 9b 3c
       0.04602045 -0.025454855 -0.009110745 0.019025782
000160 40 b3 16 3d d0 c0 94 bc db d1 8f 3d 8f ca 19 3d
       0.03679204 -0.018158346 0.07022449 0.03754669
000170 86 1d 91 bb 20 4e e1 3d d8 92 c7 3d c3 84 3e 3e
       -0.0044285683 0.11001229 0.09744805 0.18605332
000180 07 3c 2e 3d 17 14 9d ba 8b df 30 3c 09 23 57 3c
       0.042537715 -0.0011984137 0.010795484 0.013130912
000190 71 0f 79 3d 31 1c 16 bd 5a 97 b8 3b 0a 0b 30 bd
       0.06080574 -0.03664798 0.005633277 -0.042979278
0001a0 c8 04 45 3b c7 cb 12 bd 63 73 c2 bc b6 5b 4f 3d
       0.0030062664 -0.03583887 -0.023736661 0.05062457
0001b0 c8 c2 82 3d f8 05 91 3d 7a 38 df 3c 6d b5 a6 3d
       0.06384808 0.070812166 0.02724861 0.08140073
0001c0 38 29 0a bd dc d6 5a 3d 29 fb 9e 3d 84 2f 16 3b
       -0.033730716 0.053427562 0.07762749 0.0022916505
0001d0 2a 4b f7 3c ae ca ce 3c 41 21 12 bd c2 da 85 bc
       0.030187208 0.02524313 -0.035676245 -0.016339663
0001e0 0b f6 eb bc f6 30 4e 3d 1c 24 eb bc 8d 71 9e 3c
       -0.028803846 0.05033966 -0.028703742 0.019341255
0001f0 35 60 33 bd 02 9f 9e bd 07 71 e2 bd 1f 98 f1 bd
       -0.043792922 -0.07745172 -0.110567145 -0.11796593
000200 ec 67 86 3d c2 16 44 bd 0d 41 1c 3d 9a ba 64 3d
       0.0656279 -0.047873266 0.038147975 0.05584202
000210 58 cb 21 bd 25 ae 5d bd 71 8c 2e 3c a5 a2 55 bd
       -0.039500564 -0.054121155 0.010653601 -0.052157063
000220 11 91 e3 bc 5e af 44 3c 00 dd 99 bc d0 a7 75 3d
       -0.027779134 0.012004701 -0.018782139 0.05997449
000230 77 29 b7 3d 29 e1 d1 3c 01 17 16 3e ac db 18 3e
       0.08943456 0.02562006 0.14657213 0.14927548
000240 31 a9 d7 bc 2a 01 08 bd 6b 21 78 3d f4 d2 80 3a
       -0.026325794 -0.033204235 0.060578745 0.0009828494
000250 4f 1f 1a bd 65 e9 cb 3b ac 48 88 bc 23 21 45 bd
       -0.037627514 0.006222891 -0.016636215 -0.048127305
000260 c1 e7 eb bc 78 c4 51 3d e0 64 f9 3c d9 4b 71 3d
       -0.028797032 0.051212758 0.030443609 0.058910225
000270 d0 fd 2a bc 76 27 a4 3d 61 fc 49 3c ff 29 11 3e
       -0.01043649 0.08015339 0.012328238 0.14176176
000280 27 73 74 3d e8 0e ad 3b 9f 83 b2 bc b3 d8 af ba
       0.05968013 0.005281318 -0.021791277 -0.0013416022
000290 cd 57 c4 3c b9 12 7d bc ca 9f 12 bd 62 6e c0 3c
       0.023967648 -0.015446358 -0.035796918 0.023490135
0002a0 ac 65 6f 3d 67 e0 78 3d cf 28 f5 3c 7f d9 d6 3c
       0.05844657 0.06076088 0.029926686 0.026226757
0002b0 d7 95 f7 3c 51 03 7c 3d 35 c8 10 3d b6 59 ef 3d
       0.030222816 0.0615266 0.035347182 0.11687033
0002c0 a8 53 fa 3c 40 09 a7 3b 80 81 9a 3c ea f8 10 3d
       0.030557469 0.005097538 0.018860579 0.035393633
0002d0 0a 08 40 bd 25 0a 41 bd 10 8e d5 3c 5a e9 4e 3c
       -0.046882667 -0.047128815 0.026068717 0.012628878
0002e0 e5 f3 52 3d 56 cb 5d bd b7 e8 09 3d 5a c0 2e 3d
       0.051502127 -0.054148994 0.0336692 0.04266391
0002f0 fc e9 3d bd 93 5a 07 bd 2d b6 1b be 75 db 22 be
       -0.046365723 -0.033045363 -0.15206213 -0.15904029
000300 0b 39 34 bd fa a3 98 3c f2 a9 cb 3c 17 2b 64 bd
       -0.043999713 0.018632878 0.02486131 -0.055705156
000310 5d 0f a1 3c f0 44 a3 3a e4 45 62 bd 32 f5 5e bd
       0.019660646 0.0012456458 -0.055242434 -0.054433055
000320 fd c0 3e bb 95 de af 3b 99 0c 94 3a 83 67 43 bd
       -0.002910673 0.00536711 0.0011295258 -0.04770614
000330 3c 35 86 bd 8a 20 8b 3c cb 8b df bd fa a4 12 be
       -0.065531224 0.01698329 -0.10915335 -0.14320746
000340 3e 62 56 bd 53 7b 75 bc d1 99 bb bc 29 08 7a 3d
       -0.052339785 -0.014983016 -0.022900494 0.06104294
000350 bb 88 9e bc 73 ce 1f bd aa e3 5a 3c 65 f9 17 bd
       -0.019352308 -0.039015245 0.013359943 -0.037103076
000360 f9 42 74 3d ef b6 1f bc 7d 21 37 bd e0 97 43 bc
       0.059634183 -0.009748205 -0.04470967 -0.011938065
000370 49 e4 2a bd 84 da 50 bc ad b8 30 be 74 85 ef bd
       -0.041721616 -0.012747411 -0.17257948 -0.11695376
000380 a7 4e a4 bc 5b 42 6e bd eb e9 88 bd 54 66 2f 3b
       -0.020057036 -0.05816875 -0.06685241 0.0026763873
000390 3f ad 15 3c 1b 9d 1b 3d 2f 4d 6b bd c1 c0 28 bd
       0.009135543 0.037991624 -0.057446655 -0.04119945
0003a0 5c 84 14 3c c5 ff a8 3c d2 bb ce bc 77 f0 d0 bc
       0.00906476 0.020629773 -0.025236044 -0.025505288
0003b0 06 53 bf 3c f3 cc bb 3c 84 b7 a6 bd 07 ba 98 bc
       0.023355018 0.022924876 -0.081404716 -0.018643392
0003c0 d6 16 e0 3c ba b4 5c 3d 5e cc 44 3c 63 35 2c bb
       0.027354639 0.05388329 0.012011616 -0.0026276938
0003d0 50 a6 28 3d 69 eb b4 bc a2 1f 03 bd 99 08 e0 bc
       0.041174233 -0.022084909 -0.03201259 -0.02734785
0003e0 37 37 03 3d da b2 03 3d 57 62 b4 bc 30 e6 78 3d
       0.03203508 0.032152988 -0.022019548 0.0607664
0003f0 8b 23 2f 3d 7a 86 ef 3c cf 9d ee 3d 07 1c c4 3d
       0.042758506 0.029238928 0.11651193 0.09575658
