result/Dilation_X_net_new/model_ph2.pth (torch, 22223 bytes, 8 tensors)

scale_down.conv1.dilation_conv1d.weight f4 [16, 1, 4]
-0.4341935 -0.07401874 -0.25802657 -0.24338077 -0.40035686 0.22992292 -0.50462556 -0.22389755
0.15875262 -0.18430583 0.2885868 0.10615796 0.26961008 0.31568098 -0.23375359 0.15059185
-0.23559007 0.1333557 -0.2569425 0.3087062 0.13401692 -0.17338845 -0.25234467 0.08874361
0.4454357 0.23222223 -0.063964866 -0.054355595 0.29475653 -0.34183055 0.15107071 -0.22757402
0.26869375 -0.19566524 0.027741136 0.21411982 0.3469607 -0.06456272 0.46494827 -0.42893896
-0.079302914 -0.4996231 0.053672943 0.18314743 -0.1775771 0.22658317 -0.081182145 -0.4820015
0.37281227 0.30023447 0.2637973 0.45051834 0.14116763 0.24889494 0.45761847 0.01091166
-0.37170684 -0.22978891 -0.0632175 -0.066339 0.009564702 0.30028778 0.16519293 -0.3962055
00000000: 9c4e debe 2397 97bd 0f1c 84be cf38 79be
00000010: 93fb ccbe ea70 6b3e 242f 01bf 6645 65be
00000020: 0c90 223e abba 3cbe a6c1 933e 5869 d93d
00000030: 550a 8a3e f0a0 a13e 1a5d 6fbe c034 1a3e
00000040: 863e 71be 668e 083e f88d 83be bd0e 9e3e
00000050: bb3b 093e be8c 31be 5233 81be 36bf b53d
00000060: 2610 e43e aacb 6d3e 0300 83bd f9a3 5ebd
00000070: 54ea 963e 6a04 afbe 48b2 1a3e 2a09 69be
00000080: 3a92 893e 785c 48be 6141 e33c 3a42 5b3e
00000090: d5a4 b13e 7639 84bd b30d ee3e e39d dbbe
000000a0: 9169 a2bd 99ce ffbe 29d8 5b3d 008b 3b3e
000000b0: c5d6 35be 6b05 683e d342 a6bd e7c8 f6be
000000c0: 40e1 be3e 55b8 993e 7110 873e 57aa e63e
000000d0: 3f8e 103e 51de 7e3e f84c ea3e d2c6 323c
000000e0: 5c50 bebe c94d 6bbe 2d78 81bd bedc 87bd
000000f0: 45b5 1c3c 52bf 993e 5628 293e 73db cabe

scale_down.conv1_1.dilation_conv1d.weight f4 [16, 16, 4]
-0.032694627 -0.026243541 0.07969103 -0.046338834 -0.047105033 -0.016848676 -0.027064607 -0.032844566
-0.12743999 0.108230375 0.060601637 -0.054666553 -0.081775 0.0018296934 0.07038044 -0.089432076
-0.04012111 0.06299925 -0.0815258 0.0369848 -0.090931945 0.11741869 0.06847403 -0.10803635
-0.074486285 0.039735038 0.0048382683 0.026957909 -0.09820153 -0.065262966 0.06083975 -0.117802784
-0.03163555 0.051554345 0.0588402 0.016053433 0.030179521 0.049789246 -0.01625704 -0.055698786
0.09946222 0.12543862 0.056221932 -0.042085372 -0.10467013 -0.12152911 0.0071547655 -0.06379257
-0.035809606 -0.020194016 0.11477899 0.12146974 -0.016403139 -0.04047234 0.057849623 -0.012077264
-0.1146667 0.04363253 0.121540196 -0.0972907 -0.034127966 0.016847886 -0.09280981 -0.18775031
0.08429748 -0.0470824 0.07221449 0.04512365 0.020768909 -0.08490218 -0.03016073 0.12261589
0.06783922 -0.037155777 0.016161628 0.04031176 -0.10112072 0.08555599 -0.042340383 -0.04637179
0.056118973 -0.09001374 -0.012918751 0.0010809865 0.052495413 -0.05360781 -0.03303782 0.107659444
0.05469776 0.089831434 -0.08214024 0.037399106 0.03381473 0.016534971 0.13253802 0.17888372
0.10450248 0.05342256 0.052882504 -0.08409155 -0.11065568 -0.104369625 -0.06970639 -0.022243768
0.060878336 0.027373247 -0.03057228 -0.120841675 0.1103133 0.097035095 0.06642558 0.22108833
-0.058527242 -0.06891922 -0.07615097 -0.050526798 -0.1063068 0.103176795 0.005569357 0.03831582
-0.07558392 -0.0168804 0.016861338 -0.01697713 0.103531085 -0.05151441 0.039527927 0.0951652
-0.023494279 -0.037851118 0.0517664 0.13415824 0.020953424 -0.014944611 -0.037501298 0.1550179
-0.019243464 0.09142617 -0.05285241 0.017096244 0.1321511 0.09186715 0.067415506 0.022342298
-0.060404316 0.0048061963 0.046093762 -0.14188042 0.025901914 0.06393282 -0.121736936 -0.08406158
-0.06714102 0.022316962 -0.022457872 0.028853375 -0.02487019 -0.08193393 0.074520886 0.28306234
-0.059721157 0.10980609 0.032802317 0.043914285 -0.11373448 -0.11377538 0.05473376 -0.06407708
-0.10235795 0.051146585 0.06473626 -0.13970311 0.07702346 -0.022117207 0.10349771 0.08624588
-0.11081056 -0.07863971 -0.021781856 -0.19091345 -0.0032130918 -0.056065742 -0.02539323 -0.037957598
0.00016149062 -0.12781282 0.063383475 -0.053211235 0.056080922 0.13984631 -0.04635432 0.18477418
0.06932631 -0.011467581 -0.10926937 0.08100274 0.05978097 -0.06956174 -0.09193896 0.0088906195
0.025917282 -0.06241367 0.0043621687 -0.10184152 -0.049608164 -0.015823716 -0.050149452 0.083170116
0.04693494 0.12951909 0.10528532 -0.112368405 -0.043030437 0.07050772 -0.017938722 0.099987626
-0.028392367 0.11100635 0.018405223 -0.018303987 -0.085251115 0.07667999 0.035512123 0.2464803
0.054950975 -0.0070902603 -0.060330003 -0.08674508 -0.015913757 0.07290255 0.005574419 0.02857769
-0.010487162 0.016846342 0.099050894 0.06595819 -0.012906909 0.015120274 0.114948116 0.15477371
-0.013004656 0.0764862 0.059237145 -0.07105798 0.047564615 0.012492755 -0.03893807 -0.02649663
0.11979859 0.03683037 -0.10601856 0.088772185 -0.002005437 0.06632114 0.020249844 0.23214492
00000000: cdea 05bd b2fc d6bc 0d35 a33d cacd 3dbd
00000010: 35f1 40bd 3c06 8abc 98b6 ddbc 0688 06bd
00000020: a17f 02be e3a7 dd3d 6c39 783d 09ea 5fbd
00000030: a779 a7bd 53d2 ef3a 9f23 903d 2a28 b7bd
00000040: 0856 24bd c005 813d 00f7 a6bd 607d 173d
00000050: 873a babd 3679 f03d 1d3c 8c3d 2942 ddbd
00000060: 448c 98bd 35c1 223d 568a 9e3b d5d6 dc3c
00000070: e21d c9bd 97a8 85bd 1a33 793d 9642 f1bd
00000080: 4794 01bd a62a 533d 6c02 713d 7d82 833c
00000090: 0b3b f73c cfef 4b3d 7c2d 85bc 6924 64bd
000000a0: d9b2 cb3d fb72 003e f848 663d b661 2cbd
000000b0: 4b5d d6bd 41e4 f8bd 8672 ea3b aea5 82bd
000000c0: 18ad 12bd ec6d a5bc 3f11 eb3d 21c5 f83d
000000d0: e05f 86bc 53c6 25bd baf3 6c3d b7df 45bc
000000e0: 60d6 eabd 06b8 323d 11ea f83d 5940 c7bd
000000f0: c4c9 0bbd 9404 8a3c 1213 bebd 9e41 40be
00000100: 28a4 ac3d 7ad9 40bd 31e5 933d 94d3 383d
00000110: 8f23 aa3c 32e1 adbd a313 f7bc 0a1e fb3d
00000120: 4aef 8a3d a830 18bd 6465 843c f21d 253d
00000130: 6118 cfbd fb37 af3d 1c6d 2dbd 59f0 3dbd
00000140: 02dd 653d 2059 b8bd 2ba9 53bc e3af 8d3a
00000150: 6e05 573d dd93 5bbd aa52 07bd 8e7c dc3d
00000160: c20a 603d 8bf9 b73d 2439 a8bd ce2f 193d
00000170: 5081 0a3d 5974 873c 0cb8 073e 4b2d 373e
00000180: 6505 d63d 9dd1 5a3d 539b 583d 3138 acbd
00000190: 729f e2bd bebf d5bd 39c2 8ebd 9038 b6bc
000001a0: 905b 793d dc3d e03c b872 fabc d77b f7bd
000001b0: f0eb e13d 56ba c63d 220a 883d fb64 623e
000001c0: 43ba 6fbd 8525 8dbd 0af5 9bbd 30f5 4ebd
000001d0: 61b7 d9bd 5b4e d33d 277f b63b 0df1 1c3d
000001e0: becb 9abd c448 8abc ca20 8a3c 9f13 8bbc
000001f0: 1b08 d43d c600 53bd 09e8 213d f9e5 c23d
00000200: 1377 c0bc c609 1bbd 0109 543d c760 093e
00000210: 84a6 ab3c 3eda 74bc f69a 19bd 03bd 1e3e
00000220: 78a4 9dbc a53d bb3d c57b 58bd 6c0d 8c3c
00000230: 9e52 073e d824 bc3d 2411 8a3d 3207 b73c
00000240: 846a 77bd 4c7d 9d3b d0cc 3c3d 1a49 11be
00000250: 4030 d43c 36ef 823d 3751 f9bd 7a28 acbd
00000260: 3b81 89bd 10d2 b63c 92f9 b7bc ea5d ec3c
00000270: 92bc cbbc facc a7bd 689e 983d 8ced 903e
00000280: 2c9e 74bd 04e2 e03d b95b 063d 77df 333d
00000290: a0ed e8bd 1103 e9bd 8230 603d d83a 83bd
000002a0: 0ba1 d1bd 157f 513d 7294 843d 550e 0fbe
000002b0: 7abe 9d3d 252f b5bc 9bf6 d33d aea1 b03d
000002c0: a6f0 e2bd db0d a1bd dd6f b2bc d17e 43be
000002d0: bc92 52bb 31a5 65bd 7705 d0bc 6d79 1bbd
000002e0: cf55 2939 5de1 02be 32cf 813d 06f4 59bd
000002f0: 1cb5 653d df33 0f3e 07de 3dbd 7135 3d3e
00000300: f4fa 8d3d 85e2 3bbc 9fc8 dfbd c4e4 a53d
00000310: e4dc 743d 6376 8ebd 7e4a bcbd f6a9 113c
00000320: 7b50 d43c 7aa5 7fbd 86f0 8e3b 4992 d0bd
00000330: ee31 4bbd bda0 81bc 8369 4dbd 1855 aa3d
00000340: da3e 403d a7a0 043e d49f d73d 6821 e6bd
00000350: af40 30bd 5a66 903d 3af4 92bc 50c6 cc3d
00000360: 1c97 e8bc 4c57 e33d 8dc6 963c 3ef2 95bc
00000370: 2398 aebd 660a 9d3d 2975 113d 5565 7c3e
00000380: 4614 613d 6a55 e8bb 981c 77bd 68a7 b1bd
00000390: 915d 82bc ef4d 953d 9ea9 b63b c21b ea3c
000003a0: 58d2 2bbc 5701 8a3c 32db ca3d 1615 873d
000003b0: 8077 53bc 07bb 773c eb69 eb3d 007d 1e3e
000003c0: 7b11 55bc cca4 9c3d a6a2 723d d986 91bd
000003d0: 1dd3 423d 6aae 4c3c 877d 1fbd 760f d9bc
000003e0: f758 f53d 71db 163d 4220 d9bd 31ce b53d
000003f0: a66d 03bb 61d3 873d 00e3 a53c 66b7 6d3e

scale_down.conv1_2.dilation_conv1d.weight f4 [16, 16, 4]
-0.0049241073 -0.113614276 0.08773897 0.09765436 -0.09963967 -0.027456097 -0.06474373 -0.04819835
0.09880692 -0.05116998 0.06542277 0.08082389 0.01921695 -0.06430268 0.0072625726 -0.053792056
0.12843488 0.042223368 0.007969416 0.15465412 -0.051347334 0.08156704 0.12302118 0.22522587
-0.047947686 -0.09094892 0.08497795 0.10764161 0.00521018 0.0329074 0.15090981 -0.11546853
-0.025457552 -0.11063129 0.05040119 0.08064493 -0.08919042 -0.043263514 -0.11291378 0.09608952
0.0927583 0.046010997 0.014923526 0.018067699 0.010377445 0.08340616 -0.14314853 0.04891931
0.16035804 0.047371276 -0.07794708 0.07216722 0.06745414 0.067223474 -0.105443425 -0.05094539
0.042387165 -0.04899528 0.087042764 0.05506156 0.051847465 0.025129935 -0.026155172 -0.13057743
0.10959853 0.06361977 0.013314263 -0.055010296 0.10004148 0.10876322 -0.034991294 -0.08925855
-0.05706448 0.077903435 -0.10994641 -0.07632374 0.00063331984 0.08289679 -0.009705967 -0.14450693
-0.11786827 0.0118064685 -0.026342707 0.1132896 0.062024057 0.050062146 0.01963085 -0.034358606
-0.08406636 -0.12278073 0.05985875 0.016734613 0.10434223 -0.04415994 -0.11874557 -0.07620166
-0.09190962 -0.030133007 -0.12026831 0.11751306 0.09298624 0.008529668 -0.12192737 0.072095074
-0.026009217 0.031152338 -0.038545478 -0.10459714 -0.096661195 0.032968488 -0.04085992 0.11369203
-0.026486015 0.0037140436 0.063980244 0.18004763 0.04411454 0.10495977 0.092931494 0.16566904
-0.088858224 0.05776226 -0.03804469 -0.16454479 -0.0008972496 0.07591161 0.09775206 -0.07681859
0.05074503 -0.009532895 0.020880932 0.009715239 -0.06170475 -0.0830553 -0.118878536 -0.043763775
0.11484037 0.042120215 0.0034171704 -0.1405272 -0.0060163448 -0.11551061 0.01977032 -0.13664363
0.05767137 0.06478665 -0.096441425 0.24359211 -0.037699956 -0.11319829 -0.026006727 0.022089263
0.065548815 0.007053586 0.09677402 -0.08288091 -0.053115968 -0.12053906 -0.013712833 -0.10731558
0.06451711 0.07036471 -0.035911527 0.21000579 -0.08301939 -0.09002585 -0.020802056 0.076723814
0.112535655 -0.085260585 0.09619054 0.031625263 -0.06346865 -0.09520297 0.038675085 -0.02422538
0.08653841 0.0045145815 -0.1246316 0.07466704 -0.04808678 -0.07082834 -0.020358171 0.12839074
-0.064192295 -0.016891118 -0.053426918 -0.06088398 0.080270045 0.086746186 0.09874684 -0.16509286
-0.090013124 0.089714356 0.0564274 -0.008490571 -0.060127195 -0.0927271 -0.04064042 0.11986379
-0.05501915 -0.07450681 0.04525708 0.12658195 0.0085097505 0.02943952 0.069644704 0.021782918
-0.0811334 0.044648755 -0.05731234 -0.0629464 -0.05852944 0.109316915 -0.030594712 0.091044635
-0.091049254 -0.10766434 -0.05660109 -0.047945723 0.09781519 -0.09574312 -0.054685615 0.041442398
0.013515647 -0.044707693 0.086936936 -0.13434392 0.049187202 0.024684846 -0.06637621 -0.006767522
0.043872714 -0.009216644 -0.039804164 0.06828474 -0.042779397 -0.027458724 -0.02066016 -0.0026897406
0.02704951 0.040310986 -0.081743136 -0.14914246 0.030981623 0.10468692 -0.06999795 -0.07655799
-0.08975161 -0.10899096 -0.123285994 0.13121098 0.008287877 -0.055133257 0.12611103 0.047308546
00000000: 685a a1bb 9aae e8bd 7db0 b33d 02ff c73d
00000010: e20f ccbd 9ceb e0bc 5c98 84bd a26b 45bd
00000020: 485b ca3d 9d97 51bd 60fc 853d ff86 a53d
00000030: dd6c 9d3c 20b1 83bd e0fa ed3b 0f55 5cbd
00000040: 6f84 033e 69f2 2c3d 2792 023c a65d 1e3e
00000050: 9551 52bd 9f0c a73d 87f2 fb3d 9ca1 663e
00000060: cb64 44bd 6d43 babd eb08 ae3d 3473 dc3d
00000070: 28ba aa3b e9c9 063d 1a88 1a3e c47a ecbd
00000080: 5b8c d0bc a892 e2bd 7a71 4e3d 2b29 a53d
00000090: 78a9 b6bd 1535 31bd 573f e7bd 95ca c43d
000000a0: 10f8 bd3d 0776 3c3d ce81 743c b602 943c
000000b0: 2906 2a3c d9d0 aa3d 8795 12be 9d5f 483d
000000c0: e634 243e 6208 423d b8a2 9fbd 68cc 933d
000000d0: 6525 8a3d 76ac 893d b9f2 d7bd 1dac 50bd
000000e0: 2a9e 2d3d 46af 48bd 7a43 b23d 3b88 613d
000000f0: 025e 543d 4bdd cd3c 5f43 d6bc 17b6 05be
00000100: 3275 e03d 154b 823d 1124 5a3c 7a52 61bd
00000110: 8ce2 cc3d 40bf de3d 0853 0fbd 30cd b6bd
00000120: 72bc 69bd d68b 9f3d 952b e1bd 9f4f 9cbd
00000130: 6005 263a cbc5 a93d c705 1fbc a0f9 13be
00000140: eb64 f1bd eb6f 413c a9cc d7bc 6104 e83d
00000150: f00c 7e3d f70d 4d3d e0d0 a03c 9cbb 0cbd
00000160: fc2a acbd 7774 fbbd 732e 753d 0717 893c
00000170: 61b1 d53d 0ee1 34bd e130 f3bd 9e0f 9cbd
00000180: 1c3b bcbd 7fd9 f6bc 3b4f f6bd b0aa f03d
00000190: 926f be3d 05c0 0b3c 0fb5 f9bd 95a6 933d
000001a0: 4811 d5bc 3033 ff3c dde1 1dbd 0637 d6bd
000001b0: 4ef6 c5bd f709 073d bb5c 27bd 5ed7 e83d
000001c0: 33f9 d8bc 5067 733b 1308 833d 685e 383e
000001d0: 73b1 343d 26f5 d63d de52 be3d 25a5 293e
000001e0: 4dfb b5bd 1f98 6c3d c0d4 1bbd 6e7e 28be
000001f0: 6735 6bba 8c77 9b3d 3b32 c83d 1153 9dbd
00000200: 05da 4f3d dc2f 1cbc 7d0e ab3c aa2c 1f3c
00000210: 1fbe 7cbd e618 aabd 9776 f3bd a541 33bd
00000220: 6e31 eb3d 3f86 2c3d 9bf2 5f3b 5de6 0fbe
00000230: c224 c5bb d490 ecbd 5ef5 a13c 4fec 0bbe
00000240: d138 6c3d ddae 843d 1583 c5bd 3670 793e
00000250: 456b 1abd 81d4 e7bd 0f0c d5bc 8bf4 b43c
00000260: 753e 863d c521 e73b 7531 c63d 77bd a9bd
00000270: 2190 59bd 2fdd f6bd caab 60bc 45c8 dbbd
00000280: 8c21 843d 601b 903d f717 13bd c20b 573e
00000290: 1206 aabd 795f b8bd 1369 aabc 6021 9d3d
000002a0: 1879 e63d 1a9d aebd 8cff c43d 7e89 013d
000002b0: dafb 81bd c6f9 c2bd c469 1e3d 4e74 c6bc
000002c0: 0d3b b13d 0eef 933b da3e ffbd 08eb 983d
000002d0: a5f6 44bd 730e 91bd 2ec6 a6bc dd78 033e
000002e0: 4077 83bd 3e5f 8abc 2fd6 5abd 7b61 79bd
000002f0: 9f64 a43d fca7 b13d c93b ca3d 1a0e 29be
00000300: cd58 b8bd 29bc b73d 6b20 673d 091c 0bbc
00000310: ef47 76bd b5e7 bdbd 9276 26bd 267b f53d
00000320: c35b 61bd 0797 98bd 7d5f 393d b39e 013e
00000330: 7b6c 0b3c 262b f13c e2a1 8e3d 1772 b23c
00000340: 4529 a6bd 9de1 363d 58c0 6abd 0bea 80bd
00000350: 91bc 6fbd 8ce1 df3d c3a1 fabc 9c75 ba3d
00000360: 0878 babd 1f7f dcbd 8bd6 67bd bc62 44bd
00000370: 5553 c83d f814 c4bd 06fe 5fbd 81bf 293d
00000380: bb70 5d3c 6a1f 37bd fe0b b23d 7491 09be
00000390: 8578 493d e037 ca3c 40f0 87bd 17c2 ddbb
000003a0: e0b3 333d 6801 17bc b109 23bd dfd8 8b3d
000003b0: 7339 2fbd 1ef1 e0bc 7f3f a9bc 5c46 30bb
000003c0: ef96 dd3c 221d 253d f268 a7bd cdb8 18be
000003d0: 2ccd fd3c 1966 d63d 165b 8fbd 6fca 9cbd
000003e0: b1cf b7bd a736 dfbd 5e7d fcbd 2c5c 063e
000003f0: e0c9 073c 69d3 61bd 4023 013e 9bc6 413d

scale_down.conv2.dilation_conv1d.weight f4 [1, 16, 16]
-0.050944425 0.030989747 -0.049951684 0.064528555 -0.019077918 0.029293926 0.0028141 -0.033242047
-0.017355893 0.01371965 0.022750672 -0.018146615 -0.012336194 -0.060120415 0.054391995 0.048634958
0.030614788 -0.046253566 0.024902193 0.042363245 0.018444752 0.03825454 0.037055623 0.039938256
0.0021517852 0.034426898 -0.015784228 0.01624161 0.012944645 0.03967478 0.04381466 0.21726772
-0.020091224 0.034211118 -0.007791842 -0.004161864 0.029591367 0.035609074 -0.034170438 0.03886055
0.0041326056 -0.05129089 -0.002637825 0.048840676 0.014236538 0.04075669 0.02952063 0.19003168
0.044691563 0.030899072 -0.005882844 -0.046754263 -0.009657416 0.011191194 -0.011185371 0.040047627
-0.05765966 -0.018329443 -0.03899832 -0.036769602 -0.008015174 -0.044910416 -0.062452048 -0.12493888
0.026966311 -0.07199999 -0.040382512 0.023777576 0.04707724 0.023295367 -0.053409003 -0.0065319757
0.030316625 0.0057408237 0.050439164 0.041799016 -0.0138829425 0.025758868 -0.031118058 -0.060944498
0.04019296 0.0035807434 0.039927915 0.011009417 -0.015133115 0.04840949 -0.040996112 -0.048298437
0.03068377 0.05626737 -0.033464294 0.021473832 -0.010067611 0.054678008 -0.015413363 -0.06470663
-0.010145385 0.060648944 -0.021620119 -0.05299359 -0.020878505 0.02091453 0.020749811 0.059947215
0.0160278 0.026870858 -0.0017819942 -0.018474784 -0.015112976 0.056998227 0.06587889 0.1653707
0.0030935537 -0.034133103 -0.008088495 -0.024356013 0.056352027 -0.0058629536 0.009800101 0.05605285
-0.016410517 0.029873742 -0.029036269 -0.03178861 0.02052525 0.002114552 0.058599807 0.06296631
-0.00059866 0.038708128 -0.0030351533 -0.033383995 0.06426409 -0.01411732 -0.041689735 0.043337844
-0.06724742 -0.012353299 0.045153253 -0.03467683 0.08391324 0.08300375 -0.0064041647 -0.19112971
-0.0045106974 0.052627113 -0.025254166 -0.0027087675 -0.045885745 -0.007862731 0.02518151 -0.012718487
0.026779583 -0.010365867 -0.048846427 0.050277356 0.047751296 0.014405353 0.014498424 -0.07127924
0.0012692563 0.055884905 -0.03460972 -0.052101333 0.013685671 -0.044569857 -0.051017933 0.054568846
-0.06066754 -0.048130095 0.031783596 0.008514575 0.01838881 0.08732196 0.11755217 0.15563446
0.0019758763 -0.06113266 0.0046031745 -0.018986769 -0.054851916 0.028887572 0.003925136 -0.01318617
0.025216246 0.01995543 0.0045807534 0.008405488 -0.0018002338 -0.0041499604 0.03567286 -0.015109144
0.01315598 0.05072205 0.006296332 -0.02711983 0.02300449 -0.014873391 -0.041950863 -0.045085993
0.026440045 -0.008565002 -0.05718925 0.03685636 0.03243027 -0.030879239 -0.015330641 0.110296614
-0.014261697 0.030520912 -0.035289787 -0.03680931 -0.01862031 -0.051100213 0.019696577 0.05824315
0.0067822756 0.031065756 0.025867037 -0.007802151 -0.03754099 0.03782051 0.045822393 0.03173399
0.058248315 -0.04232519 0.027087117 0.01160296 0.047048613 -0.032630585 -0.004077629 -0.040844157
-0.04380569 -0.013609052 0.06275637 0.009965996 -0.0045202384 0.05027656 0.05393538 0.14085212
-0.027030064 -0.030674834 0.059485026 -0.035021286 -0.05974032 0.013965377 -0.01412614 0.015376918
-0.04476924 0.02334784 0.031528167 -0.015970876 -0.041613854 0.03279135 0.090825126 0.14955977
00000000: 1aab 50bd 36de fd3c 239a 4cbd 8c27 843d
00000010: 4b49 9cbc d1f9 ef3c c36c 383b d028 08bd
00000020: f22d 8ebc 62c8 603c 9e5f ba3c 36a8 94bc
00000030: bf1d 4abc d340 76bd 24ca 5e3d 7335 473d
00000040: ddcb fa3c 6174 3dbd afff cb3c 1585 2d3d
00000050: 7319 973c cbb0 1c3d a3c7 173d 4c96 233d
00000060: f704 0d3b 3803 0d3d ed4d 81bc 200d 853c
00000070: c715 543c 0682 223d 0077 333d 6e7b 5e3e
00000080: 5a96 a4bc f520 0c3d b552 ffbb 3f60 88bb
00000090: 9869 f23c d2da 113d 4df6 0bbd 3d2c 1f3d
000000a0: cf6a 873b 6516 52bd 5cdf 2cbb 290d 483d
000000b0: 5e40 693c 7df0 263d 40d5 f13c aa97 423e
000000c0: 800e 373d 0d20 fd3c dfc4 c0bb 6681 3fbd
000000d0: 233a 1ebc 455b 373c d942 37bc fb08 243d
000000e0: 892c 6cbd a127 96bc b4bc 1fbd b99b 16bd
000000f0: 1452 03bc fcf3 37bd b8cd 7fbd f5df ffbd
00000100: 74e8 dc3c bb74 93bd 2268 25bd 31c9 c23c
00000110: 10d4 403d edd5 be3c 66c3 5abd 2f0a d6bb
00000120: 925a f83c 851d bc3b 4c99 4e3d 7235 2b3d
00000130: 4875 63bc 4304 d33c 4ceb febc f0a0 79bd
00000140: 60a1 243d e8aa 6a3b 748b 233d d760 343c
00000150: e3f0 77bc 0849 463d 8aeb 27bd 95d4 45bd
00000160: 885c fb3c 9d78 663d db11 09bd e4e9 af3c
00000170: 9ff2 24bc 0cf6 5f3d 5588 7cbc e984 84bd
00000180: d438 26bc 076b 783d ad1c b1bc ce0f 59bd
00000190: 6609 abbc f354 ab3c 82fb a93c 368b 753d
000001a0: bc4c 833c 4620 dc3c ce91 e9ba 6e58 97bc
000001b0: 6a9c 77bc f976 693d 83eb 863d f056 293e
000001c0: 38bd 4a3b 27cf 0bbd 9b85 04bc 4386 c7bc
000001d0: 62d1 663d 051e c0bb 9a90 203c ac97 653d
000001e0: 596f 86bc c7b9 f43c 78dd edbc c634 02bd
000001f0: 9224 a83c 4c94 0a3b 5a06 703d 7bf4 803d
00000200: 64ef 1cba 6a8c 1e3d 6ce9 46bb a8bd 08bd
00000210: e49c 833d 554c 67bc dbc2 2abd 0683 313d
00000220: 04b9 89bd 7e65 4abc 9ef2 383d 4b09 0ebd
00000230: b4da ab3d dffd a93d 07da d1bb 82b7 43be
00000240: 79ce 93bb 878f 573d d3e1 cebc 9485 31bb
00000250: b1f2 3bbd afd2 00bc 7449 ce3c 3361 50bc
00000260: db60 db3c 99d5 29bc 3113 48bd a1ef 4d3d
00000270: dd96 433d 6e04 6c3c cc8a 6d3c dafa 91bd
00000280: 2d5d a63a 92e7 643d ecc2 0dbd 3568 55bd
00000290: dd39 603c e28e 36bd 2ef8 50bd 9583 5f3d
000002a0: 877e 78bd 1024 45bd 842f 023d b780 0b3c
000002b0: 21a4 963c dbd5 b23d 31bf f03d a45e 1f3e
000002c0: b47d 013b 3d66 7abd 3ad6 963b 248a 9bbc
000002d0: 67ac 60bd a1a5 ec3c 6d9e 803b ce0a 58bc
000002e0: 4d92 ce3c 9279 a33c 251a 963b 2cb7 093c
000002f0: d3f5 ebba 64fc 87bb b41d 123d 588c 77bc
00000300: 2e8c 573c edc1 4f3d 7651 ce3b 682a debc
00000310: ea73 bc3c 86af 73bc abd4 2bbd 17ac 38bd
00000320: cb98 d83c 3954 0cbc 463f 6abd b2f6 163d
00000330: 9ad5 043d 75f6 fcbc 5e2d 7bbc 31e3 e13d
00000340: e5a9 69bc fe06 fa3c 068c 10bd 5cc5 16bd
00000350: 9f89 98bc 754e 51bd b75a a13c 5f90 6e3d
00000360: da3d de3b 9d7d fe3c 1ce7 d33c 30a9 ffbb
00000370: 95c4 19bd aee9 1a3d 43b0 3b3d 80fb 013d
00000380: c995 6e3d 2e5d 2dbd cde5 dd3c 571a 3e3c
00000390: 0cb6 403d a6a7 05bd a29d 85bb 344c 27bd
000003a0: 986d 33bd 80f8 5ebc 6986 803d 6b48 233c
000003b0: 821e 94bb cbee 4d3d 58eb 5c3d 8a3b 103e
000003c0: 276e ddbc ca49 fbbc 92a6 733d 7b72 0fbd
000003d0: 44b2 74bd 09cf 643c 5371 67bc 78ef 7b3c
000003e0: f35f 37bd f843 bf3c ae23 013d 5bd5 82bc
000003f0: 4a73 2abd 3950 063d 8602 ba3d 3226 193e

scale_up.conv1.dilation_conv1d.weight f4 [16, 1, 4]
-0.014893756 0.11643796 -0.32278234 -0.15710425 0.09736632 0.261528 -0.33428603 0.5168186
-0.017563714 -0.05339361 0.23582794 0.16168594 -0.45061162 -0.49284613 -0.17042816 0.40779856
-0.40044153 0.45901978 -0.17390402 0.41760913 0.08669369 -0.4023709 0.3253006 -0.5107836
-0.06684118 -0.07856971 0.36377728 -0.57141423 -0.43299618 0.105495006 -0.20052177 -0.51536405
-0.31902975 -0.455488 0.36514556 -0.50672454 0.12149964 0.2248791 0.08995657 0.33207583
0.18947127 -0.47761235 0.41948155 0.3085205 0.45592633 -0.28282687 -0.2274736 0.52802557
-0.5372918 -0.3796164 0.31443354 0.2500978 -0.40825725 -0.3642869 0.34726024 0.24718843
-0.096390545 -0.38920978 -0.51481175 0.22580464 0.044252526 0.22996914 0.09757837 0.6344666
00000000: f104 74bc 0677 ee3d ba43 a5be f0df 20be
00000010: fe67 c73d ffe6 853e 8a27 abbe 394e 043f
00000020: c7e1 8fbc 42b3 5abd e17c 713e 0091 253e
00000030: 91b6 e6be 5456 fcbe b884 2ebe f9ca d03e
00000040: ac06 cdbe a404 eb3e e513 32be ddd0 d53e
00000050: 768c b13d 8f03 cebe cd8d a63e b7c2 02bf
00000060: 07e4 88bd 28e9 a0bd 0441 ba3e 3448 12bf
00000070: adb1 ddbe c40d d83d 9455 4dbe e6ee 03bf
00000080: de57 a3be b935 e9be 5cf4 ba3e b3b8 01bf
00000090: ced4 f83d b546 663e 263b b83d d805 aa3e
000000a0: c204 423e 9b89 f4be 49c6 d63e 66f6 9d3e
000000b0: 2d6f e93e afce 90be d7ee 68be af2c 073f
000000c0: f58b 09bf 155d c2be 6ffd a03e d20c 803e
000000d0: 1807 d1be d083 babe 18cc b13e f71e 7d3e
000000e0: 6868 c5bd 8146 c7be b4ca 03bf 5539 673e
000000f0: 2342 353d 087d 6b3e 2bd7 c73d 676c 223f

scale_up.conv1_1.dilation_conv1d.weight f4 [16, 16, 4]
0.045190822 0.016859489 0.05184806 -0.2592748 -0.11694987 0.097024 0.0518049 0.1927017
0.013835142 -0.0072425515 -0.008496577 0.10644926 0.019418523 0.004236321 0.0768627 -0.009657034
0.03829093 -0.0850304 -0.05926237 0.3030378 0.08218652 -0.011462798 -0.00579947 -0.07300627
-0.10537076 -0.04777958 -0.11439064 -0.3048097 -0.06484219 0.03508128 0.026976356 -0.16129158
0.006715324 -0.01011588 -0.030836225 -0.08558241 0.1173553 0.07240112 0.04209759 0.0863218
0.093963176 -0.058635645 0.14393222 0.21544015 0.085499205 0.07555411 0.07599605 0.13915789
-0.04999491 -0.007428581 -0.00821963 0.24715579 -0.036768585 0.014883582 -0.04753599 0.31563553
0.012297238 0.051989097 0.03312178 0.0877256 0.09005169 0.13873076 0.15276822 0.13196243
0.10464663 -0.032388944 0.14439543 0.06345374 0.09129875 0.022500454 -0.019894404 -0.024988245
-0.12611014 0.05346332 -0.018155282 -0.2248279 0.11584579 0.08020304 -0.10204963 0.036441192
0.09907003 0.044708528 -0.12179098 -0.2887634 -0.058161877 0.03125195 0.14362337 0.1830004
0.11438052 -0.053437427 0.011477224 0.20517196 -0.014915283 0.058611456 -0.09997611 0.08116563
0.047501985 -0.08494083 -0.09845696 0.037848625 -0.029156724 -0.066838205 0.06833741 -0.113164045
-0.0017617089 -0.039177056 -0.09108558 -0.1694429 -0.048330337 -0.12160877 0.0008988357 -0.15340024
-0.11155207 -0.08592783 -0.060085285 -0.006524652 -0.105089195 -0.0280616 0.01532066 -0.19182831
0.067016505 -0.057615243 0.11970221 -0.015330654 -0.055575565 -0.047171775 0.009189873 -0.03559583
0.0065666037 -0.019767143 0.038126584 -0.23879953 0.0005285566 -0.049495526 -0.044571858 0.2064373
-0.09185767 0.09597123 0.003733839 0.24177286 0.034982532 -0.07227909 -0.065351725 0.08653994
0.061028212 0.10547123 0.12067853 0.34478277 -0.043771755 0.061734427 0.01161327 -0.2570473
0.12410585 0.052170366 -0.08035153 -0.19539785 -0.012033494 -0.008254111 -0.080402344 -0.22103237
0.027186655 -0.06779142 0.09776541 -0.178023 0.026908495 0.025475113 -0.09799429 0.23507158
-0.049322505 0.049071044 -0.087862246 0.17217724 0.035695214 0.0774667 0.043819606 0.23731087
-0.07577892 0.0146463895 0.04131195 0.24239936 -0.037599504 0.11568069 -0.09157669 0.19095235
0.1104545 -0.03048173 -0.062158633 0.045634475 -0.06681984 -0.049171984 -0.01567207 0.2968211
0.10984593 -0.077713825 -0.11321671 -0.07749991 -0.105225705 0.0756599 -0.10404699 0.05108074
0.082419254 -0.009127819 -0.01465864 -0.11244328 0.044819538 0.07368386 0.07158477 -0.10551353
0.06250707 0.050284594 0.089411646 0.01120608 0.023774706 0.006001981 0.12650122 -0.011458456
0.012605447 -0.1068318 -0.12743358 -0.005832457 0.119521946 0.018736368 -0.031823933 -0.00012535401
-0.014750427 -0.010445799 -0.09472941 0.07331085 -0.048878822 -0.004852375 -0.015524245 0.056074347
0.0066413637 -0.12174731 0.13396187 -0.18702166 0.08644255 0.09251964 -0.063717306 -0.08232018
0.012017023 0.07161676 0.13226537 -0.119982034 0.04852826 0.010032008 -0.017646752 -0.038143747
0.11995778 -0.07715449 -0.056827616 -0.038988896 -0.05847981 -0.08175612 0.06469461 -0.12690066
00000000: 031a 393d e91c 8a3c a25e 543d abbf 84be
00000010: 6a83 efbd 85b4 c63d 6031 543d 9853 453e
00000020: cbac 623c ed52 edbb 3a35 0bbc 1202 da3d
00000030: 9813 9f3c d6d0 8a3b 316a 9d3d 8938 1ebc
00000040: f3d6 1c3d 6b24 aebd 19bd 72bd c527 9b3e
00000050: 6851 a83d 76ce 3bbc 7b09 bebb 5084 95bd
00000060: a0cc d7bd 85b4 43bd a445 eabd 0410 9cbe
00000070: fbcb 84bd 63b1 0f3d 85fd dc3c 9f29 25be
00000080: 380c dc3b 13bd 25bc 409c fcbc d545 afbd
00000090: fa57 f03d 0a47 943d 866e 2c3d 7cc9 b03d
000000a0: c46f c03d ee2b 70bd f862 133e 589c 5c3e
000000b0: 351a af3d 1dbc 9a3d d1a3 9b3d 687f 0e3e
000000c0: 76c7 4cbd 746b f3bb a1ab 06bc 6816 7d3e
000000d0: a89a 16bd 44da 733c 19b5 42bd fb9a a13e
000000e0: 5b7a 493c 85f2 543d b4aa 073d 7ba9 b33d
000000f0: 056d b83d 700f 0e3e 466f 1c3e 2921 073e
00000100: f950 d63d 45aa 04bd 65dc 133e 09f4 813d
00000110: d7fa ba3d df52 b83c 97f9 a2bc 26b4 ccbc
00000120: 0423 01be 5bfc 5a3d 63ba 94bc 4939 66be
00000130: 8f40 ed3d 7e41 a43d 65ff d0bd 5c43 153d
00000140: 3ae5 ca3d 4a20 373d 8d6d f9bd ccd8 93be
00000150: 263b 6ebd 0b02 003d 0112 133e 7564 3b3e
00000160: 5640 ea3d 34e1 5abd f70a 3c3c 9918 523e
00000170: 3b5f 74bc 9112 703d 46c0 ccbd 2a3a a63d
00000180: 7191 423d 75f5 adbd cda3 c9bd 2907 1b3d
00000190: 15da eebc 78e2 88bd 7cf4 8b3d 8dc2 e7bd
000001a0: 24e9 e6ba 1f78 20bd 148b babd 7182 2dbe
000001b0: 08f6 45bd 050e f9bd d89f 6b3a f414 1dbe
000001c0: 6975 e4bd eefa afbd fd1b 76bd bfcc d5bb
000001d0: 0139 d7bd 71e1 e5bc 8103 7b3c a46e 44be
000001e0: f33f 893d f6fd 6bbd 6f26 f53d 6c2d 7bbc
000001f0: 34a3 63bd 3137 41bd 1f91 163c efcc 11bd
00000200: aa2c d73b b4ee a1bc 9f2a 1c3d dd87 74be
00000210: d58e 0a3a d2bb 4abd fb90 36bd 4d64 533e
00000220: e01f bcbd 908c c43d 6cb3 743b 4e93 773e
00000230: d849 0f3d 0f07 94bd 20d7 85bd da3b b13d
00000240: b8f8 793d 4d01 d83d 4e26 f73d 5e87 b03e
00000250: 034a 33bd 3ddd 7c3d 9645 3e3c b49b 83be
00000260: 352b fe3d 98b0 553d 588f a4bd 6016 48be
00000270: 2228 45bc 403c 07bc fca9 a4bd 4f56 62be
00000280: 8cb6 de3c 3ad6 8abd 3b39 c83d a94b 36be
00000290: 346f dc3c 2fb1 d03c 3bb1 c8bd 9bb6 703e
000002a0: 6506 4abd b8fe 483d 1ff1 b3bd 3b4f 303e
000002b0: 2535 123d dca6 9e3d 307c 333d 9f01 733e
000002c0: fa31 9bbd 69f7 6f3c b836 293d 8a37 783e
000002d0: f001 1abd ffe9 ec3d 8f8c bbbd 0389 433e
000002e0: f835 e23d d2b4 f9bc 0d9a 7ebd 37eb 3a3d
000002f0: d7d8 88bd 9068 49bd b762 80bc eff8 973e
00000300: e7f6 e03d 6d28 9fbd 2ade e7bd 46b8 9ebd
00000310: 9380 d7bd 94f3 9a3d 9716 d5bd 0a3a 513d
00000320: 6dcb a83d d98c 15bc cb2a 70bc aa48 e6bd
00000330: b194 373d 90e7 963d 099b 923d 7a17 d8bd
00000340: b503 803d 38f7 4d3d 741d b73d b599 373c
00000350: 2cc3 c23c 44ac c43b 8989 013e 3fbc 3bbc
00000360: 1487 4e3c a1ca dabd f37d 02be 321e bfbb
00000370: ecc7 f43d 037d 993c d059 02bd 7671 03b9
00000380: c6ab 71bc db24 2bbc 7e01 c2bd 0024 963d
00000390: 2935 48bd ac00 9fbb 6759 7ebc 37ae 653d
000003a0: cc9f d93b a756 f9bd 4d2d 093e 9b82 3fbe
000003b0: cb08 b13d f07a bd3d 387e 82bd 7c97 a8bd
000003c0: 0ce3 443c cfab 923d 9370 073e 24b9 f5bd
000003d0: 92c5 463d 4b5d 243c ec8f 90bc 9e3c 1cbd
000003e0: 6dac f53d 2c03 9ebd 13c4 68bd d2b2 1fbd
000003f0: 8688 6fbd c16f a7bd 9c7e 843d 3ff2 01be

scale_up.conv1_2.dilation_conv1d.weight f4 [16, 16, 4]
-0.012763882 0.07500382 -0.047737766 -0.07372391 0.008552103 -0.09464024 0.07131373 0.09136851
0.06849451 -0.0872204 -0.005628971 -0.36691225 -0.013898582 -0.0011608867 -0.12350825 0.0030072879
0.09792559 -0.024882346 -0.02363217 -0.15228723 -0.09467863 0.13997376 0.025787052 -0.22309446
0.05327018 -0.012641668 0.014408551 -0.21147299 0.07979206 0.06574292 0.0008115695 0.16650043
-0.08673367 -0.01157175 -0.024191916 -0.211559 0.11932868 0.08761413 -0.013258916 -0.2770494
0.07017711 0.00026753073 -0.035257697 0.22836107 0.052331466 -0.12888584 -0.0466601 -0.024662333
0.027577959 0.102904126 -0.056664687 0.23631245 -0.05424538 0.01537347 -0.13242103 -0.33360237
0.08280391 -0.052318554 0.0819603 0.28125948 -0.1199991 0.06538819 0.08373427 -0.10414246
0.10623813 -0.042570222 -0.10667603 -0.17025797 -0.030962463 -0.05964973 -0.08277674 0.0019415278
-0.008480902 0.046320193 -0.08224622 -0.18315408 0.04750061 -0.089551516 -0.12425778 0.075647876
-0.010012588 -0.043466143 -0.10582062 -0.11155392 0.111325406 0.02257537 0.016462382 0.015534603
0.13329759 -0.056176078 0.096453875 -0.37285826 0.08061883 0.013855855 0.0016635626 0.16259435
-0.023272661 0.024375727 0.022408523 -0.162655 -0.05697139 0.054417744 -0.13574757 -0.14150025
0.041223723 -0.01731906 0.13214925 0.25648987 -0.0072181765 -0.10536542 0.0018369147 0.10189066
0.063432835 0.11674368 0.05186677 0.045458663 -0.032880418 0.06930673 -0.013966542 -0.058976065
0.0991882 -0.059356205 -0.11128935 0.053164046 -0.0331104 0.034040224 0.009567916 -0.18287127
0.09140863 -0.0046627102 0.06104748 -0.010928407 0.0012766249 0.07903908 -0.09407984 0.11597924
-0.009098056 -0.09212433 -0.06164764 -0.14283696 0.09572416 -0.10645668 0.11165936 -0.04943066
-0.055229593 -0.047518566 0.12578815 -0.07482534 -0.012014027 -0.04732997 0.12732194 -0.065758765
-0.12535602 -0.02019025 0.1159424 -0.31949928 0.07849553 -0.064586364 0.07345855 0.24267507
-0.08555827 0.025811836 -0.09491888 -0.11538576 -0.09344447 -0.08612796 -0.09616327 -0.23088397
0.031021414 0.066415094 0.046698302 0.08134122 -0.078488134 0.049966488 0.031545926 0.016134359
-0.10284789 0.0968469 -0.07724905 -0.023409912 0.0013469637 -0.020929141 -0.093256235 -0.11308435
0.101590656 0.061998084 0.052987136 0.13242008 -0.085583165 -0.040241983 -0.017895129 -0.057959974
-0.09774235 0.10790207 0.0970606 -0.12649485 0.056594193 -0.025385922 -0.0015665689 0.08588506
0.025747994 0.11597961 -0.061401512 -0.10482089 -0.09880544 0.05115507 -0.038911823 0.13342203
-0.01306354 -0.10955547 0.018510211 -0.18254706 -0.05965419 -0.028561283 -0.11440516 -0.13426745
0.0019325289 -0.104786776 -0.042078596 -0.3511226 0.031041784 -0.05160027 -0.056731686 0.102806605
0.12188108 -0.024023194 -0.06880598 -0.17336477 0.018193988 -0.053231254 0.06348481 -0.24380828
0.027992837 -0.12901446 -0.010869689 0.19476467 0.045488577 -0.021202156 0.08028749 0.05170483
0.088907965 -0.073827215 -0.10490674 0.0921009 0.098419145 0.061733052 0.084192775 -0.22504428
0.031037144 0.054702275 0.11654592 0.065647915 -0.1075862 -0.08233628 -0.03024602 0.06836383
00000000: 9a1f 51bc 9a9b 993d ad88 43bd 90fc 96bd
00000010: 1f1e 0c3c bed2 c1bd ef0c 923d 6a1f bb3d
00000020: da46 8c3d 9ca0 b2bd 3b73 b8bb ecdb bbbe
00000030: e1b6 63bc e528 98ba e5f1 fcbd eb15 453b
00000040: 368d c83d 10d6 cbbc 4198 c1bc 2ff1 1bbe
00000050: dfe6 c1bd 4855 0f3e 5e3f d33c e072 64be
00000060: d531 5a3d 001f 4fbc d811 6c3c 608c 58be
00000070: 056a a33d 39a4 863d 82bf 543a 177f 2a3e
00000080: 6ca1 b1bd 7097 3dbc 202e c6bc eca2 58be
00000090: 9862 f43d 096f b33d ed3b 59bc 6bd9 8dbe
000000a0: 04b9 8f3d 5e43 8c39 606a 10bd 7cd7 693e
000000b0: 8559 563d a6fa 03be a91e 3fbd a908 cabc
000000c0: 2ceb e13c 66bf d23d 3b19 68bd e4fb 713e
000000d0: 6730 5ebd 02e1 7b3c 6199 07be eecd aabe
000000e0: 1995 a93d fb4b 56bd cdda a73d 3e01 903e
000000f0: 17c2 f5bd 3eea 853d df7c ab3d a448 d5bd
00000100: 6093 d93d 1d5e 2ebd f678 dabd 1b58 2ebe
00000110: fea4 fdbc 4653 74bd da86 a9bd dd7a fe3a
00000120: 7bf3 0abc 3eba 3d3d b570 a8bd be8c 3bbe
00000130: 0090 423d c966 b7bd dd7a febd 46ed 9a3d
00000140: d70b 24bc 8e09 32bd 7bb8 d8bd 6276 e4bd
00000150: 93fe e33d fbef b83c 1edc 863c d984 7e3c
00000160: 2a7f 083e e318 66bd 9c89 c53d 47e7 bebe
00000170: 7c1b a53d ab03 633c e60b da3a 227f 263e
00000180: 4fa6 bebc 9baf c73c 1492 b73c 088f 26be
00000190: d55a 69bd 24e5 5e3d 6901 0bbe 71e5 10be
000001a0: 35da 283d b4e0 8dbc 2252 073e a452 833e
000001b0: 7486 ecbb d3c9 d7bd a1c4 f03a 0dac d03d
000001c0: 13e9 813d 4f17 ef3d 4072 543d dd32 3a3d
000001d0: 9ead 06bd b0f0 8d3d ecd3 64bc e390 71bd
000001e0: 2f23 cb3d 7e1f 73bd aceb e3bd 8bc2 593d
000001f0: c59e 07bd c36d 0b3d c0c2 1c3c 9b42 3bbe
00000200: 7334 bb3d a6c9 98bb ec0c 7a3d 100d 33bc
00000210: 6c54 a73a 3edf a13d eeac c0bd 8686 ed3d
00000220: 0310 15bc aeab bcbd 3c82 7cbd da43 12be
00000230: 070b c43d f605 dabd aaad e43d ce77 4abd
00000240: 6d38 62bd d4a2 42bd 9cce 003e 073e 99bd
00000250: 7bd6 44bc 12dd 41bd af60 023e 88ac 86bd
00000260: 545d 00be 0666 a5bc 3673 ed3d 6995 a3be
00000270: 44c2 a03d db45 84bd 7071 963d d07f 783e
00000280: 2d39 afbd 5873 d33c d464 c2bd 5f4f ecbd
00000290: d05f bfbd db63 b0bd 40f1 c4bd d96c 6cbe
000002a0: 9f20 fe3c a304 883d b846 3f3d 3a96 a63d
000002b0: 63be a0bd a9a9 4c3d 4d36 013d 342c 843c
000002c0: eaa1 d2bd ab57 c63d c034 9ebd 25c6 bfbc
000002d0: 9a8c b03a 9773 abbc 20fd bebd c598 e7bd
000002e0: c30e d03d b4f1 7d3d 0a09 593d 2199 073e
000002f0: 3a46 afbd c7d4 24bd ce98 92bc 7067 6dbd
00000300: 242d c8bd c3fb dc3d b5c7 c63d de87 01be
00000310: 50cf 673d 23f6 cfbc 5455 cdba 82e4 af3d
00000320: 75ed d23c b886 ed3d 2780 7bbd 56ac d6bd
00000330: 825a cabd fb87 513d 0162 1fbd c99f 083e
00000340: 7508 56bc 9e5e e0bd baa2 973c 9eed 3abe
00000350: f457 74bd 5af9 e9bc 414d eabd 687d 09be
00000360: e94c fd3a 739a d6bd 9b5a 2cbd 57c6 b3be
00000370: 574b fe3c ce5a 53bd 7c5f 68bd 458c d23d
00000380: ca9c f93d 4acc c4bc 26ea 8cbd 8986 31be
00000390: 8f0b 953c 0409 5abd 5304 823d e1a8 79be
000003a0: 3c51 e53c 5e1c 04be c816 32bc 6470 473e
000003b0: 3b52 3a3d 25b0 adbc c46d a43d 72c8 533d
000003c0: 6115 b63d b932 97bd 58d9 d6bd 669f bc3d
000003d0: fa8f c93d ccdb 7c3d 436d ac3d 0272 66be
000003e0: 9c41 fe3c 7e0f 603d a1af ee3d 6a72 863d
000003f0: 2756 dcbd ec9f a8bd 80c6 f7bc 5602 8c3d

scale_up.conv2.dilation_conv1d.weight f4 [1, 16, 16]
-0.022737194 0.010080051 -0.036319774 0.01954254 0.055083666 -0.0032445116 0.03889597 0.036255974
-0.0038854666 0.053991493 -0.054427087 0.021600883 -0.039732717 -0.07580957 -0.14921717 -0.3113074
0.035515867 0.0043734354 0.010300171 -0.020276422 -0.029799119 0.04033856 -0.032916654 -0.038773883
0.05413113 -0.02658771 -0.01285685 -0.064113684 -0.047792424 -0.023117088 -0.15406227 -0.22024705
0.062330592 -0.014946296 0.013987158 0.00879344 0.058072757 -0.010101531 -0.047117982 -0.059578184
-0.05209565 0.012229299 0.04319868 0.036707938 -0.0007689058 0.016463028 -0.023093892 -0.11730409
0.0118253855 0.0062181866 -0.04170594 0.00649991 0.0037172243 -0.019296078 -0.02675563 -0.036803063
-0.055865426 0.03642182 -0.006062612 0.04428502 -0.050900124 -0.044843275 -0.10629868 -0.2830053
0.056609415 0.02253331 -0.053204246 -0.009886685 -0.026333401 0.032891054 0.0031229882 0.021662889
-0.017932765 0.033842713 -0.014556267 -0.06313224 0.07197758 0.055528075 -0.14661159 -0.25159886
-0.048826043 0.020943644 -0.0057380944 0.00865458 0.039572548 -0.011225178 -0.0043658917 0.02604158
0.03895426 -0.021420585 0.055251118 0.017492432 -0.050582524 0.051626816 0.13333543 0.28004065
0.03211732 -0.0011507688 -0.0016700745 0.023018392 0.052265495 -0.02966364 0.0057769623 -0.03507925
0.004549143 -0.034079615 -0.029252807 0.041824315 0.03857042 0.039192587 0.05017786 0.1336105
-0.024031796 0.043614052 0.08388143 -0.022419447 0.03708852 0.020524962 -0.037502516 -0.017037872
-0.035673678 0.058732502 -0.018303413 0.04176259 0.0016003947 -0.0077611227 -0.14634654 -0.23352794
0.05301755 -0.039180398 0.028625065 0.08252511 -0.04587468 -0.03969636 0.013050541 -0.044218905
-0.023913847 0.00705428 -0.029046511 0.03807119 0.04869726 -0.03798405 0.18001235 0.24127357
-0.038399212 -0.03365342 0.048742246 0.010419997 -0.046566594 0.01066565 -0.017567795 -0.043578368
-0.027133428 0.047658682 0.020587323 0.04753716 -0.038345385 0.045118574 0.037850607 0.21106215
0.04546998 0.011246087 -0.037336558 0.03250723 0.0194013 -0.0018072405 -0.028574388 0.029574508
0.06791728 0.061043367 0.005603032 0.0017408851 -0.04004113 -0.029927434 0.07419183 0.2539267
0.03947261 -0.0034576852 0.026751954 0.015647896 -0.03820293 -0.05743823 0.023858834 0.0023714406
0.044437908 -0.053767696 0.040605444 0.05568229 -0.01815831 0.014160401 -0.17766888 -0.22974932
-0.032261293 0.0126099605 0.034395933 -0.07591623 0.029112214 -0.0060411077 -0.058626615 -0.061226755
-0.00944871 0.0066423034 0.007647689 -0.032862246 -0.030913347 0.07294762 -0.13816765 -0.22660707
-0.03589459 -0.024038425 -0.011181107 0.03237962 -0.008308101 -0.04647612 0.01068715 -0.029056223
0.056371763 0.001302348 -0.032402992 0.018982971 0.021798957 0.08074012 -0.23264131 -0.2882952
0.0015860557 -0.044278756 -0.049673427 0.005332698 0.026440749 0.052262865 -0.042985167 -0.03278694
0.009271781 0.024306912 -0.01861415 -0.01838752 0.05049136 0.057886448 -0.08903177 -0.07492909
0.012184959 0.056699734 -0.00454584 0.016244989 0.025900718 -0.020180823 -0.037154157 -0.026490722
0.03626258 0.024860961 -0.041994426 0.038636737 -0.010306225 -0.042736463 0.14004228 0.18982078
00000000: 5a43 babc cc26 253c 0bc4 14bd ad17 a03c
00000010: 699f 613d dfa1 54bb 6151 1f3d 2581 143d
00000020: 50a3 7ebb 2f26 5d3d f0ee 5ebd 56f4 b03c
00000030: c6be 22bd 0c42 9bbd 63cc 18be af63 9fbe
00000040: 1679 113d 094f 8f3b 0cc2 283c bd1a a6bc
00000050: 481d f4bc 0c3a 253d 9dd3 06bd 5dd1 1ebd
00000060: 9bb8 5d3d 78ce d9bc 8aa5 52bc 094e 83bd
00000070: fdc1 43bd 0c60 bdbc 80c2 1dbe 7188 61be
00000080: 5d4e 7f3d 4fe1 74bc 652a 653c 5c12 103c
00000090: b3dd 6d3d e480 25bc c9fe 40bd 4108 74bd
000000a0: 4062 55bd 665d 483c 19f1 303d 105b 163d
000000b0: 6590 49ba 79dd 863c 672f bdbc 203d f0bd
000000c0: 43bf 413c eec1 cb3b d9d3 2abd 32fd d43b
000000d0: ad9c 733b cf12 9ebc 9f2e dbbc cfbe 16bd
000000e0: 25d3 64bd 0c2f 153d e0a8 c6bb 3664 353d
000000f0: a67c 50bd 95ad 37bd 1fb3 d9bd 12e6 90be
00000100: 46df 673d c797 b83c b2ec 59bd c3fb 21bc
00000110: 25b9 d7bc c5b8 063d 0cab 4c3b 5f76 b13c
00000120: bce7 92bc a89e 0a3d 697d 6ebc 7a4b 81bd
00000130: fb68 933d 6871 633d 5921 16be 91d1 80be
00000140: d1fd 47bd 0192 ab3c a006 bcbb f1cb 0d3c
00000150: d316 223d cfe9 37bc c10f 8fbb 2755 d53c
00000160: 818e 1f3d 397a afbc ff4e 623d 4a4c 8f3c
00000170: 9f2f 4fbd a476 533d 1589 083e 7d61 8f3e
00000180: 738d 033d 65d5 96ba 67e6 daba 1191 bc3c
00000190: 5814 563d 2901 f3bc ac4c bd3b 42af 0fbd
000001a0: fa10 953b 1197 0bbd 95a3 efbc f94f 2b3d
000001b0: 04fc 1d3d 6888 203d 4d87 4d3d 31d1 083e
000001c0: 54de c4bc a6a4 323d 07ca ab3d fda8 b7bc
000001d0: 22ea 173d f723 a83c 3d9c 19bd 0293 8bbc
000001e0: 901e 12bd 7e91 703d 0af1 95bc 400f 2b3d
000001f0: 56c4 d13a 0451 febb dedb 15be f321 6fbe
00000200: ee28 593d a07b 20bd 1d7f ea3c ed02 a93d
00000210: 17e7 3bbd a698 22bd f0d1 553c e21e 35bd
00000220: f9e6 c3bc 9727 e73b f3f2 edbc 89f0 1b3d
00000230: c776 473d 2a95 1bbd 2855 383e 6b10 773e
00000240: 7e48 1dbd 2bd8 09bd f3a5 473d a3b8 2a3c
00000250: 9dbc 3ebd fabe 2e3c 56ea 8fbc 3b7f 32bd
00000260: ec46 debc c035 433d bfa6 a83c 53b6 423d
00000270: 0d10 1dbd 41ce 383d 3d09 1b3d ad20 583e
00000280: bb3e 3a3d 8241 383c 38ee 18bd 4d26 053d
00000290: 7aef 9e3c eee0 ecba d614 eabc 3d46 f23c
000002a0: 3718 8b3d 9c08 7a3d a499 b73b 692e e43a
000002b0: 2b02 24bd 612a f5bc e3f1 973d ae02 823e
000002c0: 08ae 213d 559a 62bb ea26 db3c 0430 803c
000002d0: ad7a 1cbd 5944 6bbd 9a73 c33c 2c6a 1b3b
000002e0: 8604 363d 843b 5cbd e551 263d 1d13 643d
000002f0: bcc0 94bc 0701 683c d5ee 35be 6843 6bbe
00000300: 6b24 04bd 029a 4e3c c0e2 0c3d f879 9bbd
00000310: bd7c ee3c 7cf4 c5bb 7622 70bd e8c8 7abd
00000320: c3ce 1abc aea7 d93b 7799 fa3b 909a 06bd
00000330: fd3d fdbc 9065 953d d27b 0dbe af0b 68be
00000340: 3506 13bd 3bec c4bc f630 37bc 7ea0 043d
00000350: b41e 08bc be5d 3ebd 2819 2f3c 5107 eebc
00000360: 14e6 663d 8cb3 aa3a 00b9 04bd 2d82 9b3c
00000370: ba93 b23c 135b a53d 8639 6ebe 6e9b 93be
00000380: 33e3 cf3a a45d 35bd 5d76 4bbd eabd ae3b
00000390: 459a d83c 9611 563d 3711 30bd 994b 06bd
000003a0: abe8 173c 4a1f c73c b47c 98bc 6da1 96bc
000003b0: 07d0 4e3d 571a 6d3d 4a56 b6bd 6c74 99bd
000003c0: 6ca3 473c fb3d 683d 45f5 94bb 3614 853c
000003d0: be2d d43c 4152 a5bc f52e 18bd 1203 d9bc
000003e0: 1288 143d 37a9 cb3c 5902 2cbd 8e41 1e3d
000003f0: 71db 28bc 6e0c 2fbd 3e67 0f3e 6160 423e
