result/x_net_demo/model_ph2.pth (torch, 6111 bytes, 4 tensors)

scale_down.conv1.dilation_conv1d.weight f4 [16, 1, 16]
-0.23449352 -0.049885157 -0.12810424 -0.07378434 -0.21964347 0.10479498 -0.22050682 -0.015989961
0.08238396 -0.08818084 0.13703619 0.024955383 0.12622002 0.14683107 -0.12447674 0.07742251
-0.10284012 0.0806957 -0.12913904 0.115782924 0.0516564 -0.09551276 -0.1194193 0.06828911
0.23712477 0.12633964 -0.013815141 0.0015530804 0.15749095 -0.15516168 0.10410079 -0.06186973
0.15611911 -0.08808596 0.004383831 0.09389495 0.18870945 -0.015821721 0.24028781 -0.20475434
-0.03132481 -0.22626713 0.047550503 0.09480288 -0.08247667 0.12771663 -0.011821694 -0.1886378
0.19628875 0.15720004 0.1293217 0.2023059 0.09244449 0.13299322 0.21097244 -0.045563694
-0.1884116 -0.11386046 -0.020972192 -0.01032931 0.018085076 0.16362068 0.09980623 -0.16517918
-0.055637915 -0.0371899 0.1849975 -0.05504584 -0.08176603 -0.033322033 -0.07188602 -0.07117599
-0.25496545 0.20959899 0.12272697 -0.12843879 -0.16821194 -0.013794623 0.11281205 -0.21174127
-0.081697255 0.112045616 -0.15591802 -0.01959949 -0.17114018 0.2482198 0.14545202 -0.225917
-0.13798553 0.08274637 0.0024083136 0.052445885 -0.21830851 -0.14845926 0.09799013 -0.20630942
-0.05189339 0.113190666 0.13270834 0.016613683 0.06961044 0.10188037 -0.043541756 -0.08325604
0.17448157 0.22467218 0.095470324 -0.13065378 -0.23985176 -0.27033398 -0.023972265 -0.123440266
-0.05498549 -0.01141756 0.26023316 0.26057425 -0.009282548 -0.06848372 0.11879359 -0.028150247
-0.24841194 0.06789594 0.2259877 -0.20826949 -0.06479307 0.041654557 -0.22127376 -0.23705615
0.19352989 -0.08021765 0.15735956 0.03330578 0.06899289 -0.16476895 -0.055830166 0.16304086
0.1132353 -0.07568422 0.02454345 0.18660389 -0.21643768 0.16654345 -0.077640414 -0.059506096
0.12251274 -0.20238897 -0.03583776 0.23750542 0.08673329 -0.09634531 -0.05884655 0.19820003
0.10092931 0.18062414 -0.14727376 0.08830738 0.062164914 0.06282901 0.25127032 0.15725288
0.17356949 0.108319335 0.10322453 -0.048875105 -0.22901359 -0.21924378 -0.16021888 -0.1587065
0.124575235 0.08662238 -0.056069907 -0.17597897 0.25980076 0.203663 0.13772231 0.26803732
-0.13325131 -0.14497903 -0.15173483 -0.016782697 -0.22376765 0.19479087 0.0023395868 0.117610246
-0.15160976 -0.044736627 0.012199046 -0.08989524 0.21393162 -0.13700813 0.05387049 -0.19434263
-0.032718536 -0.06978057 0.09818605 0.160151 0.046050563 -0.0405625 -0.07334417 0.1964784
-0.052272096 0.19264367 -0.09520714 0.22252809 0.26123154 0.18102503 0.15564154 0.11072987
-0.13442129 0.0033368894 0.09243641 -0.05583506 0.06536049 0.14225973 -0.24392441 -0.24766421
-0.17518067 0.020782964 -0.045242067 0.050670043 -0.06574298 -0.17359255 0.009866891 0.1625676
-0.15426312 0.22142097 0.0640363 0.2515284 -0.22722737 -0.2455363 0.07446083 -0.245438
-0.21639003 0.117870554 0.110528484 -0.24016601 0.16575609 -0.06509258 0.16384166 -0.17135286
-0.22986221 -0.15737717 -0.029566526 -0.24296555 -0.014679118 -0.12529789 -0.060776606 -0.004216833
0.015888587 -0.23480375 0.14163405 -0.1382608 0.16826098 0.24652788 -0.0646321 0.047315456
00000000: 121f 70be 6154 4cbd c22d 03be 3e1c 97bd
00000010: 38ea 60be c09e d63d 8acc 61be 61fd 82bc
00000020: ecb8 a83d 2898 b4bd 3753 0c3e 3b6f cc3c
00000030: d23f 013e e25a 163e a9ed febd b18f 9e3d
00000040: d79d d2bd ca43 a53d 063d 04be 991f ed3d
00000050: a995 533d 329c c3bd 1b92 f4bd 29db 8b3d
00000060: d6d0 723e 2e5f 013e e758 62bc bb90 cb3a
00000070: 4f45 213e b4e2 1ebe cc32 d53d 1d6b 7dbd
00000080: b0dd 1f3e 6966 b4bd 3da6 8f3b ff4b c03d
00000090: 0d3d 413e 8e9c 81bc 020e 763e 1fab 51be
000000a0: 724e 00bd 92b2 67be 51c4 423d 0328 c23d
000000b0: 87e9 a8bd 26c8 023e c7af 41bc 442a 41be
000000c0: ebff 483e 0cf9 203e e86c 043e 4729 4f3e
000000d0: 8953 bd3d 602f 083e 2909 583e ffa0 3abd
000000e0: f8ee 40be ac2f e9bd e0cd abbc 443c 29bc
000000f0: 2727 943c 2e8c 273e 3567 cc3d bb24 29be
00000100: 95e4 63bd 7054 18bd fc6f 3d3e bf77 61bd
00000110: f374 a7bd af7c 08bd fa38 93bd b8c4 91bd
00000120: d58a 82be 1ea1 563e 4758 fb3d 7585 03be
00000130: c03f 2cbe d802 62bc 010a e73d b4d2 58be
00000140: e450 a7bd 2c78 e53d f9a8 1fbe 1c8f a0bc
00000150: 5f3f 2fbe 552d 7e3e 60f1 143e c956 67be
00000160: 144c 0dbe ee76 a93d ccd4 1d3b 7fd1 563d
00000170: 448c 5fbe b405 18be 0daf c83d c742 53be
00000180: 2a8e 54bd 82d0 e73d b2e4 073e 6b19 883c
00000190: eb8f 8e3d a8a6 d03d d758 32bd 2582 aabd
000001a0: 4cab 323e 7710 663e f285 c33d 1bca 05be
000001b0: b39b 75be 3769 8abe 7c61 c4bc 40ce fcbd
000001c0: 7738 61bd b810 3bbc 483d 853e fd69 853e
000001d0: d415 18bc 3141 8cbd 0e4a f33d 599b e6bc
000001e0: b35f 7ebe 070d 8b3d 5269 673e 9944 55be
000001f0: 3bb2 84bd f89d 2a3d 9795 62be d9be 72be
00000200: b32c 463e 2749 a4bd dd22 213e a46b 083d
00000210: 254c 8d3d 31b9 28be 2cae 64bd 2ff4 263e
00000220: e9e7 e73d 5400 9bbd 580f c93c 1715 3f3e
00000230: d7a1 5dbe 5e8a 2a3e f001 9fbd aabc 73bd
00000240: f6e7 fa3d 0e3f 4fbe 9dca 12bd 9f34 733e
00000250: 39a1 b13d b150 c5bd 1409 71bd f3f4 4a3e
00000260: 07b4 ce3d 89f5 383e efce 16be 80da b43d
00000270: a3a0 7e3d 7fac 803d 81a6 803e e606 213e
00000280: 33bc 313e 87d6 dd3d 6267 d33d 4331 48bd
00000290: 8a82 6abe 7181 60be 6b10 24be f583 22be
000002a0: 4d21 ff3d 1367 b13d 8fa9 65bd d533 34be
000002b0: 9b04 853e 098d 503e 1407 0d3e 303c 893e
000002c0: 0873 08be 6275 14be 6060 1bbe de7b 89bc
000002d0: 5923 65be 4277 473e c153 193b a4dd f03d
000002e0: 973f 1bbe c13d 37bd 82de 473c ff1a b8bd
000002f0: e410 5b3e dc4b 0cbe 4ea7 5c3d c101 47be
00000300: df03 06bd 1ee9 8ebd c515 c93d a0fe 233e
00000310: 849f 3c3d dd24 26bd 7835 96bd a231 493e
00000320: 441b 56bd 6244 453e f6fb c2bd 67de 633e
00000330: 24c0 853e a05e 393e 7f60 1f3e 58c6 e23d
00000340: bca5 09be b7af 5a3b 4d4f bd3d 4eb3 64bd
00000350: b8db 853d 89ac 113e 52c7 79be b09b 7dbe
00000360: 9062 33be 0941 aa3c bf4f 39bd 648b 4f3d
00000370: 41a4 86bd 3fc2 31be bea8 213c 1f78 263e
00000380: 27f7 1dbe 2ebc 623e 7725 833d 55c8 803e
00000390: 4bae 68be de6d 7bbe eb7e 983d 1954 7bbe
000003a0: 5995 5dbe 1e66 f13d c25c e23d 14ee 75be
000003b0: f7bb 293e 424f 85bd 1cc6 273e 2077 2fbe
000003c0: 0061 6bbe 7b27 21be 8035 f2bc f6cb 78be
000003d0: af80 70bc 174e 00be e4f0 78bd 5c2d 8abb
000003e0: c828 823c 6570 70be 8408 113e 3d94 0dbe
000003f0: 9b4c 2c3e ce71 7c3e d65d 84bd dacd 413d

scale_down.conv2.dilation_conv1d.weight f4 [1, 16, 16]
0.021640766 -0.0145577025 -0.059776545 0.020483296 0.026167534 -0.037458476 -0.04193325 -0.009142336
0.015344789 -0.02713225 0.0039503244 -0.01928244 -0.015044398 0.0015034048 -0.012931971 0.059182435
0.012341466 0.055275135 0.062673554 0.015480747 -0.025174636 0.043051053 0.0049688346 0.043821044
-0.018027326 0.047365267 0.013374002 -0.0016988483 -0.018962286 0.06728737 0.026656857 0.042090382
0.03699901 0.008553769 -0.02168633 -0.018393995 -0.0077421307 0.026230702 -0.026145991 -0.038070373
-0.014497208 0.0014821423 0.03701197 0.028641844 -0.02695843 -0.021190623 0.021577097 -0.006450291
0.0112062665 0.053834513 0.03969701 -0.009812579 0.027033683 0.00042928054 -0.02795401 -0.006336622
0.06487274 0.024494525 -0.049515042 0.038531285 0.009610624 0.027861238 0.00035873812 0.02354556
0.0118022375 0.05150885 0.03699614 -0.023558678 0.03271337 -0.002175799 0.034798928 -0.032408647
-0.03533907 0.04193703 0.0037140406 0.0034365086 -0.008174542 -0.015405623 -0.018326338 -0.07678134
0.058661744 0.052753657 -0.049173802 0.01707725 0.052421574 0.009893712 0.018307008 0.034691826
0.011638016 -0.02368598 -0.06829317 -0.046070956 -0.059793912 -0.02158719 -0.06619073 0.017074056
0.02108979 -0.021655435 -0.029618349 0.041040193 0.0049814233 0.0327539 0.013152378 -0.001774755
-0.023826659 -0.03175127 -0.037191417 0.005873037 -0.056755055 -0.014675263 -0.043983545 -0.0912426
0.010777872 0.029481793 0.06929442 0.050010197 0.05486955 -0.06400651 -0.07215007 -0.0007981423
0.008150438 0.0043125157 -0.06264736 0.028258424 -0.07692932 -0.008064302 -0.05419139 -0.06314659
0.054645255 0.06336473 0.032773063 0.036123805 0.009167569 -0.035861697 0.0148825925 0.050073296
0.021313282 -0.061562125 -0.01824092 0.027391864 -0.00084227277 -0.00423243 -0.044083044 0.011131709
0.019662896 -0.05403414 0.009065094 0.0128584355 0.019619487 0.04704981 -0.026276704 0.033332888
0.020301225 -0.0028660498 0.0145031735 0.08079621 0.022873351 0.0042600227 0.02278079 -0.0059212158
-0.031905867 -0.0054358556 0.042631004 0.0070224027 -0.0013138466 0.04243728 0.053546157 0.007045496
0.0003580802 0.030224595 -0.011861626 0.06945532 0.0071837036 0.005574512 0.08817357 -0.016440053
-0.026431415 0.047474157 -0.03594188 -0.02142661 0.049157288 -0.03123664 0.023296988 0.024939924
0.013345067 -0.053295363 -0.050779242 -0.062285468 -0.07584246 -0.034000963 -0.0044707074 -0.06363994
-0.05437887 0.008558119 -0.01890254 0.009403341 0.0087177595 0.059091672 0.0005915262 -0.041501433
-0.026440417 -0.039978217 0.007987108 0.027722996 0.04195082 0.03340531 0.035914212 0.031462044
-0.004878753 -0.027564738 0.0147653315 0.010231816 -0.014614386 0.04598128 -0.0654503 0.010723661
-0.035269678 0.03667654 0.05646061 0.048318435 0.015338768 -0.044129077 -0.027408471 -0.03369371
0.004088634 -0.026353523 0.038252182 0.04333808 -0.026048943 -0.027319347 -0.053868078 -0.044995796
-0.043737628 0.034714837 -0.05043578 0.023736872 0.05593194 -0.055655576 -0.07580798 0.010568766
0.028574927 0.018422829 0.04143141 0.032288667 -0.017810784 0.04147368 -0.030194996 0.030949194
-0.032112356 0.019794056 0.038399417 0.029174536 0.04109004 -0.002242416 0.029185303 0.01589329
00000000: fa47 b13c 6e83 6ebc 40d8 74bd 96cc a73c
00000010: 4c5d d63c 0f6e 19bd 33c2 2bbd bdc9 15bc
00000020: b668 7b3c 7444 debc b971 813b 35f6 9dbc
00000030: c77c 76bc e50d c53a 9ee0 53bc 4869 723d
00000040: dc33 4a3c 2e68 623d fe5a 803d f6a2 7d3c
00000050: 0a3b cebc 4d56 303d 9bd1 a23b b27d 333d
00000060: 0bae 93bc 1502 423d a11e 5b3c e4ab deba
00000070: cc56 9bbc f6cd 893d 7b5f da3c f766 2c3d
00000080: 468c 173d 1c25 0c3c 88a7 b1bc 01af 96bc
00000090: b3b1 fdbb c5e1 d63c 1e30 d6bc aeef 1bbd
000000a0: b385 6dbc 7144 c23a dd99 173d 4da2 ea3c
000000b0: edd7 dcbc f597 adbc 74c2 b03c f65c d3bb
000000c0: 7d9a 373c 9481 5c3d 5599 223d f0c4 20bc
000000d0: be75 dd3c 0f11 e139 cfff e4bc 70a3 cfbb
000000e0: 00dc 843d bea8 c83c 49d0 4abd fbd2 1d3d
000000f0: e175 1d3c 403d e43c 0415 bc39 9ee2 c03c
00000100: 2c5e 413c f2fa 523d 4489 173d 21fe c0bc
00000110: 74fe 053d da97 0ebb 5289 0e3d eebe 04bd
00000120: b3bf 10bd 2ac6 2b3d 4367 733b 0c37 613b
00000130: 84ee 05bc de67 7cbc 1e21 96bc 893f 9dbd
00000140: 4c47 703d 3814 583d 786a 49bd 97e5 8b3c
00000150: 01b8 563d 3c19 223c 94f8 953c 0419 0e3d
00000160: 61ad 3e3c 1a09 c2bc 4add 8bbd e6b4 3cbd
00000170: 76ea 74bd 9ed7 b0bc 018f 87bd e4de 8b3c
00000180: 7fc4 ac3c bd66 b1bc 2ea2 f2bc c319 283d
00000190: 353b a33b f428 063d 127d 573c e59e e8ba
000001a0: 2030 c3bc 9f0d 02bd 0756 18bd 9b72 c03b
000001b0: fd77 68bd 8470 70bc 1728 34bd 66dd babd
000001c0: ac95 303c cd83 f13c 3cea 8d3d 7ed7 4c3d
000001d0: e5be 603d d815 83bd 6ac3 93bd 6c3a 51ba
000001e0: 6a89 053c 0150 8d3b 424d 80bd 367e e73c
000001f0: 1f8d 9dbd 2220 04bc caf7 5dbd 0053 81bd
00000200: b4d3 5f3d 5ec5 813d 0c3d 063d 8ef6 133d
00000210: 9233 163c b7e3 12bd 1ed6 733c a819 4d3d
00000220: 3199 ae3c 9128 7cbd fb6d 95bc e764 e03c
00000230: f8cb 5cba 32b0 8abb 6c90 34bd c661 363c
00000240: 1514 a13c e752 5dbd c385 143c 30ac 523c
00000250: 0cb9 a03c 4db7 403d 3e42 d7bc 1188 083d
00000260: c14e a63c 56d4 3bbb b89e 6d3c 7c78 a53d
00000270: e560 bb3c a997 8b3b c89e ba3c c206 c2bb
00000280: baaf 02bd 431f b2bb d99d 2e3d 2f1c e63b
00000290: 6035 acba b7d2 2d3d 3753 5b3d e7dd e63b
000002a0: b6bc bb39 9299 f73c 4457 42bc 973e 8e3d
000002b0: 4665 eb3b 65aa b63b 5894 b43d 4aad 86bc
000002c0: b286 d8bc 4374 423d cb37 13bd dc86 afbc
000002d0: 2759 493d fbe3 ffbc 53d9 be3c d04e cc3c
000002e0: 45a5 5a3c 3d4c 5abd e5fd 4fbd 0c1f 7fbd
000002f0: 4b53 9bbd 9844 0bbd 037f 92bb a855 82bd
00000300: 61bc 5ebd 5a37 0c3c 80d9 9abc 7910 1a3c
00000310: efd4 0e3c 1c0a 723d a710 1b3a 68fd 29bd
00000320: 9399 d8bc 33c0 23bd 5cdc 023c 561b e33c
00000330: 9fd4 2b3d 02d4 083d c81a 133d 58de 003d
00000340: f2dd 9fbb 72cf e1bc 4aea 713c 59a3 273c
00000350: 2d71 6fbc de56 3c3d cf0a 86bd 4bb2 2f3c
00000360: f076 10bd 243a 163d 3e43 673d 8de9 453d
00000370: 754f 7b3c b1c0 34bd bb87 e0bc 6a02 0abd
00000380: f3f9 853b 58e3 d7bc 52ae 1c3d 4583 313d
00000390: 9864 d5bc d3cc dfbc c6a4 5cbd 834d 38bd
000003a0: 3a26 33bd 2531 0e3d c095 4ebd d473 c23c
000003b0: e418 653d 1af7 63bd 3741 9bbd 9e28 2d3c
000003c0: f715 ea3c 79eb 963c fbb3 293d 1f41 043d
000003d0: ece7 91bc 4ee0 293d 7f5b f7bc 2a89 fd3c
000003e0: 3f88 03bd 2527 a23c b548 1d3d 70ff ee3c
000003f0: 084e 283d 7ff5 12bb 0416 ef3c a532 823c

scale_up.conv1.dilation_conv1d.weight f4 [16, 1, 16]
0.22474353 0.16129932 -0.16599458 0.112886176 0.14735688 0.08366409 -0.11119753 0.2592097
-0.159008 -0.18792169 0.09657748 0.12238655 0.036540158 0.026486913 0.12084094 0.19355384
-0.13624758 0.06316475 -0.10755701 -0.144746 -0.14549132 -0.20187187 0.1947628 -0.10067179
-0.086332686 -0.022256698 -0.17877127 0.14593141 -0.09400431 0.11627526 0.05606552 -0.26482955
-0.24581689 -0.2597929 0.20828909 0.21167614 0.069114245 -0.120461516 0.06565928 -0.20568511
0.023671396 -0.051044025 0.15422072 -0.0013712653 -0.018551769 -0.03956039 0.22219598 -0.19249381
0.09506169 -0.24221373 0.029243195 -0.22653194 0.105395906 0.20713572 -0.13733375 0.20554037
-0.24246107 0.10028115 0.02362057 -0.075251 -0.05243841 0.081886105 -0.06453991 -0.25980243
-0.08093009 0.2213622 -0.20602484 -0.0748954 0.1125492 0.19222131 -0.17837441 -0.1632358
0.16057913 0.17969549 0.17215876 0.15274946 -0.20420715 0.091346 -0.00011700579 0.047045693
-0.095106855 0.2426807 -0.012503952 -0.16971554 0.13210998 -0.002362748 -0.15325119 -0.10702749
-0.15469432 0.051012993 0.05556185 -0.06642308 0.024724824 -0.1336729 -0.24660508 -0.0045873323
0.24614654 -0.17703894 0.058671027 -0.1169026 -0.03073975 0.0672779 -0.113940805 -0.20480421
0.0059233946 -0.008616248 0.19106016 0.1098856 0.15373264 -0.14678799 -0.22350967 -0.14018911
-0.185674 0.006686856 -0.058637235 -0.0072171655 -0.054489713 -0.025197493 0.071656324 0.26085457
-0.035381064 0.22150768 0.24090573 0.1363488 -0.049191266 0.08335958 -0.14716138 -0.004270078
-0.13273248 -0.20748824 -0.22802034 -0.10670649 0.04591563 -0.021896137 -0.008034695 0.088062234
0.05449273 0.15096632 -0.077007115 0.040220294 -0.01955187 -0.10282803 -0.185243 -0.08665646
-0.25512514 0.010920175 -0.21706812 -0.105405204 -0.11561802 0.19629659 -0.22150224 -0.07748636
0.07180591 0.052966684 0.18728763 0.042858776 0.12865719 -0.16834153 0.13657987 -0.013125565
-0.043032575 -0.12748308 0.07708236 0.11373138 -0.19877128 -0.2091407 0.08379802 -0.23742686
-0.2512886 0.16444927 0.063164786 0.0027723347 -0.018076451 0.08701518 -0.19557548 0.19085118
-0.051920883 0.007611161 -0.25335512 -0.0016602989 -0.1697716 0.12357131 -0.2546911 0.20759147
-0.076378696 -0.103022985 -0.019388618 -0.22210921 0.06276341 0.1858184 -0.12347314 -0.09974144
-0.18875666 0.08027264 0.20326139 0.2229386 0.099584214 0.13167866 -0.16370653 -0.080329314
0.26394203 0.02364895 0.121853255 -0.16496153 -0.18577768 0.21798894 -0.08991106 -0.113950774
-0.026279647 -0.033945702 0.094190955 0.13985913 0.20548762 -0.0898688 -0.08008109 -0.2118822
-0.14296499 -0.061801516 -0.14445911 -0.010701284 -0.07054016 0.12759481 -0.23498558 -0.021824297
-0.111240685 -0.00016287775 -0.15210076 -0.26277563 -0.022475908 0.0053772107 0.1996127 -0.18740404
-0.054775327 0.18465598 0.22328815 0.020528322 -0.13966116 0.12963848 -0.19871052 -0.22745468
0.030643167 -0.13614503 0.08984679 -0.09821922 -0.17029832 -0.08060586 -0.15217492 -0.1656916
0.14157051 -0.014250502 -0.095568776 -0.23326613 0.2031613 -0.13612443 0.21589953 -0.2001836
00000000: 2b23 663e a62b 253e 7cfa 29be de30 e73d
00000010: b9e4 163e 1458 ab3d 88bb e3bd 22b7 843e
00000020: fed2 22be 8b6e 40be 6aca c53d cda5 fa3d
00000030: 22ab 153d 15fb d83c 747b f73d fa32 463e
00000040: 7c84 0bbe 855c 813d da46 dcbd 4c38 14be
00000050: adfb 14be 80b7 4ebe e66f 473e 032d cebd
00000060: 31cf b0bd ae53 b6bc d10f 37be 0b6f 153e
00000070: 5585 c0bd b921 ee3d f5a4 653d bd97 87be
00000080: 6cb7 7bbe 9303 85be bc49 553e a1c1 583e
00000090: c58b 8d3d 87b4 f6bd 5f78 863d 1e9f 52be
000000a0: 84ea c13c 8a13 51bd 09ec 1d3e 07bc b3ba
000000b0: e1f9 97bc 130a 22bd 5887 633e 191d 45be
000000c0: b4af c23d e006 78be 6d8f ef3c fdf7 67be
000000d0: cfd9 d73d 631b 543e 38a1 0cbe 2d79 523e
000000e0: b747 78be 3460 cd3d ed7f c13c 321d 9abd
000000f0: a9c9 56bd e7b3 a73d 802d 84bd d304 85be
00000100: adbe a5bd c6ac 623e 2df8 52be c262 99bd
00000110: 3280 e63d aad5 443e c8a7 36be 4927 27be
00000120: db6e 243e 1802 383e 634a 303e 5b6a 1c3e
00000130: ae1b 51be 9d13 bb3d 0161 f5b8 fcb2 403d
00000140: 62c7 c2bd 4a81 783e 60dd 4cbc e9c9 2dbe
00000150: d747 073e 55d8 1abb e1ed 1cbe 3b31 dbbd
00000160: 3068 1ebe 00f3 503d d394 633d d308 88bd
00000170: b78b ca3c 8ce1 08be 0b86 7cbe 5551 96bb
00000180: d70d 7c3e b249 35be 0851 703d a16a efbd
00000190: eed1 fbbc ffc8 893d cc59 e9bd 32b8 51be
000001a0: 0919 c23b 2a2b 0dbc 46a5 433e b40b e13d
000001b0: 176c 1d3e 974f 16be b8df 64be bc8d 0fbe
000001c0: 5321 3ebe 6a1d db3b 992d 70bd f97d ecbb
000001d0: 9b30 5fbd f96a cebc 8dc0 923d bb8e 853e
000001e0: bceb 10bd e9d2 623e feaf 763e 059f 0b3e
000001f0: c87c 49bd 6db8 aa3d 79b1 16be 03ec 8bbb
00000200: 06eb 07be cc77 54be 2a7e 69be ef88 dabd
00000210: 0712 3c3d 875f b3bc f4a3 03bc f959 b43d
00000220: c533 5f3d ea96 1a3e e8b5 9dbd 09be 243d
00000230: 3e2b a0bc 8197 d2bd 57b0 3dbe f178 b1bd
00000240: c39f 82be 89ea 323c 1b47 5ebe afde d7bd
00000250: 24c9 ecbd f901 493e 7cd1 62be 2bb1 9ebd
00000260: fa0e 933d 98f3 583d 54c8 3f3e af8c 2f3d
00000270: b6be 033e b961 2cbe 98db 0b3e 9c0c 57bc
00000280: ed42 30bd ed8a 02be 5bdd 9d3d ffeb e83d
00000290: b38a 4bbe fb28 56be 4c9e ab3d 0720 73be
000002a0: e6a8 80be 6465 283e 8a5c 813d 0fb0 353b
000002b0: 1115 94bc 0435 b23d f044 48be 7e6e 433e
000002c0: feaa 54bd 0c67 f93b c3b7 81be 639e d9ba
000002d0: 9bd8 2dbe f412 fd3d df66 82be dc92 543e
000002e0: 6f6c 9cbd b7fd d2bd e1d4 9ebc 9970 63be
000002f0: 1a8a 803d 2e47 3e3e 7cdf fcbd 3d45 ccbd
00000300: 6d49 41be fb65 a43d c123 503e 044a 643e
00000310: cff2 cb3d c5d6 063e afa2 27be b283 a4bd
00000320: 6923 873e 71bb c13c 338e f93d adeb 28be
00000330: 813c 3ebe 7e38 5f3e 4a23 b8bd 065f e9bd
00000340: 6a48 d7bc a60a 0bbd 30e7 c03d 3b37 0f3e
00000350: 596b 523e 220d b8bd 8e01 a4bd a6f7 58be
00000360: 6a65 12be 9623 7dbd 17ed 13be 7054 2fbc
00000370: 5c77 90bd 37a8 023e 0fa0 70be dec8 b2bc
00000380: 28d2 e3bd 2aca 2ab9 4dc0 1bbe 878a 86be
00000390: 651f b8bc 5033 b03b 4667 4c3e d8e6 3fbe
000003a0: 185c 60bd 7516 3d3e a6a5 643e 032b a83c
000003b0: 5603 0fbe f3bf 043e c57a 4bbe e1e9 68be
000003c0: 6107 fb3c 9a69 0bbe 9801 b83d 2927 c9bd
000003d0: af62 2ebe af14 a5bd bed3 1bbe 0fab 29be
000003e0: dcf7 103e f07a 69bc 90b9 c3bd 51dd 6ebe
000003f0: 8409 503e 3464 0bbe c414 5d3e eefc 4cbe

scale_up.conv2.dilation_conv1d.weight f4 [1, 16, 16]
-0.013111494 0.075469196 0.042088583 -0.024168894 -0.025236206 -0.015830427 0.040096078 0.048985098
-0.0069073658 -0.03565713 -0.024903532 0.055986788 0.02790298 0.04288951 0.049814124 -0.022654802
-0.062080197 -0.059544466 0.046102572 -0.013525553 -0.01210213 -0.0766564 -0.005690524 -0.07410035
-0.05692689 -0.012458739 -0.07224332 0.011252844 0.027739275 -0.04310398 0.028223751 0.03157542
-0.06585363 -0.004224205 -0.02198172 -0.015385188 0.029279467 -0.03620689 -0.044502005 0.00020521093
0.0052834074 -0.041420165 -0.035427865 -0.06390972 0.028959673 -0.03682501 0.022919256 -0.06043403
-0.058073796 -0.018918341 0.045259323 -0.02499445 -0.023653196 -0.030736435 -0.009202815 -0.03654347
0.030271906 -0.010876787 0.013650042 -0.016441012 0.028389474 -0.05880086 -0.05048982 -0.044189602
-0.009741432 0.020916477 0.045791093 -0.028937822 -0.026599763 0.055546883 0.046365205 0.029906688
0.044160552 0.02510975 -0.0035878024 0.0076436726 0.0016059072 -0.008116153 -0.019541122 0.009242406
-0.055657387 -0.051509954 -0.054576058 0.042483017 0.046091627 0.018577076 -0.02855353 0.00012982523
0.009518176 -0.0065988745 0.01573071 0.0067660604 0.0035476275 0.04261963 -0.0689836 -0.011348892
0.035893496 0.03702361 -0.031652793 0.027753409 -0.051233657 -0.017926078 0.042246446 -0.025136152
0.017582959 0.047258437 -0.042054683 0.011139208 -0.040214982 -0.032830928 0.030567843 0.0036146077
-0.03788132 0.07510425 0.060904928 0.052181795 0.024795799 0.046368558 -0.001833043 -0.0040386342
0.050679807 0.027317964 0.07742148 0.01892392 0.014640942 0.05420166 -0.012116245 -0.037081204
-0.013205343 0.04629131 -0.0629606 -0.0054581617 -0.05643559 -0.06916455 -0.01607485 -0.037928976
-0.030856129 0.0045574815 -0.030905897 -0.00972674 -0.01837777 0.030548077 0.0045820763 -0.03983256
-0.058427654 0.029584518 -0.016447982 0.013687318 -0.03701316 0.032980233 0.031052766 -0.009638677
0.0038482682 0.0009128444 0.010448848 -0.019892333 -0.0670866 -0.055350278 -0.0030812605 -0.07340902
-0.074447684 -0.048818447 0.017021006 -0.019211749 -0.058904402 -0.056860697 -0.03996373 -0.061638463
0.042753123 -0.056242988 -0.048676014 -0.059722856 -0.037942912 0.03358533 0.007054932 -0.011635207
-0.07643955 0.010069277 0.043416142 -0.016722446 0.026848918 -0.036110025 -0.07429362 -0.017578278
0.0086850235 -0.043418504 -0.013037985 -0.0060425433 0.04306155 -0.049426127 -0.07142472 -0.046312794
0.057233617 -0.016335804 0.0086371945 -0.031562034 -0.017467197 -0.038678654 0.03338285 0.054853674
0.0060883695 0.009677706 0.0303354 0.005865828 0.019775609 0.039499357 0.061031412 0.045498278
-0.0020594592 0.036720168 -0.0730669 -0.05809189 0.03319145 0.04049141 -0.047199834 0.030678997
-0.02535962 -0.03567297 -0.020061314 -0.03454089 -0.00080212665 -0.014028535 -0.019128032 -0.045745675
0.022338506 -0.05382402 -0.016683972 0.025800813 -0.048736252 -0.057246663 0.0006107598 -0.06804328
-0.041958906 0.0379703 0.019146936 0.039156158 -0.076583326 -0.075940065 -0.0018915923 0.004837693
-0.05021183 0.008284 -0.0034076078 -0.04124706 0.043807685 0.033331756 0.03686345 -0.035404913
-0.014928454 -0.045138896 0.035455994 0.041208714 -0.046940796 0.0023385677 0.036879763 -0.008133553
00000000: 97d1 56bc 988f 9a3d 1465 2c3d d8fd c5bc
00000010: 29bc cebc d0ae 81bc c93b 243d 99a4 483d
00000020: 2f57 e2bb 360d 12bd 7e02 ccbc 6752 653d
00000030: ca94 e43c e9ac 2f3d e509 4c3d 9096 b9bc
00000040: ce47 7ebd e6e4 73bd 0dd6 3c3d 489a 5dbc
00000050: 0348 46bc 08fe 9cbd 9377 babb edc1 97bd
00000060: 2c2c 69bd bd1f 4cbc 4ef4 93bd d95d 383c
00000070: 7a3d e33c cd8d 30bd 7f35 e73c 3a55 013d
00000080: 45de 86bd 336b 8abb 0213 b4bc 2812 7cbc
00000090: 7edb ef3c ad4d 14bd bc47 36bd e42d 5739
000000a0: 6f20 ad3b 31a8 29bd cf1c 11bd 19e3 82bd
000000b0: d63c ed3c d2d5 16bd 2ac1 bb3c ac89 77bd
000000c0: cade 6dbd a3fa 9abc d761 393d 29c1 ccbc
000000d0: 59c4 c1bc faca fbbc 67c7 16bc 9bae 15bd
000000e0: cafc f73c 8d34 32bc 6da4 5f3c 4daf 86bc
000000f0: 0b91 e83c 2cd9 70bd 6ace 4ebd 2800 35bd
00000100: 879a 1fbc 0859 ab3c 718f 3b3d 030f edbc
00000110: bfe7 d9bc 2185 633d 71e9 3d3d dffe f43c
00000120: b2e1 343d f6b2 cd3c 5621 6bbb c677 fa3b
00000130: 4e7d d23a 9df9 04bc b414 a0bc 766d 173c
00000140: 00f9 63bd 1afc 52bd 258b 5fbd ac02 2e3d
00000150: 93ca 3c3d f42e 983c 18e9 e9bc b221 0839
00000160: 20f2 1b3c 5f3b d8bb b1dd 803c d4b5 dd3b
00000170: 507f 683b ec91 2e3d 4647 8dbd b4f0 39bc
00000180: 0f05 133d 12a6 173d 5ca6 01bd 1e5b e33c
00000190: 62da 51bd b6d9 92bc 9c0a 2d3d 55ea cdbc
000001a0: 230a 903c 1092 413d 8841 2cbd 3a81 363c
000001b0: 77b8 24bd b979 06bd 6a69 fa3c 0ee3 6c3b
000001c0: 7129 1bbd 42d0 993d 7277 793d 94bc 553d
000001d0: 8f20 cb3c f5ec 3d3d b742 f0ba 8556 84bb
000001e0: a195 4f3d ecc9 df3c 278f 9e3d 5606 9b3c
000001f0: 90e0 6f3c 8f02 5e3d 3783 46bc 76e2 17bd
00000200: 395b 58bc f59b 3d3d 7df1 80bd 61da b2bb
00000210: 0129 67bd 25a6 8dbd 67af 83bc 6a5b 1bbd
00000220: fec5 fcbc ed56 953b 5d2e fdbc e85c 1fbc
00000230: fa8c 96bc f63f fa3c 3e25 963b 7727 23bd
00000240: d651 6fbd 3b5b f23c ebbd 86bc c640 603c
00000250: 1c9b 17bd 4816 073d 5f62 fe3c 8beb 1dbc
00000260: 3a33 7c3b f34b 6f3a a531 2b3c 3ff5 a2bc
00000270: b364 89bd f9b6 62bd f9ee 49bb 7857 96bd
00000280: 0778 98bd daf5 47bd a36f 8b3c f561 9dbc
00000290: be45 71bd c3e6 68bd 02b1 23bd 9d78 7cbd
000002a0: e61d 2f3d 0c5f 66bd 8060 47bd f49f 74bd
000002b0: 076a 1bbd c590 093d 0f2d e73b 98a1 3ebc
000002c0: 578c 9cbd 9cf9 243c 20d5 313d 83fd 88bc
000002d0: 43f2 db3c 1be8 13bd 4127 98bd 5200 90bc
000002e0: a14b 0e3c 9ad7 31bd 469d 55bc 8700 c6bb
000002f0: 4f61 303d 0d73 4abd 2047 92bd 7cb2 3dbd
00000300: cc6d 6a3d aad2 85bc 0583 0d3c 3147 01bd
00000310: 5e17 8fbc 826d 1ebd 75bc 083d 3fae 603d
00000320: f280 c73b 3e8f 1e3c f281 f83c 2236 c03b
00000330: 7500 a23c 14ca 213d 13fc 793d 675c 3a3d
00000340: fef7 06bb e367 163d 19a4 95bd c3f1 6dbd
00000350: c2f3 073d 52da 253d 9d54 41bd 8552 fb3c
00000360: fabe cfbc d21d 12bd a057 a4bc c07a 0dbd
00000370: cf45 52ba f1d7 65bc 64b2 9cbc d15f 3bbd
00000380: 3eff b63c 9376 5cbd d3ac 88bc 3a5c d33c
00000390: aa9f 47bd 7a7b 6abd 651b 203a 465a 8bbd
000003a0: 1add 2bbd bf86 1b3d 09da 9c3c 3562 203d
000003b0: b8d7 9cbd 7786 9bbd 4eef f7ba 8385 9e3b
000003c0: ebaa 4dbd 9db9 073c 2c52 5fbb adf2 28bd
000003d0: b06f 333d e186 083d 21fe 163d be04 11bd
000003e0: 7996 74bc 90e3 38bd 4e3a 113d 78ca 283d
000003f0: fe44 40bd a842 193b 3c0f 173d 9842 05bc
