result/x_net_demo/model_ph1.pth (torch, 6111 bytes, 4 tensors)

scale_down.conv1.dilation_conv1d.weight f4 [16, 1, 16]
000000 b4 5a 70 be 8c c7 4c bd d0 33 02 be 21 4c 94 bd
       -0.234721 -0.04999499 -0.12715077 -0.07241083
000010 1d 33 60 be 3c 2e d7 3d 02 62 61 be 92 76 80 bc
       -0.21894498 0.105068654 -0.22010043 -0.015681539
000020 49 1b a8 3d 10 9d b5 bd b0 75 0c 3e 2e ed cc 3c
       0.08208329 -0.08867848 0.13716769 0.02501544
000030 25 59 00 3e 9b 2a 15 3e cc 08 01 be 3a 45 9a 3d
       0.12534006 0.14567034 -0.12601012 0.07532735
000040 16 c1 d3 bd 71 25 a4 3d 2c d3 04 be 4d 66 ec 3d
       -0.103395626 0.08014954 -0.1297118 0.1154295
000050 cc 84 53 3d 01 8d c3 bd bb f6 f4 bd 25 53 8b 3d
       0.051640317 -0.09548379 -0.119611226 0.06802968
000060 b8 b2 72 3e 5d 5a 01 3e 26 2e 63 bc 82 8a c9 3a
       0.23700988 0.12632127 -0.013865983 0.0015376362
000070 03 54 21 3e 84 fc 1e be 9e f9 d3 3d 00 d9 80 bd
       0.15754704 -0.15526015 0.10350345 -0.062913895
000080 57 70 20 3e 89 ee ae bd 20 e6 dd 3b c0 a3 c2 3d
       0.15667854 -0.08541591 0.006771818 0.09503889
000090 df b9 40 3e 0b b8 86 bc ba 85 77 3e bf ba 4f be
       0.18820904 -0.01644518 0.24172106 -0.20286082
0000a0 cc ba e9 bc fc 1b 67 be 67 7a 3e 3d bb 67 c1 3d
       -0.028531455 -0.22569269 0.04650345 0.09443613
0000b0 77 a1 a6 bd 2c 11 03 3e cd 7e 62 bc 36 c2 43 be
       -0.08136266 0.1279952 -0.013824177 -0.19117054
0000c0 38 4d 48 3e 44 61 20 3e 8a 13 04 3e cd e2 4e 3e
       0.19560707 0.15662104 0.12898079 0.20203705
0000d0 ee d3 bc 3d d3 21 08 3e d9 09 58 3e 8a bc 3b bd
       0.0922011 0.13294153 0.21097507 -0.0458341
0000e0 48 4e 41 be 02 0b e9 bd 1f 38 a9 bc 8b 98 27 bc
       -0.18877518 -0.11379053 -0.020656643 -0.01022924
0000f0 7b d0 92 3c d0 47 27 3e 04 8b cb 3d bd dc 29 be
       0.017921677 0.16335988 0.099386245 -0.16588111
000100 67 33 7b bd c1 0f 22 bd 8f 3f 39 3e 6e de 80 bd
       -0.061328318 -0.039565805 0.18090652 -0.06292425
000110 f0 71 b7 bd 59 7a 21 bd 5a 35 93 bd 65 98 90 bd
       -0.08957279 -0.03942332 -0.071879104 -0.07060317
000120 f6 a7 82 be 2c 72 57 3e 88 da fa 3d b9 06 03 be
       -0.2551877 0.21039647 0.12248713 -0.12795533
000130 34 2f 2b be 60 fc 25 bc 7e 9f f6 3d b1 ce 4f be
       -0.16717225 -0.010130972 0.120421395 -0.2029369
000140 2e 3d ab bd 4d a6 e2 3d 50 62 20 be 24 d2 a9 bc
       -0.083612785 0.110668756 -0.15662503 -0.020730086
000150 22 28 31 be be 8e 7c 3e 45 32 13 3e f2 01 6a be
       -0.17300466 0.24663827 0.14374645 -0.22852305
000160 7a e2 0f be 61 4a a6 3d 61 a9 f5 3a ec 36 57 3d
       -0.14051238 0.081196554 0.0018742495 0.052542612
000170 9c 45 5f be ba 72 17 be 87 e0 ca 3d 25 9a 51 be
       -0.21803898 -0.14789858 0.099061064 -0.20468958
000180 d1 4d 53 bd cb 74 e8 3d f8 e7 07 3e f0 ae 85 3c
       -0.051587883 0.113504015 0.13272083 0.016318768
000190 2a 99 8d 3d 42 c8 cf 3d 35 62 33 bd 45 f4 aa bd
       0.06913979 0.10145618 -0.04379483 -0.08347372
0001a0 82 5f 32 3e 28 c7 65 3e 8f 16 c3 3d 02 e5 05 be
       0.17419246 0.22439253 0.09525787 -0.13075641
0001b0 6f 80 75 be 76 20 8a be f3 69 b7 bc c8 74 f7 bd
       -0.23974775 -0.2697789 -0.022389388 -0.12082821
0001c0 e7 c8 62 bd aa a7 40 bc 1f 2a 85 3e 23 3e 85 3e
       -0.055367377 -0.011758724 0.26008698 0.2602397
0001d0 d6 d7 25 bc 68 a4 8e bd 63 e1 f0 3d c5 86 ee bc
       -0.01012226 -0.06964952 0.11761739 -0.029116997
0001e0 b1 fb 7e be 28 eb 8a 3d 29 ae 67 3e c0 8d 55 be
       -0.249007 0.06783134 0.2262503 -0.20854855
0001f0 a7 4e 86 bd 42 89 29 3d 2a ad 61 be 46 cb 6f be
       -0.065579705 0.041390665 -0.22038713 -0.23417386
000200 d9 47 45 3e ae 61 a6 bd fe 5c 20 3e 2b 09 06 3d
       0.19265689 -0.081241 0.15660474 0.032723587
000210 c6 ae 8b 3d 4f 94 29 be 97 c2 66 bd dc 75 26 3e
       0.06820445 -0.16560481 -0.05633792 0.16255897
000220 83 df e5 3d c6 13 9d bd f8 e6 c7 3c 5b 7d 3f 3e
       0.11224272 -0.07669787 0.024402127 0.18700163
000230 11 b0 5d be 41 f9 29 3e 20 8f 9f bd 7b 0f 71 bd
       -0.21649195 0.16598989 -0.07790971 -0.058852654
000240 93 63 fa 3d 9e 7e 4f be 0c a6 13 bd 3b 04 73 3e
       0.122260235 -0.20263144 -0.036047027 0.23732083
000250 e3 e4 b0 3d 42 02 c6 bd c2 20 70 bd 59 7d 4b 3e
       0.08637407 -0.096683994 -0.05862499 0.19872035
000260 55 84 cf 3d 09 35 39 3e b3 a2 16 be bc 1f b5 3d
       0.10132662 0.18086638 -0.14710502 0.088439435
000270 58 f7 7e 3d 82 e1 80 3d 6e c7 80 3e 56 32 21 3e
       0.062247604 0.06293012 0.25152153 0.15741858
000280 d7 87 31 3e cd 16 dd 3d 05 4f d2 3d cc 77 49 bd
       0.17336975 0.107953645 0.10268978 -0.049186513
000290 03 8d 6a be 8c 7c 60 be 4e 01 24 be ae 56 22 be
       -0.22905354 -0.21922511 -0.16016123 -0.15853378
0002a0 8b af ff 3d 03 ba b1 3d 4e 19 66 bd de 3c 34 be
       0.12484654 0.08678057 -0.056176476 -0.17601344
0002b0 f4 22 85 3e 31 bf 50 3e cb 01 0d 3e 09 10 89 3e
       0.2600323 0.20385434 0.13770215 0.26770046
0002c0 8d 34 08 be 46 4f 14 be d5 51 1b be 42 4b 89 bc
       -0.13301297 -0.14483365 -0.15167935 -0.016759519
0002d0 ae 0c 65 be 8c 81 47 3e fd f2 0b 3b 1a f0 ef 3d
       -0.22368118 0.19483012 0.002135455 0.117157176
0002e0 44 d9 1b be dc 0c 39 bd 7b a9 44 3c eb 3f b8 bd
       -0.15219599 -0.04517828 0.012003298 -0.089965664
0002f0 12 29 5b 3e 0d de 0b be b5 f6 5f 3d b6 d0 45 be
       0.21402386 -0.13658924 0.054678638 -0.19317898
000300 71 95 03 bd eb a8 8d bd a5 93 c9 3d 30 29 24 3e
       -0.03212494 -0.06916984 0.09842614 0.16031337
000310 8b a8 3e 3d 7f 05 21 bd e6 8a 92 bd 8a cf 4a 3e
       0.046547454 -0.039311882 -0.07155399 0.19805732
000320 c9 bb 52 bd 92 64 45 3e 01 35 c4 bd 80 be 62 3e
       -0.051448617 0.19276646 -0.09580422 0.22142982
000330 e6 80 85 3e 84 45 39 3e b0 85 1e 3e 69 eb dd 3d
       0.26074904 0.18092924 0.15480685 0.108359165
000340 b0 04 0a be 99 34 9a 3b ec fb ba 3d fc 22 6c bd
       -0.1347835 0.004705977 0.091300815 -0.05765055
000350 fc 68 72 3d 40 12 0f 3e 16 9c 79 be 48 e2 7c be
       0.059182152 0.13971806 -0.24375948 -0.24695694
000360 37 c5 2f be 60 15 c4 3c b3 d0 33 bd bd aa 4c 3d
       -0.17165075 0.023935974 -0.043900203 0.049967516
000370 a2 4b 88 bd 15 72 31 be ee ae 5c 3c d3 3d 29 3e
       -0.06655051 -0.17328675 0.013469441 0.1652749
000380 b9 aa 1d be c3 34 63 3e 94 ac 84 3d a4 f4 80 3e
       -0.15397157 0.22188096 0.06478229 0.25186646
000390 74 24 69 be 86 fa 7b be 4b 0a 98 3d 16 56 7b be
       -0.22767812 -0.24607286 0.07423838 -0.24544558
0003a0 a6 73 5d be bd ce f1 3d b8 b5 e2 3d c4 08 76 be
       -0.21626148 0.1180701 0.11069816 -0.24026781
0003b0 71 05 29 3e 24 cc 86 bd 05 b5 27 3e ee 40 2e be
       0.16505982 -0.065819055 0.16377647 -0.17016956
0003c0 1d 13 6c be 41 d1 21 be 90 88 f7 bc a6 5f 79 be
       -0.23054166 -0.1580248 -0.030216485 -0.24352893
0003d0 0e c3 78 bc 35 cd 00 be bb 67 7a bd ff 89 8f bb
       -0.015183223 -0.1257828 -0.06113408 -0.004380464
0003e0 aa c7 81 3c 65 89 70 be b2 d7 10 3e f5 c6 0d be
       0.015842278 -0.23489912 0.14144781 -0.13845427
0003f0 09 10 2c 3e c6 0c 7c 3e 22 93 85 bd bb d5 3e 3d
       0.16802992 0.24614248 -0.06522204 0.046590548

scale_down.conv2.dilation_conv1d.weight f4 [1, 16, 16]
000000 c2 0f bb 3c e8 24 58 bc df fe 6f bd e0 40 af 3c
       0.022834662 -0.013192393 -0.058592673 0.02139324
000010 9b b8 dc 3c f1 9a 15 bd a9 03 27 bd b3 2a 01 bc
       0.026943495 -0.036524717 -0.040774975 -0.007883715
000020 0e ff 86 3c cd 50 d5 bc c3 c4 9d 3b 18 ee 9a bc
       0.016479041 -0.026039505 0.0048147156 -0.01891236
000030 13 14 75 bc 5d 0d bc 3a 66 92 59 bc 85 6c 70 3d
       -0.014958399 0.0014347244 -0.013279533 0.058697242
000040 c7 af 3c 3c d3 bd 5f 3d 63 d0 80 3d 31 a3 82 3c
       0.011516518 0.05462439 0.062897466 0.015946956
000050 3d d2 cf bc 51 e3 2e 3d d1 15 9b 3b 46 15 32 3d
       -0.025368804 0.042697255 0.0047328253 0.04347732
000060 52 00 95 bc f0 b4 45 3d c3 2a 73 3c 96 6e 69 ba
       -0.01818863 0.04826826 0.014841738 -0.0008904723
000070 4b 7d 9b bc 6a ac 89 3d c6 c9 df 3c 3d 9d 2e 3d
       -0.018980643 0.067223385 0.027317893 0.042630423
000080 68 6a 15 3d 0f 6e ff 3b 16 bb ca bc 95 68 b8 bc
       0.03647843 0.0077951024 -0.024747413 -0.022510806
000090 23 9c 36 bc bc e1 c4 3c f0 94 da bc de 9e 18 bd
       -0.011145624 0.02403342 -0.026682347 -0.037260883
0000a0 32 4b 70 bc 11 18 b5 b9 be d3 08 3d ca 2a d6 3c
       -0.014666365 -0.0003454094 0.033405058 0.02614345
0000b0 1e 80 e3 bc 4a 0c a3 bc 03 83 d3 3c 66 10 18 bb
       -0.027771052 -0.01990332 0.025819307 -0.0023203134
0000c0 22 2c 2e 3c 61 cb 59 3d de 13 1e 3d a9 fa 34 bc
       0.010630639 0.053172473 0.038593166 -0.01104609
0000d0 32 7c d6 3c 80 e8 8b b5 41 58 e7 bc 8e a5 d8 bb
       0.026182268 -1.0423973e-06 -0.028240325 -0.0066115325
0000e0 86 44 84 3d 80 9a c4 3c 9e e8 4d bd 0a eb 1a 3d
       0.06458382 0.023999453 -0.05027067 0.037821807
0000f0 c5 d4 17 3c 91 05 e5 3c 8f 24 4c 3a 80 81 c4 3c
       0.009267037 0.027956756 0.000778743 0.023987532
000100 e0 17 4c 3c 21 f8 55 3d 5e 98 18 3d c2 6f bf bc
       0.012456864 0.052238587 0.037254684 -0.02336872
000110 d4 42 08 3d ae ed 05 bb 81 82 0c 3d 69 d7 05 bd
       0.033266857 -0.0020435858 0.034304146 -0.032676134
000120 d6 b3 0e bd fc c3 2e 3d d7 cd 78 3b 9d dc 50 3b
       -0.034839474 0.042667374 0.0037964487 0.0031869777
000130 23 9c 04 bc 9e 3b 77 bc b7 0b 93 bc 25 ce 9b bd
       -0.0080938665 -0.015089897 -0.017949922 -0.07607678
000140 36 17 73 3d d6 42 5b 3d a2 7c 48 bd 6a c3 8b 3c
       0.059348308 0.053530537 -0.048946984 0.017060954
000150 70 c9 56 3d d5 f2 21 3c 1f 3f 94 3c b8 91 0d 3d
       0.0524382 0.009884556 0.018096505 0.034562796
000160 b9 d3 42 3c 61 81 c0 bc 4a ac 8c bd f0 c6 3d bd
       0.011891299 -0.023499193 -0.06868799 -0.0463323
000170 fa 53 73 bd d0 cf a9 bc 64 bd 85 bd ed b8 94 3c
       -0.05940626 -0.020728976 -0.06530264 0.018154586
000180 a4 0f 9a 3c 5b 59 b8 bc 8d 55 f6 bc c2 65 1d 3d
       0.018806286 -0.022503546 -0.03007009 0.038427122
000190 19 35 32 3b f6 cf d9 3c 6e 6c f4 3b fb 18 bf ba
       0.0027192293 0.026588421 0.007459215 -0.0014579588
0001a0 2b 2d be bc 25 e5 f8 bc 0a 13 0e bd f6 e3 ee 3b
       -0.023214897 -0.030382702 -0.034686126 0.0072903587
0001b0 a2 6e 63 bd 4d 1e 5a bc a5 82 2b bd f4 ec aa bd
       -0.05552543 -0.013312888 -0.04187264 -0.083459765
0001c0 17 9c 30 3c f8 51 f3 3c 71 fe 8b 3d ad cc 43 3d
       0.010779402 0.029702172 0.0683564 0.047802616
0001d0 e1 1f 59 3d e4 54 86 bd fb f6 95 bd 8c 42 cd ba
       0.053008918 -0.0655916 -0.073224984 -0.0015660091
0001e0 12 54 0b 3c a6 c0 a0 3b 33 b4 80 bd f1 68 e2 3c
       0.008503931 0.004905778 -0.0628437 0.02763793
0001f0 b3 e5 9d bd dc 21 f4 bb f6 b0 53 bd e8 ef 63 bd
       -0.07709827 -0.0074503254 -0.051682435 -0.055648714
000200 d2 3c 5c 3d 2e b8 7f 3d 4e 01 03 3d 15 29 12 3d
       0.05376894 0.062431507 0.031983666 0.03568371
000210 9b 9d 0e 3c 6d f1 16 bd 4c 14 67 3c 28 28 4b 3d
       0.008704568 -0.036851335 0.01410396 0.049598843
000220 8e 34 a9 3c 77 c0 7d bd cb 20 92 bc 04 b6 e4 3c
       0.020654943 -0.061951127 -0.017837903 0.027918823
000230 95 a6 56 ba 93 5c 96 bb e7 d6 33 bd 7b 86 45 3c
       -0.0008188275 -0.0045886724 -0.04390612 0.012055988
000240 d0 05 9c 3c 7d 73 60 bd 3e 3c 0e 3c c1 c1 53 3c
       0.01904574 -0.05479764 0.008681355 0.0129246125
000250 30 91 a1 3c 47 d3 40 3d b5 a6 d6 bc 3e ba 08 3d
       0.019722551 0.04707649 -0.026202539 0.03338074
000260 06 d8 a5 3c c3 b1 40 bb a5 eb 6e 3c 49 bd a5 3d
       0.02024461 -0.002940283 0.014582549 0.08092744
000270 15 9c ba 3c 61 90 80 3b 7b 09 b6 3c 73 37 ec bb
       0.022779504 0.0039234613 0.022221318 -0.0072087585
000280 c2 db 04 bd 72 d8 c5 bb f6 46 2e 3d 69 21 f6 3b
       -0.03243614 -0.006037765 0.042548142 0.007511307
000290 62 65 91 b9 7f 8a 32 3d 52 32 5e 3d fe 3c e4 3b
       -0.0002773209 0.04358911 0.054247208 0.0069652786
0002a0 36 0c 45 39 23 7b fa 3c 61 f6 3b bc 60 16 8e 3d
       0.00018791933 0.030576294 -0.0114723155 0.069378614
0002b0 f7 d7 d8 3b a5 07 8a 3b 73 38 ad 3d 90 ff b0 bc
       0.006617542 0.004212337 0.084580325 -0.021606237
0002c0 9d 68 d0 bc e8 e2 45 3d 65 a4 11 bd d0 72 ae bc
       -0.025440508 0.048312098 -0.03555717 -0.021294981
0002d0 82 17 4a 3d 1e 79 fc bc af d9 c3 3c 30 66 d1 3c
       0.049338825 -0.030819472 0.02390751 0.025561422
0002e0 3e 1a 62 3c 69 d9 59 bd 55 54 50 bd 0e d1 7e bd
       0.013800202 -0.053185854 -0.050861675 -0.06221109
0002f0 85 86 9a bd 89 53 08 bd 94 08 58 bb 56 c7 7e bd
       -0.07545189 -0.03328279 -0.0032964097 -0.06220182
000300 8c 60 60 bd 84 06 04 3c 72 1d 9e bc fa 13 16 3c
       -0.054779574 0.008058194 -0.01930115 0.009160036
000310 6d 71 0c 3c 1a 08 72 3d 3c 31 47 3a 5e 06 29 bd
       0.008571965 0.059089758 0.0007598584 -0.041265838
000320 58 10 d7 bc cf 41 23 bd 53 6f 04 3c 82 56 e3 3c
       -0.02625291 -0.03985768 0.008083182 0.027751211
000330 c4 24 2b 3d d0 83 07 3d d0 62 11 3d 86 61 fb 3c
       0.04178311 0.03308469 0.035494626 0.030686151
000340 fb 11 8e bb fd ae db bc 65 be 80 3c 93 e5 35 3c
       -0.0043356395 -0.02681684 0.015715787 0.011102098
000350 d3 a3 68 bc fd 59 3c 3d 09 0a 86 bd 44 92 34 3c
       -0.014199215 0.045984257 -0.06544883 0.011021201
000360 46 0e 0e bd ef 3b 18 3d da 8f 66 3d 84 47 43 3d
       -0.03468158 0.037166532 0.05628953 0.047675624
000370 f4 48 72 3c 55 d8 36 bd ce 26 e6 bc 24 aa 0c bd
       0.014787901 -0.044639904 -0.028094675 -0.034341946
000380 cb 56 a2 3b 32 c0 d2 bc 44 01 1d 3d a1 c1 31 3d
       0.004954194 -0.025726411 0.038331285 0.04339755
000390 f2 43 d1 bc 6e 8a dc bc e7 84 5e bd 1b d0 39 bd
       -0.025545094 -0.026921477 -0.054325964 -0.04536448
0003a0 2c 0f 30 bd 4f eb 11 3d 51 3a 4e bd 26 28 bf 3c
       -0.04298322 0.0356248 -0.050348584 0.023334574
0003b0 15 8d 62 3d 64 ed 66 bd ed e9 9b bd b4 2f 30 3c
       0.055310328 -0.056378737 -0.07612977 0.010753561
0003c0 b3 6c f4 3c db fd 9f 3c ab 26 2d 3d 6c f4 06 3d
       0.029836988 0.019530227 0.042273205 0.032947943
0003d0 30 14 8a bc 19 d8 2e 3d 88 ee ec bc cc a8 03 3d
       -0.01685533 0.042686556 -0.028922334 0.0321434
0003e0 36 0d 00 bd 5b 7c a6 3c 7a d1 1e 3d 6b 44 f0 3c
       -0.0312626 0.02032297 0.03877399 0.0293295
0003f0 70 b5 28 3d fd 3d 0a bb 96 d2 ee 3c be e1 7d 3c
       0.041188657 -0.0021094077 0.02915315 0.015495716

scale_up.conv1.dilation_conv1d.weight f4 [16, 1, 16]
000000 2a e7 64 3e c0 ea 23 3e 3b 3d 2b be 2b ab e4 3d
       0.22353807 0.16007519 -0.16722576 0.1116546
000010 fb a0 15 3e 8c d4 a8 3d ab 36 e6 bd 74 1a 84 3e
       0.1461219 0.08243665 -0.11240896 0.25801432
000020 59 0d 24 be 43 ac 41 be b5 53 c3 3d 68 3c f8 3d
       -0.16020717 -0.18913369 0.0953745 0.121208966
000030 a1 e5 10 3d 33 15 cf 3c f0 ec f4 3d e7 eb 44 3e
       0.03537524 0.025278663 0.11959255 0.19230615
000040 15 8c 0a be bb 4e 83 3d 19 56 da bd 8f 40 13 be
       -0.1353 0.06411501 -0.10660953 -0.14380096
000050 47 04 14 be 69 be 4d be 0a 6c 48 3e 73 27 cc bd
       -0.14454757 -0.20092167 0.19572464 -0.09968462
000060 e8 c5 ae bd 74 3e ae bc 21 0c 36 be 9e 72 16 3e
       -0.08533841 -0.021270014 -0.17778064 0.1469216
000070 a7 87 be bd d6 08 f0 3d 0c 75 69 3d 59 1a 87 be
       -0.093032174 0.11720435 0.05699639 -0.2638729
000080 01 b7 7a be 0c 83 84 be d0 4a 56 3e d5 be 59 3e
       -0.24483873 -0.2588123 0.20926976 0.21264203
000090 af 87 8f 3d 79 b0 f4 bd b9 7d 88 3d 31 a0 51 be
       0.070083015 -0.11947722 0.06664605 -0.20471264
0000a0 f9 d9 c9 3c 8a 0e 4d bd 34 ec 1e 3e 2f 5f d6 b9
       0.02464007 -0.050062694 0.15519792 -0.00040888178
0000b0 c2 24 90 bc d2 12 1e bd 68 87 64 3e 70 19 44 be
       -0.017595652 -0.038592167 0.22317278 -0.19150329
0000c0 df e8 c4 3d 98 e2 76 be fe b7 f8 3c 3e d7 66 be
       0.09614729 -0.24109876 0.030361172 -0.22543046
0000d0 90 19 da 3d 30 39 55 3e 0c 8a 0b be db 8c 53 3e
       0.10649407 0.20822597 -0.1362688 0.20659201
0000e0 0f 31 77 be 7c 8d cf 3d f9 49 ca 3c 00 dd 97 bd
       -0.24139808 0.10134408 0.024693476 -0.07415199
0000f0 70 44 52 bd 61 f2 a9 3d 16 e7 81 bd 7f 6f 84 be
       -0.0513348 0.08298183 -0.06342904 -0.25866315
000100 0b 6a a8 bd 66 5c 61 3e 2f 49 54 be f8 0a 9c bd
       -0.08223351 0.22007903 -0.20731042 -0.076192796
000110 37 e0 e3 3d e5 86 43 3e 3f ff 37 be 11 82 28 be
       0.1112675 0.19094427 -0.17968462 -0.16455866
000120 66 15 23 3e 1b a5 36 3e 24 eb 2e 3e 20 10 1b 3e
       0.15926132 0.1783642 0.17081887 0.1514287
000130 85 6e 52 be d7 69 b8 3d 08 f1 b9 ba 6c 7a 3b 3d
       -0.20549972 0.09004562 -0.0014186213 0.045771047
000140 74 b5 bd bd 51 fc 7a 3e e8 bd 24 bc 27 37 2b be
       -0.09263125 0.24510314 -0.010055043 -0.16720258
000150 63 e0 09 3e e7 b7 2d 39 60 58 1a be e2 1a d6 bd
       0.13464503 0.00016567075 -0.15072775 -0.10454346
000160 98 d3 1b be ac 22 5b 3d b1 a7 6d 3d 2d fa 82 bd
       -0.15217435 0.053499863 0.05802125 -0.063953735
000170 44 f1 dc 3c 65 60 06 be a7 1e 7a be 9f 20 16 bb
       0.026970513 -0.13122709 -0.24425755 -0.0022907627
000180 11 88 7c 3e 3d d6 34 be 83 63 72 3d 1a f9 ed bd
       0.2466128 -0.1765985 0.059176933 -0.11619778
000190 b5 63 f4 bc f0 79 8b 3d 3c ef e7 bd 8b 0e 51 be
       -0.0298327 0.06810367 -0.11324927 -0.20415704
0001a0 fb e8 d3 3b 39 81 05 bc 96 28 44 3e 3e 28 e2 3d
       0.0064669824 -0.008148485 0.19156107 0.11042832
0001b0 74 18 1e 3e 61 9d 15 be a3 5e 64 be c6 0e 0f be
       0.15439016 -0.14610817 -0.22301726 -0.1397048
0001c0 63 09 3f be fb 98 be 3b fd c9 73 bd 11 e3 04 bc
       -0.18655924 0.0058165765 -0.059518803 -0.0081107775
0001d0 03 d9 62 bd 5b d9 d5 bc ed d9 90 3d 79 14 85 3e
       -0.05538274 -0.02610462 0.07072816 0.25992182
0001e0 59 a6 14 bd 1d e6 61 3e 15 c2 75 3e 45 b3 0a 3e
       -0.036291454 0.22060438 0.23999818 0.13544948
0001f0 21 2a 4d bd a4 de a8 3d a4 a1 17 be fa c7 a9 bb
       -0.050089005 0.0824559 -0.14807755 -0.0051813098
000200 d0 e2 06 be 12 71 53 be 9f 7b 68 be bb 80 d8 bd
       -0.1317246 -0.20648602 -0.22703408 -0.105714284
000210 ec 32 40 3d d0 19 ab bc 38 3d e6 bb c7 6b b6 3d
       0.046923563 -0.020886332 -0.007026341 0.08907276
000220 47 62 63 3d 7e a4 1b 3e b0 96 9b bd c1 fe 28 3d
       0.055513646 0.15199468 -0.07597101 0.041258577
000230 29 a3 97 bc 1a 74 d0 bd f5 a3 3c be 08 69 af bd
       -0.018510418 -0.101783946 -0.1842192 -0.08564955
000240 52 ff 81 be a5 07 47 3c ba 04 5d be 8c 53 d5 bd
       -0.25390106 0.012147819 -0.21583834 -0.10416326
000250 60 38 ea bd 66 45 4a 3e 02 96 61 be 22 3a 9c bd
       -0.11436534 0.19753036 -0.2202988 -0.076282755
000260 03 86 95 3d cb b0 5d 3d d5 ee 40 3e b5 53 34 3d
       0.07300951 0.05412368 0.18841107 0.04402514
000270 e1 f9 04 3e 85 20 2b be 6f 1e 0d 3e b0 0a 42 bc
       0.12985946 -0.16711624 0.1378114 -0.011843368
000280 7f be 2c bd 2c aa 01 be 5b 97 9f 3d c9 a5 ea 3d
       -0.04217386 -0.12662572 0.07792541 0.11457402
000290 db a8 4a be 97 44 55 be d1 64 ad 3d 25 3d 72 be
       -0.19790976 -0.20826946 0.08466495 -0.23656137
0002a0 42 36 80 be 77 49 29 3e 0c 26 83 3d d4 22 6f 3b
       -0.25041395 0.16531931 0.06403741 0.0036489265
0002b0 70 fb 8c bc c6 f6 b3 3d e8 63 47 be d4 51 44 3e
       -0.017209738 0.08787303 -0.19471705 0.1917184
0002c0 58 a1 50 bd 75 71 0d 3c fd 2f 81 be e7 89 2a ba
       -0.05093512 0.008633007 -0.25231925 -0.00065055344
0002d0 00 d5 2c be 83 20 ff 3d eb e3 81 be 87 92 55 3e
       -0.16878128 0.12457373 -0.253692 0.20856677
0002e0 93 68 9a bd 13 ee d0 bd 01 8a 96 bc da 67 62 be
       -0.07539477 -0.10201659 -0.018376352 -0.22109929
0002f0 fa 95 82 3d e1 4a 3f 3e 74 d0 fa bd 9e 2a ca bd
       0.06376262 0.18680908 -0.122467905 -0.0987141
000300 60 63 42 be 8c 1f a2 3d b3 fe 4e 3e 6f 29 63 3e
       -0.18983221 0.07916173 0.20214348 0.22183774
000310 ea b1 c9 3d 2d b5 05 3e 06 c0 28 be cf b5 a6 bd
       0.098483875 0.13057394 -0.16479501 -0.08140146
000320 82 94 86 3e ce c4 b8 3c e3 5b f7 3d c1 ff 29 be
       0.26285177 0.022554781 0.12078073 -0.16601469
000330 75 4f 3f be b1 21 5e 3e d4 59 ba bd d3 a7 eb bd
       -0.18682654 0.2169254 -0.090991646 -0.11506619
000340 29 d4 cd bc 57 4b 06 bd 02 4b c3 3d a5 64 10 3e
       -0.02512558 -0.032786693 0.09535791 0.14100893
000350 8b 98 53 3e 54 a3 b5 bd 64 95 a1 bd f6 c8 57 be
       0.2066366 -0.08869043 -0.07889822 -0.21072754
000360 a6 37 11 be c6 58 78 bd bf c2 12 be 29 44 1d bc
       -0.14181384 -0.060631536 -0.14332102 -0.00959877
000370 bf 21 8e bd 8a df 03 3e cc 68 6f be 60 2c a9 bc
       -0.0694003 0.12878242 -0.2337982 -0.020651042
000380 09 bb e1 bd fe b4 5e 3a 74 b1 1a be e6 fe 85 be
       -0.11022002 0.0008495598 -0.15106755 -0.26171035
000390 0d 76 af bc 97 8b d1 3b e1 6f 4d 3e e4 d5 3e be
       -0.021418596 0.0063948142 0.2006221 -0.1863628
0003a0 66 1f 5c bd 4a 22 3e 3e 03 b8 65 3e b5 d9 b0 3c
       -0.05374088 0.18567768 0.22433476 0.021588186
0003b0 36 ef 0d be ea d1 05 3e 52 67 4a be eb d3 67 be
       -0.13860783 0.13068357 -0.19765976 -0.22639434
0003c0 5b 7e ff 3c 77 18 0b be 58 89 b8 3d fa 80 c8 bd
       0.03118818 -0.13583551 0.09010571 -0.09790225
0003d0 63 44 2e be 96 20 a5 bd 47 d0 1b be 45 69 29 be
       -0.17018275 -0.08062856 -0.1521617 -0.16544063
0003e0 fe 92 11 3e 6a b6 66 bc b3 03 c4 bd 53 1b 6f be
       0.1421623 -0.014081577 -0.09571018 -0.23350267
0003f0 ec da 4f 3e fd 9b 0b be c9 a8 5c 3e a6 41 4d be
       0.20298356 -0.13633724 0.21548761 -0.20044574

scale_up.conv2.dilation_conv1d.weight f4 [1, 16, 16]
000000 9f 25 63 bc 81 f6 98 3d f9 54 29 3d 07 fd cb bc
       -0.01386395 0.07468892 0.041340802 -0.024900926
000010 62 fb d4 bc e3 df 87 bc 05 67 21 3d cd da 45 3d
       -0.025998775 -0.01658625 0.039404888 0.048304368
000020 08 d4 f9 bb 84 e9 14 bd 83 b4 d1 bc 76 56 62 3d
       -0.007624153 -0.03635551 -0.02559877 0.055258237
000030 a5 6c de 3c af 9c 2c 3d 20 ed 48 3d 69 11 c0 bc
       0.027151415 0.042141613 0.049054265 -0.023445802
000040 0f 26 7b bd 55 ce 70 bd 71 c8 3f 3d 70 d0 51 bc
       -0.061315592 -0.058790524 0.046822015 -0.012806043
000050 29 66 3a bc 31 82 9b bd b1 ec a2 bb 28 3f 96 bd
       -0.011376896 -0.075931914 -0.0049720635 -0.07336265
000060 b0 1c 66 bd e6 3a 40 bc ec 70 92 bd bb c1 44 3c
       -0.056179702 -0.0117327925 -0.071504444 0.01200908
000070 f7 97 e9 3c 4b 5d 2d bd 54 72 ed 3c c0 7b 04 3d
       0.028514845 -0.0423253 0.02898518 0.03234458
000080 84 d9 83 bd 23 75 34 bb 46 8b a8 bc 16 85 64 bc
       -0.06437972 -0.002753564 -0.020574223 -0.013947746
000090 87 74 fb 3c 4b c1 0f bd 5a f0 32 bd 41 b1 cf 3a
       0.030695213 -0.035096448 -0.04368625 0.0015845672
0000a0 e4 b4 db 3b c9 22 24 bd 0a 76 0b bd 7c 0a 80 bd
       0.0067049135 -0.040072236 -0.034048118 -0.06252
0000b0 99 96 f7 3c 5b 19 13 bd 8d 68 c5 3c 77 e1 71 bd
       0.030223178 -0.035912853 0.024097705 -0.05905291
0000c0 b3 fd 69 bd 12 53 93 bc 72 0b 3d 3d 3b 85 c5 bc
       -0.057126712 -0.017983947 0.046153493 -0.02411138
0000d0 90 77 ba bc 86 79 f4 bc 9c 14 09 bc 6c 2a 12 bd
       -0.02276209 -0.029843103 -0.00836673 -0.035684988
0000e0 ab 01 ff 3c ee 3f 24 bc 6f bb 6c 3c 0b 50 80 bc
       0.031128725 -0.010025008 0.0144489845 -0.015663167
0000f0 3a 87 ef 3c 1e 12 6d bd 88 d8 4a bd 49 24 31 bd
       0.029239286 -0.057878606 -0.049522907 -0.043247495
000100 82 41 2e bc 8a 1b a4 3c 55 fd 37 3d 20 58 f4 bc
       -0.0106357355 0.020032663 0.04491933 -0.029827178
000110 b8 41 e1 bc 3f d2 5f 3d 07 03 3a 3d cd eb ec 3c
       -0.027497157 0.054643866 0.045413043 0.028921032
000120 60 1a 31 3d 33 c1 c6 3c 57 43 93 bb 8b ce db 3b
       0.043238044 0.024262046 -0.0044941115 0.0067079714
000130 8c 1e 45 3a 5c 50 11 bc 76 2b a7 bc 78 67 08 3c
       0.00075195055 -0.008869257 -0.020406466 0.00832545
000140 f0 dd 60 bd a4 a2 4f bd b9 1b 5c bd 52 60 31 3d
       -0.054899156 -0.050692216 -0.053737376 0.04330475
000150 2c 22 40 3d f7 ed 9e 3c fa 60 e3 bc 88 b1 69 3a
       0.04690759 0.01940058 -0.027756203 0.0008914699
000160 d7 2b 29 3c 1f f0 bc bb 80 63 87 3c 43 6c f7 3b
       0.010325394 -0.0057659294 0.016526937 0.0075507476
000170 a9 19 8f 3b 4e e6 31 3d 07 aa 8b bd 41 10 2d bc
       0.0043670726 0.043432526 -0.068195395 -0.010562957
000180 00 b2 14 3d 8f af 19 3d 0f 15 ff bc 6d 15 e7 3c
       0.036302567 0.03752094 -0.031137971 0.028208459
000190 45 45 50 bd 57 14 90 bc 33 21 2e 3d 84 ae cb bc
       -0.05084731 -0.017587824 0.04251213 -0.024863489
0001a0 c4 c6 92 3c f4 4b 43 3d 58 68 2a bd 6c 1e 3e 3c
       0.017917044 0.047679856 -0.041603416 0.011603933
0001b0 a2 b7 22 bd d3 4d 04 bd 9b dc fe 3c 90 52 86 3b
       -0.039725907 -0.03230078 0.031111052 0.0040991977
0001c0 23 52 1e bd 0d 2e 98 3d 03 15 76 3d 57 66 52 3d
       -0.03865255 0.074306585 0.060078632 0.05136713
0001d0 49 0e c4 3c 8e 1b 3a 3d b5 87 36 bb 6a 50 a3 bb
       0.023932593 0.045436434 -0.0027851884 -0.0049839513
0001e0 2f b2 4b 3d 29 eb d7 3c 9a a4 9c 3d 7d f0 93 3c
       0.049730476 0.02635725 0.07648583 0.01805901
0001f0 8e 79 62 3c 06 b9 5a 3d 94 3f 52 bc 00 90 1a bd
       0.013822926 0.05339911 -0.012832541 -0.037734985
000200 a0 66 4b bc 1d e5 40 3d 5a 9d 7e bd e2 6f 99 bb
       -0.012414604 0.0470935 -0.06216178 -0.004682527
000210 de 12 64 bd 57 1a 8c bd d0 40 7b bc 27 7a 18 bd
       -0.055682056 -0.068409614 -0.015335277 -0.03722587
000220 f5 36 f7 bc 14 02 ac 3b 5d 5f f7 bc 04 bc 13 bc
       -0.030177573 0.005249271 -0.03019684 -0.009016994
000230 39 7b 90 bc ce 5f 00 3d 21 8a b1 3b 94 b0 1f bd
       -0.017636882 0.031341366 0.0054180776 -0.038986757
000240 01 24 6b bd f8 84 fa 3c 7c 0d 7d bc b3 20 6f 3c
       -0.057407383 0.030580983 -0.015445109 0.014595198
000250 65 ff 13 bd e8 8a 0a 3d d9 60 02 3d 6a 5a 11 bc
       -0.036132235 0.033823878 0.031830642 -0.008871654
000260 aa ea 9b 3b 96 98 f7 3a fb 75 3a 3c a0 16 9b bc
       0.0047581987 0.0018890079 0.011380668 -0.018931687
000270 d9 53 87 bd f4 8b 5e bd f4 0f 09 bb 39 4c 94 bd
       -0.066077895 -0.05433269 -0.002091405 -0.07241101
000280 f2 c8 96 bd ca 83 44 bd fa eb 91 3c 47 8c 96 bc
       -0.07362546 -0.047977246 0.017812718 -0.018377436
000290 4b c2 6d bd 4c b0 65 bd 23 92 20 bd 63 f4 78 bd
       -0.05804662 -0.056076333 -0.039201867 -0.06077994
0002a0 05 ca 32 3d d8 d4 62 bd 68 be 43 bd 30 d7 70 bd
       0.043649692 -0.055378765 -0.047789007 -0.05879897
0002b0 86 bd 17 bd 07 ec 0c 3d 5b 36 01 3c 0e e5 30 bc
       -0.037045978 0.03440478 0.0078864945 -0.010796798
0002c0 23 f4 9a bd f7 99 31 3c ca e6 34 3d 30 18 83 bc
       -0.07566097 0.010839931 0.04416541 -0.016002744
0002d0 41 07 e2 3c 01 c4 10 bd e8 90 96 bd 99 d2 89 bc
       0.02759135 -0.035343174 -0.073518574 -0.016824054
0002e0 7f 8e 1a 3c 5b b2 2e bd ba 36 49 bc f1 3c ad bb
       0.009433388 -0.04265056 -0.012281114 -0.005286806
0002f0 c8 78 33 3d 54 37 47 bd 1c a2 90 bd a9 86 3a bd
       0.043816358 -0.04863675 -0.0706217 -0.04553858
000300 07 ce 66 3d 95 76 8c bc 51 9b fe 3b bc df 04 bd
       0.056348827 -0.017146388 0.00776998 -0.032439932
000310 91 8e 95 bc 84 c4 21 bd 3a db 04 3d d6 a2 5c 3d
       -0.018256458 -0.039494053 0.032435633 0.05386623
000320 96 0c a9 3b 8f 9a 0f 3c 61 cb f0 3c c2 e9 a0 3b
       0.005158971 0.008764877 0.029393854 0.0049106786
000330 1c 01 9a 3c a8 d4 1d 3d 10 0c 76 3d f4 80 36 3d
       0.018799357 0.038532883 0.060070097 0.044556573
000340 8a 93 a5 ba e6 e1 19 3d 0f eb 93 bd ba 88 6a bd
       -0.0012632471 0.03756895 -0.07222568 -0.0572593
000350 28 57 0b 3d fb 4f 29 3d 65 d9 3d bd a2 26 01 3d
       0.034018666 0.04133604 -0.0463499 0.031530984
000360 dd 95 c8 bc 3b 82 0e bd ad 2a 9d bc 47 1a 0a bd
       -0.024485523 -0.034792166 -0.019185388 -0.033716466
000370 b6 bc 53 b8 22 1a 5a bc 32 8b 96 bc 41 4b 38 bd
       -5.048207e-05 -0.013311895 -0.01837692 -0.044993643
000380 61 2c be 3c d0 d8 58 bd 15 ed 81 bc 52 13 da 3c
       0.02321452 -0.052941144 -0.01586012 0.02662054
000390 cb 32 44 bd 46 45 67 bd 76 8a a7 3a 22 f4 89 bd
       -0.047900002 -0.05646255 0.0012782353 -0.06736018
0003a0 b1 ab 28 bd 92 95 1e 3d 2c b4 a2 3c 25 91 23 3d
       -0.041179363 0.03871686 0.019861303 0.039933342
0003b0 7f 12 9b bd 06 b0 99 bd 77 c8 82 ba 05 cd bb 3b
       -0.07571887 -0.07504277 -0.0009977956 0.0057312273
0003c0 e4 68 4b bd 6c cd 10 3c 24 1b 3c bb d9 db 26 bd
       -0.04966058 0.008838039 -0.00287027 -0.040737007
0003d0 88 b3 35 3d 68 e3 0a 3d b6 3f 19 3d 57 ca 0e bd
       0.044360667 0.033908278 0.037414275 -0.034860935
0003e0 1e 76 6b bc ef 7e 36 bd d0 a0 13 3d 56 35 2b 3d
       -0.014371423 -0.044554647 0.036042035 0.041798912
0003f0 f6 d6 3d bd 45 2c 40 3b b2 6a 19 3d 4c ef f7 bb
       -0.04634758 0.0029323262 0.03745527 -0.007566368
