result/X_net_new/model_ph2.pth (torch, 6111 bytes, 4 tensors)

scale_down.conv1.dilation_conv1d.weight f4 [16, 1, 16]
000000 71 01 39 be 6b cb 98 3b f2 d2 e7 bd 39 c6 95 bd
       -0.18066956 0.004662921 -0.113195315 -0.073131986
000010 e4 3b 43 be 73 64 01 3e 37 71 66 be b1 56 36 bd
       -0.19065815 0.12635975 -0.22504126 -0.04451627
000020 f4 bc 8f 3d 94 fd 66 bd 2c 9b 06 3e b9 c3 01 bd
       0.07018462 -0.056394175 0.13145131 -0.031680796
000030 88 0e 90 3d d7 77 28 3e 35 0b 3c bd b1 3a 97 3e
       0.070340216 0.16451965 -0.045909125 0.29536965
000040 e1 6f d8 bd 17 15 7f 3d d1 7f 03 be 9a c0 03 3e
       -0.10568214 0.062275972 -0.12841727 0.1286644
000050 2e b6 3c 3d de e3 e4 bd dd 35 04 be 52 c9 87 3d
       0.046072178 -0.11176275 -0.12911172 0.06630196
000060 9f c6 70 3e 52 b3 eb 3d 27 65 ef bc 78 5f 29 bc
       0.23513268 0.11508812 -0.029223038 -0.010337703
000070 3e 60 10 3e de 1a 2e be 8d 55 de 3d 70 9e b0 bc
       0.14099213 -0.17002437 0.10856161 -0.021559924
000080 9a 9a 39 3e 4e 01 f3 bd 3b e0 2c bd 7d 8f 53 3d
       0.18125382 -0.11865483 -0.04220603 0.051650513
000090 dc 42 36 3e 81 ec 3f bc 94 94 6d 3e 4b 1b 54 be
       0.17798942 -0.011714102 0.2320121 -0.20713536
0000a0 de 8b e3 bc a4 b9 74 be f5 59 4b 3d 2b 2a 0e 3e
       -0.027776655 -0.23898941 0.049646337 0.13883273
0000b0 5c 46 a6 3b 0e 2a 3d 3e 79 2e 45 bc f6 a9 cc be
       0.0050743055 0.18473074 -0.012035006 -0.3997342
0000c0 c7 7f 3b 3e 9a 7e 1d 3e 0f 9d e7 3d e1 35 3c 3e
       0.18310462 0.15380326 0.113092534 0.18379928
0000d0 90 c7 b0 3d 7f c5 03 3e 2d 0c 4d 3e f9 46 50 bd
       0.086318135 0.12868308 0.20024176 -0.050848935
0000e0 99 84 3a be a8 4f 03 be b8 08 4b bd 28 30 00 bd
       -0.18214644 -0.12823355 -0.04956886 -0.031295925
0000f0 e0 18 41 bb 94 bc 1a 3e d4 f2 b0 3d 3e 95 06 be
       -0.002946429 0.15111 0.08640066 -0.13142869
000100 4e 6c 55 bd b3 bd 7d bd 65 9e 12 3e 30 48 92 bd
       -0.05210524 -0.06194849 0.14318235 -0.07142675
000110 85 88 d5 bd d1 a9 64 bd e8 a3 5d bd 16 94 0d bd
       -0.1042643 -0.055826012 -0.05411139 -0.034565054
000120 8c 9d 5c be 78 d7 5d 3e c1 a3 0c 3e 23 4f 95 bd
       -0.21544474 0.21664226 0.13734342 -0.07290485
000130 b7 96 b2 bd ec 0a c9 3c 79 fc 91 3d 4a 24 fa be
       -0.08720153 0.02454134 0.071282335 -0.4885581
000140 04 26 5f bd b9 c8 ff 3d a4 94 25 be a9 b3 a7 bc
       -0.054479614 0.12489457 -0.16169983 -0.02047141
000150 15 1b 30 be a3 d8 71 3e e5 70 05 3e 4a af 6d be
       -0.17197831 0.23617797 0.13031347 -0.23211399
000160 49 ba 00 be db 04 c0 3d 86 e0 5e 3b 6b 2f a6 3d
       -0.12571062 0.09375926 0.0034008338 0.08114513
000170 82 6f 24 be e7 b7 dd bd 23 d7 c2 3d 6d e0 98 be
       -0.16058162 -0.10826092 0.0951369 -0.29858723
000180 8e a7 5f bd 82 c1 ca 3d 52 45 f1 3d bc 05 1c 3b
       -0.054603152 0.0990019 0.117808 0.002380713
000190 10 60 81 3d 3e 28 d2 3d 5c ef 20 bd 7a 34 90 bd
       0.063171506 0.10261582 -0.03929077 -0.07041259
0001a0 0d 4d 42 3e 50 5f 6e 3e df c9 e6 3d f2 bd b2 bd
       0.18974705 0.23278546 0.112689726 -0.087276354
0001b0 a6 36 35 be ac 13 7a be a6 a7 9f bd 5e 69 b5 be
       -0.17696628 -0.24421567 -0.07795648 -0.3543195
0001c0 51 8e 52 bd 48 bd ad bc 72 3a 74 3e ac 73 6b 3e
       -0.051405255 -0.02120842 0.2385042 0.22993344
0001d0 04 5c 0d bd 4a 39 91 bd 28 52 07 3e c8 cb 14 bc
       -0.03451158 -0.07091005 0.13214934 -0.009081788
0001e0 6a d4 67 be 87 b8 87 3d b8 39 69 3e c7 0e 34 be
       -0.22639623 0.06626993 0.22775924 -0.17583762
0001f0 6b 1a 1f bc 18 cb 8e 3d fe 30 83 be 23 88 d4 be
       -0.009710888 0.06972331 -0.25623316 -0.41510114
000200 14 78 3a 3e e0 8f c1 bd 02 31 14 3e d8 35 2b 3c
       0.18209869 -0.0945127 0.1447182 0.010449849
000210 29 05 12 3d c8 75 47 be e3 e9 91 bd 32 5a 26 3e
       0.035649452 -0.19478524 -0.071246885 0.16245344
000220 14 42 f7 3d e1 f9 b3 bd fb 58 15 3a 60 e9 4a 3e
       0.1207315 -0.08787895 0.0005697158 0.19815588
000230 e2 e9 2b be c9 0c 54 3e 81 cb a7 bd b7 6a 36 be
       -0.16788438 0.20708002 -0.08193112 -0.17814146
000240 95 3e f0 3d 98 b7 50 be 2f ef 0c bd 6d 4c 6f 3e
       0.117306866 -0.20382535 -0.03440779 0.23368998
000250 b6 d3 bd 3d 70 e4 9f bd 45 90 74 bd be 1e 3e 3e
       0.09268896 -0.07807243 -0.0597079 0.18566415
000260 23 1c ad 3d 26 10 2c 3e e9 aa 27 be 82 bf 22 3d
       0.08452632 0.16803035 -0.16373791 0.039733417
000270 2a e1 8f bb 6c 01 ce 3c 97 c9 83 3e 0a 15 83 3e
       -0.0043908553 0.025147162 0.25739738 0.2560199
000280 57 3d 1e 3e aa b7 e4 3d 33 75 ef 3d cb 32 11 bd
       0.15453087 0.11167844 0.11692276 -0.03544883
000290 4f c3 5d be 6c bf 55 be b6 1d 1f be ed 92 2c be
       -0.21656536 -0.20873803 -0.15538678 -0.16852923
0002a0 34 4f d8 3d f9 95 94 3d 74 bf 90 bd 95 41 60 be
       0.10561982 0.072551675 -0.07067767 -0.21900018
0002b0 c1 86 40 3e 1e 04 25 3e 95 02 26 3e d2 b4 da 3e
       0.18801405 0.16114852 0.16211922 0.4271608
0002c0 ec ff 03 be bf bf 0f be 41 18 15 be fb b6 4b bc
       -0.12890595 -0.14037989 -0.14560033 -0.012433763
0002d0 d3 f7 69 be c0 f5 41 3e b0 45 84 3b d7 f9 f1 3d
       -0.22848444 0.18941402 0.0040366277 0.11815231
0002e0 f9 6e 0d be 4c e5 20 bd f0 b9 9b 3c 0c 1f 5c bd
       -0.13811864 -0.039281175 0.01900956 -0.053740546
0002f0 56 58 88 3e 49 d4 de bd d8 66 35 3d f4 4b 9f be
       0.26629895 -0.10880334 0.044287533 -0.31112635
000300 97 dc 9c bd 67 c0 d6 bd d6 9d db 3d 53 02 33 3e
       -0.07659262 -0.104859166 0.10723464 0.17481355
000310 52 32 9c 3d 6f 3d bd bc 41 a2 97 bd 5c 5b 27 3e
       0.07626785 -0.023100583 -0.07403994 0.16343445
000320 61 6f c0 bd 76 61 2e 3e ec 92 fc bd 99 0c 30 3e
       -0.09396244 0.17029366 -0.123327106 0.17192306
000330 f4 5d 36 3e 2f ec 1d 3e df 0b 77 3e 31 12 d3 3e
       0.17809278 0.15422128 0.24125622 0.41224816
000340 b5 6f d0 bd db e2 42 bc 2a 08 a8 3d e7 20 7d bd
       -0.101775564 -0.011894907 0.08204682 -0.061798956
000350 78 55 7a 3d c1 ab 42 3e e9 3e 5a be ea d2 4f be
       0.061116666 0.19010831 -0.21313061 -0.20295301
000360 19 de fb bd ee f3 6f 3d 0b 97 20 bb e7 1f 88 3d
       -0.12298221 0.05858224 -0.002450409 0.0664671
000370 d6 a3 9b bd 7d 09 54 be 6e 14 0a bd 90 15 76 3d
       -0.075996086 -0.20706744 -0.03371089 0.060079157
000380 f9 60 1e be df ed 69 3e 8a 9a 78 3d f7 17 75 3e
       -0.1546668 0.22844647 0.060694255 0.23934923
000390 8a eb 6f be 54 9c 75 be f5 2a b4 3d 2f 00 65 be
       -0.23429695 -0.23985416 0.08797256 -0.22363351
0003a0 c6 ee 4e be 67 74 f1 3d da 9a e3 3d 56 64 67 be
       -0.20208272 0.1178978 0.1111352 -0.22596869
0003b0 ce ce 5e 3e 2e 2a e7 bb f5 e4 30 3e 70 5e 87 be
       0.21758577 -0.0070545888 0.1727484 -0.26439238
0003c0 86 fa 64 be 60 81 23 be 82 e4 c4 bc f6 79 72 be
       -0.22361192 -0.15967321 -0.024034742 -0.23679337
0003d0 d7 e0 e2 bb 91 a3 df bd 3a f1 49 bd c0 15 49 3c
       -0.0069237757 -0.1091987 -0.049302317 0.012273252
0003e0 b2 42 a9 3c e9 23 76 be 10 e5 04 3e 83 49 2b be
       0.020661686 -0.24037136 0.12978005 -0.16727261
0003f0 c5 2d 11 3e 39 f9 71 3e 73 de 5d bd 35 43 9d 3d
       0.14177616 0.23630227 -0.054167222 0.07678834

scale_down.conv2.dilation_conv1d.weight f4 [1, 16, 16]
000000 94 54 c3 3c 4f 01 b8 bc e8 43 2c bd d9 64 f2 3c
       0.02384404 -0.022461561 -0.042056948 0.029589104
000010 9c 32 08 3d 3e 45 e9 bc bf ef 0c bd 37 a6 0d 39
       0.03325139 -0.0284754 -0.034408327 0.00013508728
000020 ea b6 c3 3c 80 d6 96 bc 2c 15 3c 3b 12 91 b3 bc
       0.023890931 -0.018412828 0.0028699143 -0.02191976
000030 9c df 19 bd f3 e6 bb bc 98 c0 fd bc fa a9 bf 3d
       -0.037566766 -0.022937274 -0.030975625 0.09358592
000040 ce 09 7e 3c 8c 1f af 3d b0 17 44 3d bb d3 c4 bc
       0.015505267 0.08550939 0.047874153 -0.024026742
000050 44 1a 0a bd 67 fa 0f 3d 42 ab 78 3b 05 f5 2f 3d
       -0.033716455 0.03515091 0.0037943874 0.04295828
000060 0c dc 52 bc b8 24 87 3d ca ef 27 3c 90 0b 51 bc
       -0.012869846 0.065988004 0.010250041 -0.012759104
000070 16 b8 ff bc 03 ac 02 3d fd 86 c1 bb 0a 3c c3 3a
       -0.031215709 0.031902324 -0.0059059844 0.0014895212
000080 c1 b9 15 3d 97 53 a7 3b 67 36 4a bd 31 be 0c bd
       0.0365541 0.0051064 -0.04936829 -0.03436107
000090 b6 2b 10 3c 06 77 53 3d 29 99 b1 ba 26 8b 6f bc
       0.008799484 0.05162718 -0.0013549674 -0.014620578
0000a0 57 81 d0 bc f4 24 0b bd e8 cf d6 3c 8c 62 8a 3d
       -0.025452299 -0.033970788 0.026222184 0.067570776
0000b0 5a c9 5c 3d dc af bc 3c a9 8c a2 bc 7e bc 82 be
       0.05390296 0.023033075 -0.019842463 -0.25534433
0000c0 20 4b bd bb ae 44 e3 3c f9 23 de 3c f1 c6 fa bb
       -0.005776778 0.02774271 0.027116762 -0.00765311
0000d0 42 3a 05 3d 05 f7 f3 3a 51 88 ce bc b3 59 74 bb
       0.032526262 0.0018613046 -0.025211485 -0.003728491
0000e0 8f 17 58 3d 59 b7 33 3c c6 e5 62 bd 9a 66 23 3d
       0.052756842 0.010969006 -0.05539491 0.03989277
0000f0 18 1d 66 3c 06 13 94 3c fc 72 8c bc 33 72 2d 3b
       0.014045022 0.018075477 -0.017144673 0.0026465773
000100 c1 4c 65 3c 6e 4c 1c 3d 13 01 c8 3c 75 02 ed bc
       0.01399535 0.038158827 0.024414575 -0.028931836
000110 c4 74 0f 3c 68 d0 61 bc e1 b8 44 3d 1f 8a 4b bc
       0.008755866 -0.013782598 0.048027877 -0.012423067
000120 24 35 a8 bc 28 7d 18 3d 7b 95 9f 3c 68 7b 21 3d
       -0.020533152 0.037228733 0.019480458 0.03942433
000130 b7 9d 04 3d 35 b7 0e bc 3d 46 10 bd a7 8f 55 be
       0.03237697 -0.008710672 -0.035223234 -0.2085558
000140 65 dd 55 3d c1 96 f0 3c ca 3a 65 bd 46 02 74 3c
       0.05221309 0.02936876 -0.05596427 0.01489312
000150 98 7b 73 3d 9a 8e 98 bb 09 c5 59 3c db 39 42 3d
       0.05944404 -0.0046556713 0.013291606 0.047418457
000160 3b 9e be 3c 32 f3 a3 bc 32 87 2e bd 0c 25 30 bc
       0.02326881 -0.020013425 -0.0426094 -0.01075102
000170 af 29 f1 bc b1 89 10 bc 85 88 8d bd 4c c7 dc bd
       -0.029438822 -0.008821891 -0.06910805 -0.107802
000180 3b 23 0d 3d 3f 5c b6 bc 4a 76 19 bd 31 cd 74 3c
       0.034457427 -0.022260783 -0.037466325 0.0149415
000190 7b fe ec bc e0 f0 98 bb 7b 86 01 bc d5 42 9e 3b
       -0.02892994 -0.0046673864 -0.007905598 0.0048297443
0001a0 b4 d3 32 bc 02 6e ed bc da 32 78 bc 60 c1 28 3d
       -0.010914732 -0.02898312 -0.015148843 0.04120004
0001b0 b6 70 a1 bc 24 f9 03 3c 03 c0 0f bd 1d 23 3a be
       -0.019707065 0.008055005 -0.035095226 -0.18177457
0001c0 01 82 46 3c dd 6f 39 3c 4e eb 78 3d a3 1a 36 3d
       0.012115956 0.011318174 0.06077128 0.044458997
0001d0 f8 33 08 3d cd 16 92 bd a2 57 23 bd 16 1e 01 3d
       0.033252686 -0.07133255 -0.039878495 0.031522833
0001e0 45 f2 4a 3c ea 86 9d bb bc e7 6d bd e0 3b 78 3d
       0.012386863 -0.004807343 -0.058082327 0.060603976
0001f0 14 47 dc bc b0 14 4b 3c e2 6c a8 bd d0 25 5f be
       -0.026889361 0.012395069 -0.08223893 -0.21791768
000200 58 7a 54 3d 56 ca 99 3d b2 db 02 3d b6 f9 1f ba
       0.05187449 0.07509296 0.0319478 -0.00061025785
000210 e2 43 11 bd 0a 63 94 bc 89 99 ba 3c 83 c1 5b 3d
       -0.03546513 -0.018113632 0.02277829 0.053651344
000220 be 93 31 3d 06 5f 65 bd 6c 31 4c bc 5c 88 2d 3d
       0.04335379 -0.055998825 -0.012462955 0.04236637
000230 1b 21 d7 3c 9c 27 b8 3b 6c 7a be bd e9 fd f4 bd
       0.026260903 0.005619956 -0.09300694 -0.11962492
000240 f8 8b c1 3c 4f 85 e7 bc cc 55 88 3c bc 9c 0b 3c
       0.023626313 -0.028261809 0.016642474 0.008521255
000250 48 4f ce 3c 8b 82 68 3d 89 cc e2 bc 3e 76 a0 3c
       0.025184289 0.05676512 -0.02768542 0.019587632
000260 bc 84 30 bb b2 68 44 bc cd a2 1e 3c 0d 9e 53 3d
       -0.0026934585 -0.011987852 0.009682369 0.0516644
000270 7b 90 8a bc 87 0e ae bc 5c f8 09 3d 27 32 dd 3d
       -0.016914597 -0.021247162 0.03368412 0.108005814
000280 48 08 e6 bc 55 e4 d6 bb 48 40 0b 3d 0e 5f 1b 3b
       -0.02808012 -0.006557981 0.03399685 0.002370778
000290 74 f3 c0 3a cd e8 01 3d 1d e0 32 3d be 9a 39 3c
       0.0014720992 0.031716157 0.043670762 0.011328397
0002a0 6f 42 20 bb 92 d6 ec 3c e6 47 aa bc 4a 88 28 3d
       -0.002445366 0.028910909 -0.020786237 0.0411456
0002b0 6d 40 14 bd fd b8 e5 bc 80 99 d6 3d 93 fa 38 3e
       -0.036194254 -0.02804231 0.104784966 0.18064336
0002c0 d2 3e 0d bd 89 ff 22 3d ca c4 c8 bc 95 67 42 bc
       -0.03448374 0.03979448 -0.024507899 -0.011865516
0002d0 c3 0b 62 3d 60 00 c7 bc 3e b9 cb 3c ba 4d 0d 3d
       0.055186998 -0.024292171 0.024868604 0.034497954
0002e0 de b5 45 3c 8d be 76 bd 85 a2 00 bd 0c a6 e6 bc
       0.012067286 -0.060240317 -0.03140499 -0.02815535
0002f0 ba a2 d1 bc f2 ef 9e bc 23 35 3d bd 0b 4d 64 be
       -0.02559029 -0.019401524 -0.046193253 -0.22295015
000300 43 79 76 bd 9f 1e 61 3c 98 31 83 bc 73 04 78 3c
       -0.060174238 0.013740211 -0.01601486 0.0151377795
000310 e7 44 8c 3c d1 98 95 3d 13 df 1b 3c c4 fe 37 bd
       0.017122699 0.07304538 0.009513634 -0.044920698
000320 4d d8 27 bd b3 e9 59 bd af 81 c7 bb 64 d1 6a ba
       -0.040977765 -0.05320139 -0.0060884575 -0.0008957593
000330 da 50 52 3b dd 67 88 3b 6c 29 f4 3c 05 0e d7 3d
       0.0032091648 0.004162772 0.029804908 0.10500721
000340 05 7d a0 bb 35 ca 1e bd 71 d0 a7 3b 04 83 66 3b
       -0.004897716 -0.03876706 0.0051212837 0.0035173306
000350 bc 98 91 bc e1 23 47 3d fc b0 8c bd db 96 4a 3c
       -0.017773025 0.0486182 -0.068696946 0.012365068
000360 39 14 19 bd 69 6d b6 3c 64 b5 28 3d 2f fd 0b 3d
       -0.0373728 0.022268968 0.041188613 0.034177
000370 fa e1 75 3c 26 30 be bb 97 4e 14 3d 10 4d aa 3c
       0.01500749 -0.0058040796 0.03620776 0.0207887
000380 b1 76 c3 bc 3f cd 3c bd a4 0c 26 3d f3 c9 4d 3d
       -0.023860307 -0.046094175 0.0405394 0.050241422
000390 46 1d 0e bd 07 b3 4e bd ff 2a dc bb af d1 92 3b
       -0.034695886 -0.050463703 -0.0067189927 0.0044805626
0003a0 2f 10 2a bd 70 cf ab 3c 75 01 66 bd 34 bb 19 3d
       -0.04151934 0.020972937 -0.056153733 0.037532046
0003b0 5b 5f 9a 3d b9 e9 b8 bd 59 0d fd bd 04 3a f5 bd
       0.07537719 -0.09028954 -0.123560615 -0.11973956
0003c0 a4 e5 ae 3c 06 12 84 3c ea 3b 62 3d cd 55 36 3d
       0.021349736 0.016121875 0.05523292 0.04451542
0003d0 c8 9e a4 bc cd 0f 3d 3d da 97 cc bc 8d 28 bd 3c
       -0.020095244 0.046157647 -0.024974752 0.023090625
0003e0 42 2b 22 bd 9e 1e e3 3b dc 56 cb 3c 39 38 e2 3c
       -0.039592035 0.00693114 0.024821691 0.0276147
0003f0 9a e2 03 3d 92 6e bb bc 62 4d b7 3b f0 4d 67 3c
       0.032198526 -0.022879872 0.0055939415 0.014117703

scale_up.conv1.dilation_conv1d.weight f4 [16, 1, 16]
000000 3c e4 49 3e 59 dc 05 3e 4f ae 44 be 94 cb b3 3d
       0.19715971 0.13072337 -0.19207118 0.08779064
000010 44 b0 f5 3d 05 dc 86 3d 04 68 fa bd 14 11 7d 3e
       0.119965106 0.06584934 -0.12226871 0.24713546
000020 1c 9b 30 be 0c d2 4a be f8 82 e0 3d 4e f7 0e 3e
       -0.1724667 -0.19806689 0.1096248 0.13961527
000030 25 e2 2e 3d 80 f5 7d 3d 80 dd 87 3e ea 17 f7 3e
       0.042696137 0.062001705 0.2653618 0.48260432
000040 79 37 ef bd 73 e1 b3 3d 3c b1 9c bd c5 bb ed bd
       -0.116805024 0.087832354 -0.07650992 -0.1160808
000050 3b 1f 05 be 82 69 36 be f7 6e 58 3e 9b 74 b8 bd
       -0.13000195 -0.17813686 0.2113608 -0.09006616
000060 17 eb 5c bd 26 8f 01 3c 54 c2 24 be 6a 06 24 3e
       -0.053935137 0.007907664 -0.16089755 0.16018072
000070 97 1c a8 bd 23 30 1d 3e 8e c4 d9 3d f9 82 89 be
       -0.08208578 0.15350394 0.10633193 -0.26857737
000080 8c 62 66 be 78 dd 83 be ee 0c 5f 3e 5d 14 74 3e
       -0.2249853 -0.25754905 0.21782276 0.23835893
000090 09 b9 d9 3d cc 87 cb bd d5 2e 69 3d b1 27 61 be
       0.10630996 -0.099380106 0.056929428 -0.21987797
0000a0 02 73 2c 3d 57 26 16 bc 02 d9 30 3e 4b 50 81 bb
       0.042101867 -0.009164414 0.17270282 -0.0039463392
0000b0 12 48 7c bb 2f 24 b6 3b 65 21 4c 3e 88 ff ac be
       -0.0038495106 0.0055585126 0.19934614 -0.33788705
0000c0 e7 6f fb 3d de 8a 61 be ee c6 3b 3d 13 38 51 be
       0.12277203 -0.2202563 0.04584401 -0.20431547
0000d0 64 58 0b 3e f4 05 6e 3e a7 e8 fc bd 71 57 5a 3e
       0.13607937 0.23244458 -0.123490624 0.21322419
0000e0 e8 db 62 be fc c9 0c 3e 13 00 3d 3d 0e 9e 8a bd
       -0.221542 0.13748926 0.04614265 -0.06768428
0000f0 c9 48 24 bd 2e 9b 9b 3d ca 04 26 be b9 bf fd be
       -0.040108476 0.075979576 -0.16212764 -0.49560335
000100 ce 88 db bd a2 80 40 3e 43 fc 76 be 89 64 f3 bd
       -0.10719453 0.1879907 -0.24119668 -0.1188441
000110 cc e6 a3 3d 6f b5 3d 3e 5a 4d 44 be 20 59 4e be
       0.080030054 0.18526243 -0.19170132 -0.20151186
000120 b2 aa ea 3d a7 45 19 3e 9e 37 38 3e 0e 90 15 3e
       0.11458339 0.14967977 0.17989966 0.14605734
000130 8b 5f 78 be 6d 62 aa 3d 2f 9d cb 3d 47 fa 7a 3e
       -0.24255197 0.083195545 0.0994209 0.24509536
000140 fd a1 72 bd d0 ef 91 3e 33 aa 61 3c 9b 26 0a be
       -0.059236515 0.28503275 0.013773489 -0.1349129
000150 f6 ea 3e 3e 4b 0d e0 3c 0a 09 09 be cb f0 9c bd
       0.18644318 0.027350089 -0.13382354 -0.07663115
000160 67 08 ea bd 15 95 da 3d 0a 37 9e 3d 54 5c 8b bd
       -0.11427384 0.106729664 0.077253416 -0.068047196
000170 52 29 85 3d ee 90 c6 bd 13 4e b9 be 44 7f a4 be
       0.06502022 -0.09695612 -0.36192378 -0.32128346
000180 43 6f 8c 3e 5f 79 1d be 47 9a 90 3d a3 84 bf bd
       0.27428636 -0.1537833 0.07060676 -0.0935147
000190 48 7b d8 3a 90 00 cd 3d 71 1f b4 bd 5a 61 48 be
       0.0016516233 0.10009873 -0.087950595 -0.19568387
0001a0 2d 57 97 3c 2a 80 89 3c c4 7f 4b 3e b6 09 02 3e
       0.018474186 0.016784746 0.19872957 0.12699017
0001b0 f9 37 38 3e 79 ff 0f be e4 4e 96 be 0d d1 aa be
       0.17990102 -0.14062299 -0.29357064 -0.33362618
0001c0 23 00 5a be b7 b8 88 bc 2a 7a 99 bd 14 2f be bc
       -0.21289115 -0.016689641 -0.07494004 -0.023215808
0001d0 32 af 92 bd 48 73 6b bd 7c ed 37 3d 57 64 7c 3e
       -0.07162322 -0.057482988 0.044904217 0.24647652
0001e0 30 47 32 bd 5f ae 61 3e 79 98 6b 3e 22 ff f9 3d
       -0.04352492 0.22039174 0.23007382 0.12206866
0001f0 51 98 37 bd 21 98 9b 3d 46 b5 40 be cc 2e a2 bc
       -0.044822995 0.07597376 -0.1881915 -0.019797705
000200 93 95 c5 bd 63 87 3d be 96 59 5f be 61 4a a1 bd
       -0.0964767 -0.18508677 -0.21811518 -0.07875515
000210 0d d8 a3 3d 70 6c 11 bc 73 c1 42 bc f7 bb a7 3d
       0.08000193 -0.008875951 -0.011886942 0.08190148
000220 22 d3 90 3d 55 24 3f 3e e3 db 7f bd dc 0c 87 3d
       0.070715204 0.18666203 -0.06246556 0.065942496
000230 9b 0a 0b 3d 92 da 84 bd 75 e5 7a be cc 38 7d be
       0.03394566 -0.064870015 -0.24501593 -0.24728698
000240 8a 9e 74 be 0e 67 bf 3c 0f 23 5a be ae e4 d4 bd
       -0.23888603 0.02336457 -0.21302436 -0.1039518
000250 03 8f ef bd b6 04 43 3e 34 a8 68 be 1e 62 d5 bd
       -0.11697199 0.19044766 -0.22720414 -0.10419105
000260 a1 75 1b 3d b3 6f e3 3c a2 ee 20 3e 77 97 e6 3c
       0.037953977 0.027763223 0.15716031 0.028148396
000270 27 15 d4 3d 2a 9c 62 be df d1 8a 3d 26 34 af bd
       0.10355597 -0.22129884 0.06778311 -0.085548684
000280 7e 01 60 bd 95 a5 00 be ae 8b ea 3d ef a4 28 3e
       -0.054688923 -0.12563165 0.11452423 0.16469167
000290 e7 2f 28 be 44 f9 50 be 7c 99 d5 3d 97 31 4f be
       -0.16424523 -0.20407587 0.104296654 -0.20233761
0002a0 ae 52 48 be 1b 39 52 3e c6 17 92 3d da 7d 3b 3b
       -0.1956279 0.20529597 0.07133441 0.002860895
0002b0 ca ce 16 bc 90 5c 9e 3d 70 98 25 be d5 c5 b2 3e
       -0.009204576 0.07732499 -0.16171432 0.3491656
0002c0 c9 73 f2 bc ac 4b 8b 3c f5 91 75 be c1 fc d6 3c
       -0.029596226 0.017003857 -0.2398146 0.02624357
0002d0 13 a8 04 be 40 6f 10 3e 45 4e 87 be 1c a3 4d 3e
       -0.1295474 0.14104939 -0.26426902 0.20081753
0002e0 14 d7 45 bd 3b 37 3b bd 10 f9 f7 3b 74 3b 6c be
       -0.048300818 -0.04570697 0.0075675324 -0.23069555
0002f0 5e 02 ab 3d 45 15 60 3e 39 a0 5c be cb e9 c0 be
       0.08350061 0.21883114 -0.21545495 -0.3767837
000300 23 51 61 be 6f 1a f3 3c 7a 2f 19 3e ea 84 46 3e
       -0.22003607 0.02967569 0.14959517 0.1938664
000310 1f 69 db 3d ba fb 07 3e ed 04 51 be 55 fe ef bd
       0.1071341 0.1327962 -0.20412035 -0.11718432
000320 37 39 80 3e 36 a0 04 3d 01 7a 1c 3e d6 d1 20 be
       0.2504365 0.03237935 0.15280916 -0.15705046
000330 5a 35 32 be 29 4d 8c 3e 93 38 82 bb ff 3f ff bc
       -0.17403165 0.2740262 -0.0039740293 -0.031158445
000340 22 05 4b 3b 8b f9 a8 bc 58 13 cc 3d 62 4b 23 3e
       0.0030978401 -0.020626804 0.09964627 0.15946725
000350 fe 4c 76 3e 3a 7d 70 bd 2a f6 61 bd 14 58 3e be
       0.24052808 -0.058713175 -0.0551664 -0.18588287
000360 da 23 f0 bd 14 a9 9c bc 72 90 f0 bd 8c cb 76 3b
       -0.11725588 -0.019123591 -0.11746301 0.0037657944
000370 3c 54 39 bd de a7 04 3e 6a 38 b1 be a1 dd 81 be
       -0.045246348 0.12954661 -0.34613353 -0.25364402
000380 d4 31 a0 bd f1 98 14 3d 88 63 06 be a0 5d 7c be
       -0.07822004 0.03627867 -0.13123906 -0.2464509
000390 05 27 95 bb c0 f6 df 3c a7 6b 5e 3e 9c a3 3b be
       -0.0045517706 0.02733934 0.21720754 -0.18324131
0003a0 04 b5 54 bd 3d 85 4d 3e c2 10 78 3e 5f 8c 49 3d
       -0.051930442 0.20070358 0.24225143 0.049206134
0003b0 c6 95 e1 bd 50 2f 12 3e 03 a5 6e be cf 9a be be
       -0.11014895 0.14275861 -0.23305134 -0.37227485
0003c0 9c de 0e 3d d4 80 05 be 91 67 a9 3d df 2e dc bd
       0.034880266 -0.13037425 0.08271707 -0.107511275
0003d0 64 dd 3e be a6 d9 bc bd 63 18 12 be f5 99 2e be
       -0.18639141 -0.09221201 -0.14267115 -0.17050917
0003e0 35 46 fc 3d 3d 31 e4 bc f5 ee cc bd 57 a1 6b be
       0.123180784 -0.02785551 -0.10006515 -0.23010765
0003f0 f0 17 55 3e 07 9c 20 be a0 2a 59 3e 48 a8 19 be
       0.20809913 -0.1568452 0.21207666 -0.150056

scale_up.conv2.dilation_conv1d.weight f4 [1, 16, 16]
000000 63 65 9e bc c7 50 84 3d 0b 8e c7 3c 0d 80 4c bd
       -0.019335454 0.064607196 0.024359724 -0.049926806
000010 17 02 4b bd 61 29 f4 bc 17 80 15 3d d2 22 43 3d
       -0.04956254 -0.029804887 0.03649911 0.04764063
000020 36 29 f3 bc fa 43 7a bd 8a 1f a2 bc c5 cf 87 3d
       -0.029682737 -0.061099984 -0.01979043 0.06631426
000030 d9 cc b0 3c 99 17 8b 3d 72 10 35 3e 60 20 74 3e
       0.021582054 0.0679161 0.17682055 0.23840475
000040 34 fb 19 bd ca e2 4f bd fd 00 29 3d d4 a7 87 3c
       -0.03759308 -0.050753392 0.041260708 0.016559519
000050 bc 7a 98 3c 19 55 66 bd 1b c9 d8 3b 29 75 a0 bd
       0.018613212 -0.0562335 0.0066157705 -0.078348465
000060 8e 9c 0d bd ab ad b1 3c 9e 06 85 bd a5 93 e4 3c
       -0.03457313 0.021689257 -0.06495403 0.027902434
000070 9e 92 3d 3d 85 0b 83 bd d1 55 fe bc 37 38 66 bd
       0.046282403 -0.063986816 -0.03104678 -0.056205954
000080 8b 07 f0 bd 3e 31 ff 3c c9 9b 59 3d 05 c9 71 3d
       -0.11720189 0.03115141 0.053127084 0.059029598
000090 5b 66 47 3d 64 27 e4 bd 41 a9 a4 bd 4d 92 f5 3c
       0.0486816 -0.11140326 -0.08040095 0.029976988
0000a0 8e e8 ef 3d 46 b1 1a 3d 93 27 e5 bd 39 b1 88 bd
       0.11714278 0.037766717 -0.11189189 -0.066744275
0000b0 d1 49 0e 3e ca a3 5a bd 91 29 2c be 13 7b 87 be
       0.13895346 -0.053378858 -0.16812731 -0.26461086
0000c0 5c 3a d2 bc f3 38 33 3c 82 29 76 3d b5 79 c2 bb
       -0.025662594 0.010938871 0.06009818 -0.0059349188
0000d0 8f ff 7f 3b 80 d4 55 bc 1d 82 05 bc 09 82 6b bc
       0.0039062237 -0.013051152 -0.008148697 -0.0143742645
0000e0 db eb 1a 3d d7 2e bb b8 e3 fd 17 ba f3 4b 1e bd
       0.037822586 -8.9255795e-05 -0.0005798025 -0.03864665
0000f0 52 17 19 3d cb 7f e5 bd 27 9d 83 be ff 80 b9 be
       0.037375756 -0.11206015 -0.25705835 -0.3623123
000100 66 eb 02 bd 71 5e e6 3c 74 f2 77 3d fb 86 24 bd
       -0.031962775 0.028121205 0.060533956 -0.04016779
000110 de e8 a9 bd fa 2f 84 3b 60 f5 82 3d 88 5f 6e 3d
       -0.08296369 0.0040340396 0.06394458 0.058196574
000120 93 67 67 3c 9f ca fa bc 47 55 af bc 14 d7 21 3d
       0.014123815 -0.030614195 -0.021402968 0.039511755
000130 73 df 39 3d 2b c7 b4 bb 53 66 90 3c 1b 02 38 3e
       0.045379113 -0.0055169067 0.017626917 0.17969553
000140 bd 67 ba bc cd 4f d7 bc 12 69 04 bd 28 53 6e 3d
       -0.022754544 -0.02628317 -0.032326765 0.058184773
000150 c0 e9 88 3d be b1 39 3d b9 bf 48 bc 63 f1 0d 3c
       0.06685209 0.045335524 -0.0122527415 0.008663508
000160 ba dc 7c 3c 2c 8a 3d 3c a3 20 34 3d 2d a4 86 3c
       0.015433485 0.011568587 0.043976437 0.016435707
000170 f5 a0 8b 3c 17 53 76 3d fe 03 03 be 7d 6c 2e be
       0.017044524 0.060137834 -0.12794492 -0.17033572
000180 13 ed ac 3d 66 90 ad 3d 29 ff 7e bc c7 de e1 3c
       0.08443656 0.084748074 -0.015563765 0.027572049
000190 88 81 ff bc 96 04 09 3c 84 23 72 3d 73 6c f3 bc
       -0.031189695 0.00836291 0.0591159 -0.029714799
0001a0 46 88 8e 3b 52 ee 82 3d a7 89 02 bd a5 c5 5b 3c
       0.004349741 0.06393112 -0.031869557 0.013413821
0001b0 df 87 d4 bc 3a d3 79 bd 5f b7 f6 bd 9e 03 ac be
       -0.025943695 -0.060992457 -0.12046694 -0.3359651
0001c0 14 39 68 bd 6a b8 96 3d 36 44 58 3d db 45 09 3d
       -0.05669506 0.07359393 0.052799426 0.033513885
0001d0 04 99 78 3c dc be 17 3d 5a d3 fb bc 95 c0 f8 bc
       0.0151732005 0.037047252 -0.030740429 -0.030365268
0001e0 5f cb a1 3c e0 a3 bb 3b 4f bf ab 3d d9 28 2f 3c
       0.019750295 0.0057263225 0.083860986 0.010690891
0001f0 09 3a ba 3c b0 33 c3 3d d4 aa 88 3c 2e 72 d8 bc
       0.022732751 0.09531343 0.01668302 -0.026421633
000200 1e 82 eb 3b 4c f8 89 3d 5f 41 3a bd a1 37 86 3c
       0.007187142 0.06736812 -0.0454725 0.016383948
000210 b9 c9 0f bd eb f6 45 bd 83 2f bc bb ff b7 dd bc
       -0.035104487 -0.048331182 -0.0057429685 -0.027065275
000220 37 a0 50 bc b3 c8 b8 3c 27 0d d6 bc 12 00 16 bc
       -0.012733511 0.022556638 -0.026129318 -0.00915529
000230 88 09 64 3b 7e 92 78 3d 9b f7 0b bd fc 16 47 be
       0.003479572 0.06068658 -0.03417168 -0.19442362
000240 5b af 00 bd 4f e6 61 3d 4d 04 9d 3c c6 96 06 3d
       -0.031417232 0.05515128 0.01916709 0.032858633
000250 91 b0 f3 bc 2d eb 47 3d a6 8d 84 3d b9 a2 94 3c
       -0.02974728 0.048808265 0.0647233 0.018143998
000260 f0 e3 9a 3c 2b 26 ae 3c 89 69 03 3d 2a 5c c2 3c
       0.018907517 0.021258434 0.032083068 0.023725588
000270 26 68 dc bc c3 47 ae bc 69 4a 4b 3c 36 47 6d bd
       -0.02690513 -0.021274453 0.0124078775 -0.05792924
000280 c9 aa af bd 8f 81 df bb b1 8b 75 3d 52 04 d4 bc
       -0.085774966 -0.0068208645 0.059947673 -0.025880966
000290 8a 34 6a bd 16 df 98 bc 2d cb 10 bd 26 55 21 bd
       -0.05717901 -0.018661063 -0.035350014 -0.039387845
0002a0 f8 e0 bb 3d 12 3d 34 bd 28 7f fe 3a c5 3e ec bc
       0.09173769 -0.044003554 0.0019416558 -0.028838525
0002b0 8a ba 46 bd 2b 26 48 3d 57 45 f7 3d e8 27 0b 3e
       -0.04851774 0.048864525 0.120737724 0.13589442
0002c0 20 eb 6a bd b0 28 98 3c c5 43 57 3d 42 5d 42 3b
       -0.05735314 0.018574089 0.052554864 0.0029657637
0002d0 c8 45 83 3d dd dd c1 bc 92 57 a3 bd 17 3a 2f bb
       0.06409794 -0.023665363 -0.07975687 -0.0026737505
0002e0 b8 d0 f1 3c a6 07 1b bc 4f 0c 85 bb e5 fa fb bb
       0.02951847 -0.009462273 -0.004060305 -0.007689821
0002f0 27 6d a1 3d b1 90 4a bc 8a 86 10 be a5 df 4f be
       0.07882147 -0.012363599 -0.14113823 -0.20300157
000300 9b fd 1d 3b 5e 78 25 bd 0c dc 83 3c 5d cd 8f bc
       0.002410746 -0.040397994 0.016096137 -0.01755398
000310 cd 92 a4 bc 4b 69 bd bd 96 19 9c bb 23 af 69 3d
       -0.020089531 -0.09248599 -0.0047637923 0.05705179
000320 d5 69 89 3c 7e 70 17 3c 14 de b0 bc 00 31 7c bd
       0.016774097 0.009243129 -0.02159027 -0.061570168
000330 50 c3 a4 3c da 58 bc 3c 82 46 9e bc b6 72 cf 3a
       0.020112664 0.022991586 -0.01932073 0.0015827033
000340 7f dd b4 3c de 36 89 3d a0 ac 52 bd 61 0c 04 bd
       0.022078274 0.06699918 -0.05143416 -0.032238368
000350 a6 25 7c 3d e0 b2 71 3d d9 2d 1b bd 59 f3 42 3d
       0.06155934 0.05900848 -0.03788552 0.047595356
000360 7b c2 a0 3b 3b aa c0 bb c9 b1 25 bc 87 bf 40 bd
       0.0049059964 -0.005879668 -0.010113188 -0.047057655
000370 bc d7 21 3c 13 0c 12 bc 67 b9 a9 bd a0 9e 54 be
       0.009878095 -0.0089140115 -0.08287316 -0.20763636
000380 5e 9a 44 3d de 0b 6e bc ac 8a cd ba dd 39 13 3d
       0.04799878 -0.014529197 -0.0015681586 0.035943855
000390 43 65 f8 bc f5 f1 23 bd b5 89 a5 3c 36 a1 66 bd
       -0.030321723 -0.04002567 0.020207265 -0.056306086
0003a0 e1 3b 1a bd f7 53 26 3d 9b 53 b1 3c fc 1b 61 3d
       -0.03765476 0.04060742 0.021646312 0.05495833
0003b0 db aa 02 bd 7b db ce bd 90 da 2c be fc 2e 72 be
       -0.03190122 -0.10100456 -0.1688025 -0.23650736
0003c0 e6 1a 25 bd 79 04 45 3c 50 79 96 3c d0 57 78 bc
       -0.040308855 0.012024992 0.018368393 -0.015157655
0003d0 75 8f 7a 3d 58 0e 25 3d 18 39 35 3d 0c d1 bb bc
       0.061171968 0.040296882 0.044243902 -0.02292683
0003e0 99 17 4e 3c d6 93 bd bc 49 6c fc 3c 91 7a 54 3d
       0.012578868 -0.023141783 0.030813353 0.0518747
0003f0 04 5e eb bc 20 53 53 3c bc e0 b8 3c f5 14 00 bd
       -0.028731354 0.0128982365 0.0225681 -0.031269986
