result/X_net_new/model_ph1.pth (torch, 6111 bytes, 4 tensors)

scale_down.conv1.dilation_conv1d.weight f4 [16, 1, 16]
0	0xbe6c56a6	-0.23079929
1	0xbd31fbf3	-0.043453168
2	0xbdf0f510	-0.11765492
3	0xbd8ac7a8	-0.06776363
4	0xbe63f907	-0.22262965
5	0x3dc6050e	0.09668933
6	0xbe6c2621	-0.2306142
7	0xbcc0a0ac	-0.023514114
8	0x3da1bf16	0.07897775
9	0xbdc0d917	-0.094164066
10	0x3e02267a	0.1270999
11	0x3c9d898b	0.019230625
12	0x3e0f3c42	0.1398783
13	0x3e39da55	0.18149693
14	0xbd9a033d	-0.07520149
15	0x3e0a03fa	0.1347808
16	0xbdd4ccc7	-0.10390621
17	0x3da8f1f6	0.082492754
18	0xbe00df35	-0.12585147
19	0x3df3b135	0.11899034
20	0x3d51f9d8	0.05126366
21	0xbdc7af61	-0.09750248
22	0xbdf64188	-0.12024218
23	0x3d8ab671	0.06773079
24	0x3e708d5c	0.23491424
25	0x3df8f32d	0.12155757
26	0xbca7e0ed	-0.020492995
27	0xbbd3f340	-0.0064682066
28	0x3e19785e	0.14987323
29	0xbe22326e	-0.1583955
30	0x3de9200a	0.11383064
31	0xbd050d10	-0.03248316
32	0x3e0cbf37	0.13744818
33	0xbdbe1050	-0.09280455
34	0x3c56a471	0.013100729
35	0x3da62a23	0.08113506
36	0x3e2b33fe	0.16719052
37	0xbd026a82	-0.031839855
38	0x3e7900f8	0.24316776
39	0xbe4634e0	-0.19356108
40	0xbce577a9	-0.02801116
41	0xbe68c0ba	-0.2272977
42	0x3d6b210c	0.057404563
43	0x3decf627	0.11570387
44	0xbd89b6f0	-0.06724346
45	0x3de6d11e	0.11270355
46	0xbd55d9a5	-0.052209515
47	0xbe79d492	-0.24397495
48	0x3e48a514	0.19594222
49	0x3e2197fe	0.15780637
50	0x3e040682	0.12893108
51	0x3e5008b8	0.20315826
52	0x3dc75eec	0.09734902
53	0x3e0c229d	0.13685079
54	0x3e571a04	0.21006018
55	0xbd3a9fbd	-0.045562495
56	0xbe40db70	-0.18833709
57	0xbdf3b307	-0.11899381
58	0xbd041ce0	-0.0322541
59	0xbccae75d	-0.024768526
60	0x3b76e964	0.0037675733
61	0x3e1e40ac	0.15454358
62	0x3dd25b0a	0.102712706
63	0xbe128f09	-0.14312376
64	0xbd8be220	-0.06830239
65	0xbd647a5c	-0.055780753
66	0x3e1e48a5	0.15457399
67	0xbdb08c96	-0.08620565
68	0xbdd604fd	-0.1045017
69	0xbd2a1893	-0.041527342
70	0xbd68a762	-0.056800254
71	0xbd561686	-0.052267574
72	0xbe7300b5	-0.23730738
73	0x3e69283e	0.22769257
74	0x3e0dfbc4	0.13865572
75	0xbdea6a58	-0.11446065
76	0xbe27eb63	-0.16398387
77	0xbcc7286f	-0.024311272
78	0x3d914b32	0.070944205
79	0xbe94d48c	-0.2906841
80	0xbdaff334	-0.08591309
81	0x3de5110b	0.11184891
82	0xbe1ef944	-0.15524775
83	0xbcb066fc	-0.021533482
84	0xbe3a9b6d	-0.18223353
85	0x3e7086d8	0.23488939
86	0x3e0a9bf6	0.13536057
87	0xbe686d74	-0.22698003
88	0xbe05f1f5	-0.1308058
89	0x3dc0a836	0.09407084
90	0x3c7356a2	0.014852198
91	0x3d86feb4	0.065915495
92	0xbe544de5	-0.2073284
93	0xbe159e97	-0.14611278
94	0x3da886ae	0.08228813
95	0xbe8155d1	-0.25260785
96	0xbd6830bf	-0.056687113
97	0x3dd4afef	0.10385119
98	0x3dfd01fa	0.123538926
99	0x3c249d99	0.01004734
100	0x3d8a170c	0.06742677
101	0x3dd8cffb	0.10586544
102	0xbd09cade	-0.033640735
103	0xbd8fb91a	-0.07017727
104	0x3e44dcf0	0.19224906
105	0x3e7c5d9b	0.24645083
106	0x3df067cf	0.1173855
107	0xbde3438e	-0.110968694
108	0xbe69563e	-0.22786805
109	0xbe8f021c	-0.27931297
110	0xbd9ab2b4	-0.07553616
111	0xbe7afe37	-0.24511038
112	0xbd59bd08	-0.05315879
113	0xbce8ff55	-0.028442064
114	0x3e769787	0.2408124
115	0x3e775ae6	0.24155769
116	0xbc94d1a8	-0.018166378
117	0xbd90be7b	-0.07067581
118	0x3e000df5	0.12505324
119	0xbc4d2f77	-0.0125235235
120	0xbe67df87	-0.22643863
121	0x3db73152	0.08944954
122	0x3e765261	0.24054863
123	0xbe4ddad5	-0.20103009
124	0xbd809687	-0.06278711
125	0x3cf7fbbf	0.03027141
126	0xbe8421ce	-0.2580704
127	0xbea0ab9f	-0.31380937
128	0x3e43cab3	0.19120292
129	0xbdb0d03a	-0.08633466
130	0x3e12ff3c	0.14355177
131	0x3c91fe9b	0.0178216
132	0x3d707aaa	0.05871073
133	0xbe2bd491	-0.16780306
134	0xbd69f919	-0.057122324
135	0x3e2661fd	0.16248317
136	0x3df421a6	0.119204804
137	0xbd820746	-0.063490435
138	0x3d198dea	0.037488855
139	0x3e488fc8	0.19586098
140	0xbe5c1209	-0.21491255
141	0x3e259478	0.16169918
142	0xbdae6553	-0.0851542
143	0xbda6ab2e	-0.08138119
144	0x3dfafb48	0.12254959
145	0xbe502241	-0.20325567
146	0xbd0acb09	-0.033885036
147	0x3e77ca51	0.24198271
148	0x3dc156e2	0.094404
149	0xbdb2f251	-0.087376244
150	0xbd5a2431	-0.05325717
151	0x3e47c7be	0.1950979
152	0x3db9b6a8	0.09068042
153	0x3e26e3ed	0.16297884
154	0xbe2e5a84	-0.17026716
155	0x3d7fe627	0.06247535
156	0x3d243bd1	0.040096108
157	0x3d4c4527	0.049870636
158	0x3e836fde	0.25671285
159	0x3e47d31f	0.1951413
160	0x3e2e8ae7	0.17045175
161	0x3de39062	0.11111523
162	0x3ddcd60b	0.10783013
163	0xbd2c1337	-0.042010512
164	0xbe618627	-0.22023831
165	0xbe57a90a	-0.21060577
166	0xbe205ef3	-0.1566122
167	0xbe2c2255	-0.16809972
168	0x3dd87d17	0.10570734
169	0x3d80fc9c	0.062981814
170	0xbdaca709	-0.08430297
171	0xbe4f1f0c	-0.20226687
172	0x3e742c46	0.23845014
173	0x3e4a49c1	0.19754697
174	0x3e2850bd	0.16437049
175	0x3eb3c305	0.35109726
176	0xbe0ac8a8	-0.13553107
177	0xbe15172b	-0.14559619
178	0xbe190214	-0.14942199
179	0xbc79d16c	-0.015247684
180	0xbe66a049	-0.22522081
181	0x3e4466cd	0.1917984
182	0x396b9763	0.00022467742
183	0x3df4940f	0.119423024
184	0xbe0e3a1b	-0.13889353
185	0xbcd7f252	-0.026360665
186	0x3d003e0f	0.031309184
187	0xbd9182dc	-0.071050376
188	0x3e69a51d	0.22816892
189	0xbe0a4a28	-0.13504851
190	0x3d0ef93b	0.034905653
191	0xbe7cd084	-0.24688917
192	0xbd2570da	-0.040390827
193	0xbd995cf2	-0.07488431
194	0x3dd0d770	0.101973414
195	0x3e2d722e	0.16938087
196	0x3d6e2a65	0.0581459
197	0xbcc99615	-0.024607698
198	0xbd8d4fef	-0.06900012
199	0x3e3fc2bd	0.1872663
200	0xbd8fc40d	-0.070198156
201	0x3e2fd491	0.17170931
202	0xbde74a16	-0.11293428
203	0x3e599393	0.21247701
204	0x3e88314e	0.26600116
205	0x3e5d3793	0.21603231
206	0x3e7e9efa	0.24865332
207	0x3e84a211	0.25904897
208	0xbdf678e7	-0.12034779
209	0x3b4ebc09	0.0031545183
210	0x3dae12a3	0.084996484
211	0xbd87e5de	-0.066356406
212	0x3d42750b	0.047474902
213	0x3e1f4d05	0.15556724
214	0xbe632b05	-0.2218438
215	0xbe60784a	-0.21920887
216	0xbe124624	-0.14284569
217	0x3d0d6efa	0.034529664
218	0xbd49a77f	-0.049232002
219	0x3d0e0bd7	0.03467926
220	0xbdbf1c12	-0.09331526
221	0xbe5a49bd	-0.21317191
222	0xbd114a49	-0.035471234
223	0x3da91790	0.08256447
224	0xbe193d53	-0.149648
225	0x3e5dfcc8	0.2167846
226	0x3d6025f0	0.05472368
227	0x3e77145d	0.24128862
228	0xbe6c315a	-0.23065701
229	0xbe772102	-0.24133685
230	0x3da534ee	0.08066736
231	0xbe71abcc	-0.23600692
232	0xbe523cb4	-0.20530969
233	0x3e02e99f	0.12784432
234	0x3df91759	0.12162656
235	0xbe6a948c	-0.22908229
236	0x3e375f76	0.17907509
237	0xbd5d5fb9	-0.054046366
238	0x3e22a080	0.15881538
239	0xbe565af5	-0.20933135
240	0xbe6cb21f	-0.23114823
241	0xbe23460f	-0.15944694
242	0xbd089826	-0.033348225
243	0xbe7bdc0d	-0.24595661
244	0xbc5fcf1a	-0.013660217
245	0xbdf632b9	-0.12021393
246	0xbd5e5c43	-0.054287206
247	0x3ae669b4	0.0017579109
248	0x3c5b21e6	0.013374781
249	0xbe7c157b	-0.24617569
250	0x3e01f438	0.12690818
251	0xbe201100	-0.15631485
252	0x3e1a053a	0.15041056
253	0x3e6eef1e	0.23333403
254	0xbd8700db	-0.0659196
255	0x3d85bdb8	0.065303266

scale_down.conv2.dilation_conv1d.weight f4 [1, 16, 16]
0	0x3d008bc3	0.031383287
1	0xbc03259a	-0.00800457
2	0xbd5c1a15	-0.05373581
3	0x3ceb2c2f	0.028707592
4	0x3d081e6b	0.033232134
5	0xbcf9ce8b	-0.030493995
6	0xbd231482	-0.03981448
7	0xbc12d85d	-0.008962718
8	0x3c50b58d	0.012738598
9	0xbd05829d	-0.032595266
10	0xbb5924ad	-0.0033133433
11	0xbce93182	-0.02846599
12	0xbccb1231	-0.024788948
13	0xbbd4d4ad	-0.0064950795
14	0xbc8589a8	-0.016300991
15	0x3d84b998	0.06480712
16	0x3c8fd71a	0.017558623
17	0x3d6646a7	0.056219723
18	0x3d5fcad4	0.05463679
19	0x3c203ed7	0.009780607
20	0xbcc4da97	-0.024030013
21	0x3d1aea2b	0.037820976
22	0xbb860d16	-0.0040909154
23	0x3d461f6d	0.048369814
24	0xbb9f0c5e	-0.004853769
25	0x3d77d639	0.060507033
26	0x3bb403ac	0.005493602
27	0xbc87b732	-0.016566847
28	0xbd1b361c	-0.0378934
29	0x3d455bd9	0.048183296
30	0x3bc9f162	0.0061628083
31	0x3c9da4d5	0.019243637
32	0x3cc1fbf9	0.02367972
33	0xbbec1d3c	-0.0072056334
34	0xbd0b298b	-0.033975165
35	0xbca5605c	-0.02018755
36	0xbba33172	-0.0049802596
37	0x3d1163aa	0.035495438
38	0xbc100c7c	-0.008792039
39	0xbcc3ab27	-0.023885323
40	0xbc8dfdbf	-0.01733291
41	0x3b4ba46b	0.0031073343
42	0x3d2ab419	0.04167566
43	0x3d15ab62	0.036540397
44	0xbcaad5b7	-0.02085386
45	0xbcc26e95	-0.02373437
46	0x3b6c5315	0.0036060263
47	0xbd3898f0	-0.045067728
48	0xbb87f01c	-0.0041484963
49	0x3d1c9600	0.03822899
50	0x3cfc6901	0.030811789
51	0xbc683f38	-0.014175229
52	0x3cd764e6	0.02629323
53	0x3bb2fb34	0.0054620747
54	0xbcb21ecf	-0.021743206
55	0xbb899267	-0.0041983607
56	0x3d6d7bd9	0.05797944
57	0x3c96f00c	0.01842501
58	0xbd508b2e	-0.050913982
59	0x3d23c00b	0.03997807
60	0x3c3d6aa9	0.011561074
61	0x3cdacbd7	0.026708527
62	0xbb494d33	-0.003071618
63	0x3cdd0dcf	0.026984124
64	0x3c4bc902	0.012438061
65	0x3d45e6b6	0.048315726
66	0x3cf3fe76	0.029784422
67	0xbcfccda7	-0.030859781
68	0x3cc2c5b7	0.023775918
69	0xbc2a0300	-0.010376692
70	0x3d2db107	0.042405155
71	0xbc9ccc21	-0.019140305
72	0xbc98fe5c	-0.018675976
73	0x3d6c5fd0	0.05770856
74	0x3c8d183b	0.017223468
75	0x3c746c4b	0.014918397
76	0x3b247536	0.0025094277
77	0xbc87ad5a	-0.016562153
78	0xbd27532d	-0.040850807
79	0xbe06ad44	-0.13152033
80	0x3d595344	0.053057924
81	0x3d5d31d4	0.054002598
82	0xbd3ce4b2	-0.04611654
83	0x3c2ba40d	0.0104761245
84	0x3d351583	0.04420997
85	0x3bcae5f2	0.0061919624
86	0x3cdc2986	0.026875269
87	0x3d411e6f	0.047148164
88	0x3cbd5289	0.023110645
89	0xbc5eb15a	-0.013592089
90	0xbd42783f	-0.047477957
91	0xbcc690ac	-0.024238907
92	0xbd343814	-0.043998793
93	0xbcccaaa3	-0.02498371
94	0xbdc47b11	-0.095937856
95	0xbd6c0a38	-0.057626933
96	0x3c90e2c0	0.017686248
97	0xbcbcfe07	-0.023070348
98	0xbd096bfd	-0.03355025
99	0x3c9e587d	0.019329304
100	0xbcb78e62	-0.02240676
101	0x3b526152	0.0032101464
102	0x3b62332a	0.003451536
103	0x3c0135ee	0.007886393
104	0xbc362978	-0.011118285
105	0xbc8f2c19	-0.017477082
106	0xbc967c7a	-0.018369902
107	0x3cb10583	0.021609074
108	0xbd42e244	-0.047579065
109	0xbc9a0067	-0.01879902
110	0xbd90ce94	-0.07070652
111	0xbe1742eb	-0.14771621
112	0x3ca7e908	0.02049686
113	0x3c910632	0.01770315
114	0x3d5a2486	0.053257488
115	0x3d1e5e95	0.03866442
116	0x3d602167	0.054719355
117	0xbd64b463	-0.055836093
118	0xbd66f774	-0.056388333
119	0x3c811286	0.015755903
120	0x3cbd46b1	0.023104997
121	0x3ca8f546	0.020624768
122	0xbd456f7a	-0.048202015
123	0x3d18cf52	0.03730709
124	0xbd963393	-0.07334056
125	0xbc8fbb00	-0.017545223
126	0xbdb67438	-0.08908886
127	0xbe079182	-0.132391
128	0x3d5a8794	0.053351954
129	0x3d6709af	0.05640572
130	0x3cd0eac4	0.02550257
131	0x3ce2a6c3	0.027667409
132	0x3b5d426d	0.0033761517
133	0xbd0bc7a0	-0.034125924
134	0x3c9b5a08	0.018963829
135	0x3d687a94	0.056757525
136	0x3d0e057c	0.0346732
137	0xbd384eda	-0.044997074
138	0xbbe40bdf	-0.006959423
139	0x3cb92538	0.022600755
140	0xbc2160d1	-0.009849743
141	0xbcc436fc	-0.023952
142	0xbd9a6786	-0.07539277
143	0xbcece3d8	-0.028917238
144	0x3ca3787e	0.019954916
145	0xbd568409	-0.052372012
146	0x3c85a1a7	0.016312433
147	0x3cbea9a1	0.023274245
148	0x3ce69c32	0.028150652
149	0x3d37d32d	0.044879127
150	0xbd0d2fe6	-0.034469508
151	0x3cb983cf	0.022645859
152	0x3c0fd986	0.008779889
153	0xbc89eadb	-0.01683562
154	0xbbbb8acf	-0.0057233344
155	0x3d771258	0.06032023
156	0x3c1fad25	0.009745871
157	0x3be5cc53	0.0070128827
158	0x3d4777b4	0.048698142
159	0x3d6a2d74	0.057172254
160	0xbd06aa6d	-0.032877374
161	0xbc1342da	-0.008988107
162	0x3d20fa9c	0.0393015
163	0x3b823753	0.0039738803
164	0xbbe125b8	-0.0068709515
165	0x3cf92f74	0.030418135
166	0x3d25f2c6	0.04051473
167	0xbaad84d8	-0.0013238443
168	0xbbb098a0	-0.005389288
169	0x3c9f7039	0.019462692
170	0xbcd08ed8	-0.025458738
171	0x3d679895	0.056541998
172	0x3aa25764	0.0012385664
173	0x3c9c93bc	0.019113414
174	0x3e117881	0.14206125
175	0x3db53565	0.08848075
176	0xbcc67523	-0.024225777
177	0x3d479ece	0.048735432
178	0xbd0dc7be	-0.034614317
179	0xbc80a3c2	-0.015703086
180	0x3d70bdab	0.05877463
181	0xbcb07a2c	-0.021542631
182	0x3ce250ee	0.02762648
183	0x3cd6eb70	0.026235312
184	0x3c595bfb	0.013266559
185	0xbd4a7c8e	-0.04943519
186	0xbd0e82cc	-0.034792706
187	0xbd44f3c4	-0.048084036
188	0xbd8bac65	-0.06819991
189	0xbd23eb58	-0.040019363
190	0xbd1e093b	-0.03858302
191	0xbe010f84	-0.12603575
192	0xbd5a6c98	-0.05332622
193	0x3bde6b10	0.006787665
194	0xbca11333	-0.019662475
195	0x3c825012	0.015907321
196	0x3c95da76	0.018292647
197	0x3d8a2766	0.06745796
198	0x3ad1e51e	0.0016013717
199	0xbd44d57b	-0.048055153
200	0xbd2270e2	-0.039658435
201	0xbd6bc65f	-0.05756223
202	0xbc60acf8	-0.013713114
203	0x3b94da7e	0.004542648
204	0x3cba615b	0.0227515
205	0x3cd03197	0.025414271
206	0x3d40c934	0.047066882
207	0x3d9a66ca	0.07539137
208	0xbbf5f958	-0.0075065307
209	0xbcf183ba	-0.029481757
210	0x3c3dcdb1	0.011584685
211	0x3b5e441e	0.0033915113
212	0xbcb18428	-0.021669462
213	0x3d32108e	0.04347282
214	0xbd7dd945	-0.061974782
215	0x3c8afaa3	0.016965216
216	0xbd1e02be	-0.038576834
217	0x3ceb6a59	0.028737234
218	0x3d48559e	0.048909776
219	0x3d4b8a4a	0.04969243
220	0x3d032376	0.03201624
221	0xbc956b0f	-0.018239526
222	0x38b1f20b	8.485102e-05
223	0xbc10f738	-0.008848004
224	0x3bd360ba	0.0064507397
225	0xbd07c5a9	-0.033147488
226	0x3cefd190	0.029274732
227	0x3d129bca	0.035793103
228	0xbcf013f6	-0.029306393
229	0xbcb3907d	-0.021919483
230	0xbd27a1a4	-0.040925637
231	0xbd015fe1	-0.031585578
232	0xbd0661fc	-0.03280829
233	0x3d273131	0.040818397
234	0xbd5ee282	-0.054415233
235	0x3c3aebd4	0.011408765
236	0x3d1b8acd	0.037974168
237	0xbd8e8e11	-0.06960691
238	0xbdb6c0c3	-0.08923485
239	0xbba01280	-0.004885018
240	0x3d0c52e0	0.034258723
241	0x3cb4bd3d	0.022062892
242	0x3d41537c	0.047198758
243	0x3d24d036	0.040237628
244	0xbc0a506a	-0.008442024
245	0x3d3e5fa5	0.046477932
246	0xbd0726a6	-0.032995842
247	0x3cc5e8ce	0.024158861
248	0xbd242e37	-0.040083136
249	0x3c3b4e1e	0.011432199
250	0x3cf7b456	0.030237358
251	0x3ca0f66f	0.019648759
252	0x3d000100	0.031250954
253	0xbc234734	-0.009965707
254	0x3cd4fe48	0.026000157
255	0x3cb5d3d5	0.022195736

scale_up.conv1.dilation_conv1d.weight f4 [16, 1, 16]
0	0x3e50a94c	0.20377082
1	0x3e0fa8ab	0.14029185
2	0xbe4043fa	-0.18775931
3	0x3db8fa4f	0.090321176
4	0x3dfce5f7	0.1234855
5	0x3d6b6c8f	0.057476576
6	0xbe0db58c	-0.13838786
7	0x3e6e966d	0.2329957
8	0xbe3a0d45	-0.18169124
9	0xbe5176e7	-0.20455514
10	0x3db3bfe5	0.08776835
11	0x3dfce61b	0.12348577
12	0x3d5e2fec	0.05424492
13	0x3d94a655	0.07258288
14	0x3e5afab5	0.213847
15	0x3eb57442	0.3544026
16	0xbdfaa7f1	-0.122390635
17	0x3d9dec26	0.07711057
18	0xbdc242de	-0.0948541
19	0xbe0827ca	-0.13296428
20	0xbe09fe0f	-0.13475822
21	0xbe442ea8	-0.19158423
22	0x3e526fcd	0.20550461
23	0xbdb5ed25	-0.08883122
24	0xbd94896c	-0.07252774
25	0xbbd100d4	-0.0063782725
26	0xbe2459e9	-0.16049923
27	0x3e2a696c	0.16641778
28	0xbd92026d	-0.07129369
29	0x3e0f4775	0.13992102
30	0x3da1886c	0.078873485
31	0xbe7aa166	-0.24475631
32	0xbe6b704b	-0.22992055
33	0xbe7a10a0	-0.24420404
34	0x3e6596f1	0.22420861
35	0x3e68f889	0.22751059
36	0x3daf9273	0.08572855
37	0xbdd35142	-0.10318233
38	0x3dac8a03	0.08424761
39	0xbe3e60b6	-0.1859158
40	0x3d36622e	0.044527225
41	0xbcf7d004	-0.030250557
42	0x3e310fca	0.1729118
43	0x3c4d913d	0.012546835
44	0xbc50ca4a	-0.012743542
45	0xbd3ad5ca	-0.04561404
46	0x3e49f83a	0.19723597
47	0xbe7b2f33	-0.24529724
48	0x3ded5c25	0.11589841
49	0xbe6327f0	-0.22183204
50	0x3d4c56c6	0.04988744
51	0xbe51996a	-0.20468679
52	0x3e02a648	0.12758744
53	0x3e6c7744	0.23092371
54	0xbde62d81	-0.11239148
55	0x3e6b60fa	0.22986212
56	0xbe63c3e3	-0.22242694
57	0x3de94af6	0.11391251
58	0x3ce10da7	0.02747233
59	0xbdb001e3	-0.0859411
60	0xbdad435e	-0.08460115
61	0x3c8d1f10	0.017226726
62	0xbe351de0	-0.17687178
63	0xbedef16f	-0.43543574
64	0xbdd0bf20	-0.10192704
65	0x3e4cd268	0.20002139
66	0xbe6a955e	-0.22908542
67	0xbdcc91e2	-0.099887624
68	0x3daef8bc	0.08543536
69	0x3e268529	0.16261734
70	0xbe577c26	-0.21043453
71	0xbe493c3b	-0.19651882
72	0x3e035500	0.12825394
73	0x3e19a30b	0.15003602
74	0x3e16c4a9	0.14723457
75	0x3e0aaca9	0.13542427
76	0xbe56dd22	-0.20982793
77	0x3dd2c1de	0.102908835
78	0x3d23888d	0.039925147
79	0x3e07f8ab	0.13278453
80	0xbd8a74e2	-0.06760575
81	0x3e8b0d3e	0.2715854
82	0x3c8acba5	0.016942808
83	0xbe10cbe9	-0.14140286
84	0x3e219680	0.15780067
85	0x3cacb478	0.021082148
86	0xbe07b055	-0.13250859
87	0xbdbc38a9	-0.091904946
88	0xbe14963f	-0.1451044
89	0x3d5c7583	0.053823005
90	0x3d41d500	0.047322273
91	0xbdbda474	-0.092598826
92	0xbcf03940	-0.029324174
93	0xbe5fbd03	-0.21849446
94	0xbebbeaf1	-0.36702684
95	0xbe19fb56	-0.15037283
96	0x3e83fb14	0.25777495
97	0xbe27b1da	-0.16376439
98	0x3d989c89	0.07451732
99	0xbdc8285c	-0.09773323
100	0xbbff8570	-0.0077978894
101	0x3dbe530e	0.09293185
102	0xbdb4e814	-0.08833328
103	0xbe3aeda6	-0.18254718
104	0x3cb4335c	0.021997146
105	0xb98a1b21	-0.00026341624
106	0x3e428778	0.1899699
107	0x3dc74eeb	0.09731849
108	0x3e01b2d0	0.12665868
109	0xbe45b00a	-0.19305435
110	0xbe98910c	-0.29798162
111	0xbe824b30	-0.2544799
112	0xbe4c1ef0	-0.19933677
113	0xbbcd8fa8	-0.0062732287
114	0xbd91a678	-0.071118295
115	0xbca33a96	-0.019925397
116	0xbd8a6620	-0.0675776
117	0xbd21da78	-0.03951499
118	0x3d66259c	0.05618821
119	0x3e79e80b	0.24404924
120	0xbd59c78d	-0.053168822
121	0x3e5035fa	0.2033309
122	0x3e645682	0.22298625
123	0x3df5276a	0.11970408
124	0xbd81f06d	-0.06344686
125	0x3d9742d9	0.07385797
126	0xbe18fac8	-0.14939415
127	0x3bb17f8b	0.0054168156
128	0xbdf762e5	-0.120794095
129	0xbe474c82	-0.19462779
130	0xbe5c81b5	-0.21533854
131	0xbdc0a2e2	-0.094060674
132	0x3d71b7af	0.059013065
133	0xbc040de3	-0.0080599515
134	0x3bda207e	0.0066567054
135	0x3dd4dc7c	0.103936166
136	0x3d92d4c3	0.07169487
137	0x3e2d44e8	0.16920817
138	0xbd731ba5	-0.059352536
139	0x3d617d36	0.05505105
140	0xbc44b3a8	-0.012005724
141	0xbddbf386	-0.10739808
142	0xbe55b307	-0.20869075
143	0xbe0d0537	-0.1377152
144	0xbe7a1251	-0.2442105
145	0x3cadcaed	0.021214927
146	0xbe566bdd	-0.20939584
147	0xbdcf95f7	-0.101360254
148	0xbdeb5371	-0.114905246
149	0x3e440271	0.19141556
150	0xbe6e0352	-0.23243454
151	0xbdc06db9	-0.09395928
152	0x3d4dfd44	0.05029036
153	0x3cd4a0f2	0.025955651
154	0x3e1da1c7	0.15393744
155	0x3b5cf3e5	0.0033714708
156	0x3da850d8	0.08218545
157	0xbe633871	-0.221895
158	0x3d979a22	0.074024454
159	0xbdaa6853	-0.083206795
160	0xbcfda26f	-0.030961243
161	0xbdec8514	-0.1154882
162	0x3db58dea	0.088649586
163	0x3dff3808	0.12461859
164	0xbe413510	-0.18867898
165	0xbe4cff58	-0.20019281
166	0x3dbd8109	0.09253127
167	0xbe6a31c0	-0.2287054
168	0xbe77bb64	-0.24192578
169	0x3e32c3ba	0.17457476
170	0x3d9863ae	0.074408874
171	0x3c7d184f	0.01544769
172	0xbb3cf98f	-0.0028835272
173	0x3dda2cc7	0.10653072
174	0xbe2d4fbb	-0.16924946
175	0x3e66ca9b	0.22538225
176	0xbd1f5bd4	-0.038905933
177	0x3caf57e2	0.02140421
178	0xbe744ca7	-0.23857366
179	0x3c61a6b4	0.013772655
180	0xbe1dbad0	-0.15403295
181	0x3e0ea174	0.13928777
182	0xbe74e2af	-0.23914598
183	0x3e632466	0.22181854
184	0xbd847c69	-0.06469042
185	0xbdc344a4	-0.095345765
186	0xbc919520	-0.017771304
187	0xbe6be148	-0.23035157
188	0x3d1d6eb0	0.038435638
189	0x3e0b04dd	0.13576074
190	0xbe5d1893	-0.21591406
191	0xbe821692	-0.25407845
192	0xbe4e8f78	-0.20171916
193	0x3d863ca7	0.06554537
194	0x3e3f9949	0.18710817
195	0x3e54c05b	0.20776503
196	0x3db2881e	0.087173685
197	0x3dfc5d3c	0.123224705
198	0xbe2b986e	-0.16757366
199	0xbda06e79	-0.07833571
200	0x3e8b942d	0.27261487
201	0x3d207183	0.039170753
202	0x3e152ac1	0.1456709
203	0xbe0681d7	-0.13135467
204	0xbe0f64a7	-0.1400324
205	0x3e8d51bf	0.2760143
206	0xbca702e0	-0.020387113
207	0xbd17f19c	-0.03709565
208	0xbbb58784	-0.0055398364
209	0xbc4ff308	-0.0126922205
210	0x3ded519f	0.115878336
211	0x3e27f6a2	0.16402677
212	0x3e6d5848	0.23178208
213	0xbd7fde02	-0.062467583
214	0xbd5b5641	-0.053549055
215	0xbe403032	-0.18768385
216	0xbdfe6cc2	-0.12423088
217	0xbd53a617	-0.051672067
218	0xbe13e69a	-0.14443436
219	0xbcd7d546	-0.026346814
220	0xbde00f7e	-0.10940455
221	0x3d69992b	0.057030838
222	0xbeb14538	-0.34623122
223	0xbe396a1e	-0.18106887
224	0xbdca656a	-0.098826244
225	0x3c5642f2	0.013077484
226	0xbe0dda25	-0.13852747
227	0xbe7ee93a	-0.24893656
228	0xbbfad5d1	-0.0076548834
229	0x3cb46be7	0.022024108
230	0x3e5f5765	0.21810682
231	0xbe2bb177	-0.16766916
232	0xbd0e26aa	-0.03470484
233	0x3e500b2f	0.20316766
234	0x3e737c64	0.2377792
235	0x3ceb0b8d	0.028692031
236	0xbe11b7e4	-0.14230305
237	0x3de0b099	0.10971183
238	0xbe7bf10e	-0.24603674
239	0xbea34bde	-0.3189382
240	0x3ce78a98	0.028264329
241	0xbe0e4461	-0.13893272
242	0x3daf72c0	0.08566809
243	0xbdd3ad21	-0.10335756
244	0xbe352ded	-0.176933
245	0xbdb6e790	-0.08930886
246	0xbe25da5d	-0.1619658
247	0xbe34a274	-0.17640096
248	0x3e068aa4	0.13138825
249	0xbcdb38cf	-0.026760487
250	0xbdde3e17	-0.108516864
251	0xbe7ad88b	-0.24496667
252	0x3e481ed7	0.19543014
253	0xbe0d6265	-0.13807066
254	0x3e623c85	0.22093399
255	0xbe3bc84a	-0.18338123

scale_up.conv2.dilation_conv1d.weight f4 [1, 16, 16]
0	0xbcf5c017	-0.029998822
1	0x3d70288f	0.05863243
2	0x3ccae790	0.02476862
3	0xbd2d49ed	-0.04230683
4	0xbd352765	-0.044227023
5	0xbd12f10f	-0.035874423
6	0x3c9e24ec	0.019304715
7	0x3ced4848	0.02896513
8	0xbccde047	-0.025131358
9	0xbd4e720b	-0.05040173
10	0xbd0b0bc0	-0.033946753
11	0x3d67ce0d	0.05659299
12	0x3d345f6f	0.044036325
13	0x3dafd592	0.08585657
14	0x3e110ac1	0.14164259
15	0x3e1093c4	0.14118868
16	0xbd485b93	-0.048915457
17	0xbd3d6203	-0.04623605
18	0x3d722ee9	0.05912677
19	0xb9b2bb35	-0.00034090286
20	0x3a878bc1	0.0010341333
21	0xbd828d6c	-0.0637463
22	0x3bdd59ad	0.006755075
23	0xbd80365c	-0.06260368
24	0xbd3cf54c	-0.04613237
25	0xbb4100b4	-0.0029449882
26	0xbd83dcf9	-0.064386316
27	0x3c83cca1	0.016088786
28	0x3ce31748	0.027721062
29	0xbd4cfbba	-0.050044753
30	0x3c250095	0.01007094
31	0xb9affa69	-0.0003356517
32	0xbd18f914	-0.037346914
33	0x3cae08bc	0.0212444
34	0xba89650b	-0.0010482384
35	0x3b1df226	0.002410063
36	0x3d37b96f	0.044854578
37	0xbcddb5a9	-0.027064161
38	0xbd20172c	-0.0390846
39	0x3bdd75fe	0.0067584505
40	0x3c35a549	0.01108677
41	0xbd20627c	-0.039156422
42	0xbd0b550f	-0.034016665
43	0xbd884953	-0.066546105
44	0x3c86edee	0.016470876
45	0xbd72c5d8	-0.05927071
46	0xbbb63158	-0.0055600815
47	0xbdbb8296	-0.09155767
48	0xbd226cbb	-0.039654475
49	0xba4e3766	-0.00078665314
50	0x3d80ffd4	0.06298795
51	0xbbdd3676	-0.006750877
52	0xbbae7f7e	-0.005325257
53	0xbc4a1c1b	-0.012335802
54	0x3bef8e28	0.0073106475
55	0xbcc466fe	-0.023974892
56	0x3d19ddc3	0.037565004
57	0xbc4bbe01	-0.012435437
58	0xb7e23058	-2.6963811e-05
59	0xbd4b6240	-0.049654245
60	0xbd092cab	-0.033489864
61	0xbe2423d9	-0.160293
62	0xbe4daeed	-0.2008626
63	0xbe75167b	-0.23934357
64	0xbcb5c378	-0.022187933
65	0x3bebc594	0.007195184
66	0x3cf526db	0.029925754
67	0xbd40c071	-0.047058526
68	0xbd3ec2c7	-0.046572473
69	0x3d077a69	0.033075724
70	0x3cb5a53e	0.02217352
71	0x3bbcf3d7	0.0057663727
72	0x3cb81367	0.02247019
73	0x3c07b663	0.0082832305
74	0xbc618f97	-0.013767145
75	0x3bee5502	0.0072733173
76	0x3c6335fd	0.013867852
77	0x3cb08996	0.021549981
78	0x3cfde944	0.030995019
79	0x3db0f64b	0.08640727
80	0xbd3276d9	-0.043570373
81	0xbd1c8710	-0.038214743
82	0xbd2319f6	-0.03981968
83	0x3d70ea4d	0.058817197
84	0x3d83ac24	0.064293176
85	0x3d1df260	0.038561225
86	0xbbeeea45	-0.0072911107
87	0x3cadc6a9	0.021212893
88	0x3ce6dc34	0.028181173
89	0x3be3bf06	0.006950262
90	0x3cb45310	0.022012264
91	0x3b4f4bc0	0.0031630844
92	0xbc61d96e	-0.013784749
93	0x3bd49999	0.006488037
94	0xbe06a8df	-0.13150357
95	0xbde209f9	-0.110370584
96	0x3d4276ba	0.047476508
97	0x3d4c9ffd	0.049957264
98	0xbc89f694	-0.01684121
99	0x3d378919	0.04480848
100	0xbd03b1fb	-0.032152157
101	0x3b28f362	0.0025779833
102	0x3d7aa11f	0.061188813
103	0xbc2ddf66	-0.010612344
104	0x3ccf55a1	0.025309386
105	0x3d3cc8cd	0.046089936
106	0xbd60c024	-0.05487074
107	0xbc97c2de	-0.018525537
108	0xbdbdc440	-0.09265947
109	0xbdf41009	-0.11917121
110	0xbdcfa007	-0.10137945
111	0xbe31a347	-0.17347442
112	0xbd3db062	-0.04631079
113	0x3d84da51	0.06486953
114	0x3d46939f	0.048480626
115	0x3d18ed93	0.037335943
116	0x3bfd69c0	0.0077335536
117	0x3ce0a34f	0.027421622
118	0xbcbd5380	-0.023111105
119	0xbce17e4d	-0.027526045
120	0x3cdf3ece	0.027251627
121	0x3b9b4784	0.00473875
122	0x3d69d99e	0.0570923
123	0x3b54db17	0.003247922
124	0x3bb3712b	0.005476137
125	0x3d5b1a6e	0.053492002
126	0xbb8db99f	-0.0043251063
127	0xbc9da4ab	-0.019243559
128	0x3b300bb3	0.0026862442
129	0x3d78a2a6	0.06070199
130	0xbd4ab0ad	-0.049484897
131	0x3c01ff7d	0.007934448
132	0xbd2f87c5	-0.04285409
133	0xbd607e97	-0.054808225
134	0xba8e84dc	-0.0010873335
135	0xbcbcda22	-0.023053233
136	0xbc917685	-0.01775671
137	0x3c6ca78d	0.014444244
138	0xbcd63226	-0.02614696
139	0xbc4f0004	-0.012634281
140	0xbd03dc81	-0.03219271
141	0x3b0b2d79	0.002123682
142	0xbd2cbc2e	-0.04217165
143	0xbddbcefa	-0.10732837
144	0xbd16f9fa	-0.03685949
145	0x3d4c8f64	0.049941435
146	0x3b08d8ba	0.0020881132
147	0x3d041a82	0.032251842
148	0xbc9a32a3	-0.018822974
149	0x3d5a3dc9	0.05328158
150	0x3d5215e3	0.051290404
151	0x3c420a97	0.011843345
152	0x3ccd612e	0.025070753
153	0x3cb56eba	0.022147525
154	0x3d09ee8d	0.033674765
155	0x3ba04c7d	0.0048919306
156	0xbd23199b	-0.03981934
157	0xbce467cf	-0.027881531
158	0x3cc8b5b8	0.024500713
159	0xbd47c80b	-0.04877476
160	0xbd8296a3	-0.06376388
161	0xbd18ca2c	-0.03730218
162	0x3ce5c88f	0.028049735
163	0xbc0bcd8b	-0.008532892
164	0xbd4b0880	-0.049568653
165	0xbd43d236	-0.047807895
166	0xbcf9d2eb	-0.030496081
167	0xbd51c483	-0.0512128
168	0x3d61eb57	0.05515608
169	0xbd282edd	-0.041060317
170	0xbcfb9628	-0.030711249
171	0xbd197e58	-0.037474006
172	0xbc24d288	-0.01005996
173	0x3d8c6e58	0.06856984
174	0x3d4f813f	0.050660368
175	0x3d22c3e9	0.039737616
176	0xbd7f4a9d	-0.062327016
177	0x3cc07024	0.023490973
178	0x3d696c02	0.05698777
179	0xbb4d454f	-0.0031321829
180	0x3d283236	0.04106351
181	0xbcab0722	-0.020877425
182	0xbd6fb4a3	-0.058521878
183	0xba4a00ba	-0.0007705797
184	0x3cd0dd61	0.025496187
185	0xbcd9d19d	-0.02658921
186	0x3aed028e	0.0018082426
187	0x3ba0b986	0.0049049286
188	0x3d3a9caf	0.04555958
189	0xbd761ade	-0.060084216
190	0xbdd5f5cd	-0.104472734
191	0xbdec77ed	-0.115463115
192	0x3d288fb3	0.041152667
193	0xbd01e224	-0.031709805
194	0xbbf7f1fa	-0.0075666877
195	0xbd47cb9a	-0.048778154
196	0xbd11f98c	-0.035638377
197	0xbd6ce32f	-0.057833847
198	0x3c61b0cf	0.013775065
199	0x3d0f3001	0.03495789
200	0xbc920e37	-0.017829044
201	0xbc91032f	-0.017701713
202	0xba829d93	-0.0009965174
203	0xbcf3a2c4	-0.029740699
204	0xbc9a7d19	-0.01885848
205	0xb8a9f811	-8.104754e-05
206	0x3cb61407	0.022226347
207	0x3c09c38c	0.008408438
208	0x3c419fd6	0.011817893
209	0x3d5668a7	0.052345898
210	0xbd633da5	-0.05547871
211	0xbd1f7f6b	-0.038939875
212	0x3d5e35d3	0.05425055
213	0x3d81bb4c	0.06334552
214	0xbcbec7f5	-0.023288706
215	0x3d5899fe	0.052881233
216	0xbbdc10fc	-0.006715892
217	0xbcbd5149	-0.023110049
218	0xbc8650af	-0.016395895
219	0xbd2c9c2a	-0.042141117
220	0xbcc25e8a	-0.02372672
221	0xbd656192	-0.056001253
222	0xbdae05f2	-0.08497228
223	0xbe109688	-0.14119923
224	0x3d1943a0	0.037418008
225	0xbd2241c2	-0.039613493
226	0xbb2ee1ea	-0.0026684948
227	0x3d23d672	0.039999433
228	0xbd0ab267	-0.033861544
229	0xbd2b89c1	-0.04187942
230	0x3c842ba1	0.016134085
231	0xbd5fbcc3	-0.054623377
232	0xbd04ce50	-0.032423317
233	0x3d28fbdf	0.041255828
234	0x3c57f7b5	0.013181617
235	0x3ca23b1f	0.019803582
236	0xbdeb09bc	-0.11476466
237	0xbe0dd931	-0.13852383
238	0xbdb87885	-0.09007362
239	0xbdd7e429	-0.10541565
240	0xbd19a83b	-0.037513953
241	0x3ca51119	0.020149754
242	0x3c0b4cad	0.008502168
243	0xbcf3c988	-0.029759184
244	0x3d637fde	0.055541866
245	0x3d38b6bf	0.045096155
246	0x3d4899eb	0.048974913
247	0xbcbcb8bd	-0.023037309
248	0xbb0c6f54	-0.0021428661
249	0xbd028512	-0.031865187
250	0x3d48703f	0.04893517
251	0x3d5d31a5	0.054002423
252	0xbd1201b5	-0.03564616
253	0x3c3052ff	0.010761975
254	0x3d25ce08	0.04047969
255	0xbc3291c6	-0.010899013
