result/Dilation_X_net_3/model_ph2.pth (torch, 22223 bytes, 8 tensors)

scale_down.conv1.dilation_conv1d.weight f4 [16, 1, 4]
00000000: 1fc4 e2be b601 b0bd 6316 91be 3764 90be
00000010: 26bd d0be 4585 533e f938 0cbf b238 41be
00000020: 927e 203e 3fe1 3abe 825e 953e f0e9 ee3d
00000030: 1045 893e 74b8 9f3e 69b9 73be 3a98 183e
00000040: 4a7f 73be ba47 0d3e 093a 72be 9195 ae3e
00000050: cd6d 0c3e 6088 2ebe 6b61 80be 4117 bd3d
00000060: cd99 e03e 9a3e 5e3e 62e1 9dbd 7d81 66bd
00000070: 56bf 963e fbca b0be 47ad 113e 80c2 82be
00000080: 9aeb 873e be43 45be ab95 203d a705 6e3e
00000090: f5ee b13e 11cf 87bd d083 ec3e c247 ddbe
000000a0: caf3 99bd 6d93 f8be 9dc5 7b3d b3c5 323e
000000b0: 4ff0 39be e820 613e 67f0 b5bd 3770 f9be
000000c0: 4728 be3e 84c3 9a3e 156b 8a3e 582a f03e
000000d0: 10cc fa3d 2854 643e f0f8 dc3e d5d2 f6bc
000000e0: 7e24 bebe 4ccd 6cbe 4075 85bd 1205 84bd
000000f0: fdb2 403c 86ec 983e ab8d 243e 58e2 cdbe
-0.44290254 -0.08594076 -0.28337392 -0.28201458 -0.4076931 0.20656307 -0.54774433 -0.18869284
0.15673283 -0.18249987 0.29173666 0.11665714 0.26810503 0.31195414 -0.23801197 0.1490182
-0.23779026 0.13796893 -0.23654951 0.34098485 0.1371376 -0.1704421 -0.25074324 0.09232951
0.4386734 0.21703568 -0.07709004 -0.056275833 0.29442853 -0.34529862 0.14226256 -0.25539017
0.26546937 -0.19264123 0.039205234 0.23244344 0.34752622 -0.06631292 0.46194315 -0.4321881
-0.07517202 -0.48549977 0.061467756 0.17458229 -0.18158077 0.21985209 -0.08883744 -0.48718426
0.37140104 0.30227292 0.27034822 0.46907306 0.12245953 0.22297728 0.43158674 -0.03012983
-0.37137216 -0.2312519 -0.06516504 -0.064462796 0.011761424 0.29867953 0.16069667 -0.4021175

scale_down.conv1_1.dilation_conv1d.weight f4 [16, 16, 4]
00000000: 1620 fcbc e527 d0bc 00f6 a33d 7291 40bd
00000010: e4c6 38bd c170 83bc 8538 dbbc 1b4a 07bd
00000020: 4c44 04be ea5d dc3d 4d23 763d 577c 59bd
00000030: 30d4 aabd f699 713a de9f 903d f8db b6bd
00000040: fde6 52bd b047 873d a82c afbd 0171 a03d
00000050: 90aa b8bd 70af ec3d 4df5 8c3d 8388 ddbd
00000060: b8b0 9dbd 8fab 1d3d 6df7 993b fa87 d43c
00000070: 8c63 c8bd 54d7 82bd 6e0d 853d 7856 f8bd
00000080: 59eb 08bd 59b3 4c3d 8f12 713d e558 923c
00000090: a614 e33c 4843 4f3d 1f4d 7bbc 85cb 67bd
000000a0: 3d41 cf3d a745 003e b7ae 663d 19a4 29bd
000000b0: 4204 d4bd a661 f6bd 55f8 fb3b 3e75 89bd
000000c0: 4420 19bd a4cb aabc da1b ea3d fbc7 fa3d
000000d0: 4303 99bc 89cb 28bd c4c9 693d 63d8 5bbc
000000e0: a536 e7bd 640f 353d 0a95 f83d ba42 c7bd
000000f0: 3e8d 0cbd 2183 b13c 6676 bdbd db32 35be
00000100: 3c81 ae3d 6535 38bd 3198 923d 1b36 2b3d
00000110: b1d4 ba3c 7dfb a8bd 9eb7 02bd f285 f03d
00000120: f2cd 843d dec8 1ebd b04a b43c 54fa 263d
00000130: b7ed cdbd e602 aa3d d908 40bd 26ca 26bd
00000140: 8a50 6e3d 03da debd 7659 b13c 9930 3fbd
00000150: 6415 463d 357b 39bd 3fce 0fbd e7a6 d13d
00000160: fe39 723d 7172 b63d 1cc9 afbd faac 383d
00000170: c276 ef3c 521d a03c 5ee2 f23d a5d6 413e
00000180: 0d64 c83d 50cb 5f3d 9033 603d d5f0 aabd
00000190: 6641 d4bd 27ab d8bd 5acd 95bd 6909 8abc
000001a0: f8e0 583d 9662 073d 494d cfbc dfbd 03be
000001b0: 072c ee3d 3daa c83d 6efe 723d 411c 693e
000001c0: 9c09 75bd 0a3a 92bd af7e 98bd 8c06 42bd
000001d0: df1a d6bd feb7 cb3d aa88 cd3b 8baa 433d
000001e0: bbfb 9cbd 3e8d 64bc ea06 a03c 8af2 bcbc
000001f0: 5d72 d63d c7bd 2bbd b350 813c 4dd7 b43d
00000200: bc45 9bbc 8bca 0ebd d6b7 733d bf1c 123e
00000210: e4da d33c 5fd5 4fbc 2260 e6bc 8448 243e
00000220: 7e7c c7bc a377 b83d a207 82bd ceb1 593c
00000230: 82cb 013e 75c1 b13d 0e14 7f3d ba5d 673c
00000240: a5c7 d5bc a47b 913c ce74 623d 57fd 45be
00000250: e90e cc3c 69fd 933d 23eb f3bd 7878 90bd
00000260: 077f 91bd fdc4 953c e96b cbbc 5320 a53c
00000270: b792 dcbc 03f9 9cbd ebf8 5f3d fa6f 733e
00000280: 0144 8bbd 6383 e23d 82de a33c f706 243d
00000290: 47b2 edbd fee7 f2bd f821 673d abca a0bd
000002a0: cedb cebd ad7b 783d def5 7b3d e4ce fdbd
000002b0: 18be ad3d 0aea aebc 6c22 f03d af4c 913d
000002c0: 1b50 ecbd cce4 a8bd b7ac f3bc 5795 49be
000002d0: 5743 bcbb d878 77bd 06fd fcbc 36dc 30bd
000002e0: 976a 973b 6fa6 fcbd 7ca5 8d3d dbea 37bd
000002f0: 67b4 6e3d 2293 f23d 0b41 acbc 47e9 123e
00000300: 6213 8a3d 45a0 83bc 30aa e0bd 0a24 bd3d
00000310: f180 6b3d 452a 99bd a1f8 babd 42d5 9f3c
00000320: be7e ef3c a2f5 67bd 266a d03a 0c6f f6bd
00000330: cccb 4bbd 8203 61bc 1a40 43bd 1ed8 9e3d
00000340: c042 4b3d 54cd 003e cbe1 c23d fabc 40be
00000350: 1da1 38bd 4b9d 8a3d 1089 93bc c8d8 ea3d
00000360: 1ce6 e8bc 3053 e93d 5f61 bf3c 5c8e afbc
00000370: adb0 b3bd d23e a63d 0602 253d 588d 7d3e
00000380: ff62 693d 25a4 91ba 9372 7fbd ba53 cfbd
00000390: 1ca1 90bc 2964 9a3d f679 593c 3997 a63c
000003a0: ec3d 0dbc bae8 8a3c 1d67 bc3d 5c41 943d
000003b0: b733 80bc be3d 2e3c 0b09 fa3d 4d59 3e3e
000003c0: bd8b 31bc f27e a43d f547 6f3d 0880 aebd
000003d0: 3e4e 4b3d 73a8 893c 3fef 19bd f91c 09bd
000003e0: c74a f43d f79e 093d 8f42 ddbd 9b6a c33d
000003f0: 222a 6dba 9535 5d3d d873 103d 6f5d 453e
-0.030777019 -0.025409648 0.08005905 -0.047013707 -0.045111552 -0.016044976 -0.026760349 -0.033029657
-0.12916678 0.107601 0.06009226 -0.053097095 -0.08341253 0.00092163624 0.07061742 -0.089286745
-0.05148982 0.0660547 -0.085534394 0.07834054 -0.09016907 0.115568995 0.06882725 -0.10817053
-0.07699722 0.03849369 0.004698685 0.025943745 -0.09784612 -0.06388727 0.06496702 -0.121258676
-0.03342757 0.049975727 0.05885559 0.017864654 0.027719807 0.050601274 -0.015338211 -0.056590576
0.10119865 0.1252657 0.056318965 -0.04141626 -0.103523746 -0.12030344 0.0076895156 -0.06711815
-0.037384287 -0.020849057 0.114310935 0.122451745 -0.018678313 -0.04120973 0.057077184 -0.01341829
-0.112897195 0.04420413 0.12137802 -0.09729524 -0.034314387 0.021668972 -0.09251098 -0.17695181
0.08520743 -0.044972796 0.071579345 0.041799646 0.022806497 -0.082510926 -0.031913392 0.11744298
0.064845935 -0.03876578 0.02200827 0.040766075 -0.10055106 0.08301334 -0.046883438 -0.040720128
0.058182277 -0.10881426 0.021649104 -0.046677206 0.048360243 -0.045283515 -0.0351088 0.10236912
0.059137337 0.08908547 -0.085832804 0.04508684 0.029231433 0.019545231 0.11859582 0.18929537
0.09784708 0.054637253 0.054736674 -0.08346716 -0.10364036 -0.1057952 -0.07314558 -0.01685019
0.052948922 0.033053003 -0.025305407 -0.12865399 0.11629491 0.097980954 0.059324674 0.22764684
-0.059823617 -0.07139976 -0.07446038 -0.047369525 -0.10454344 0.09947203 0.006272395 0.047770064
-0.07665201 -0.01394969 0.019534547 -0.02306487 0.10471032 -0.041929033 0.01578555 0.08830128
-0.01895415 -0.03486113 0.05950149 0.14268778 0.025861211 -0.012685149 -0.028122012 0.16043288
-0.024351355 0.09007194 -0.06349112 0.013287021 0.12675288 0.08679477 0.062274985 0.014121467
-0.026096174 0.017759152 0.055287175 -0.19334923 0.024909453 0.072260685 -0.11910083 -0.070542276
-0.07104307 0.018282408 -0.024831729 0.020157015 -0.026925428 -0.07664683 0.054680746 0.23773184
-0.0680008 0.11060216 0.02000356 0.040045705 -0.11606269 -0.11860655 0.05642888 -0.07851156
-0.10100518 0.06066482 0.061513774 -0.12392977 0.08483523 -0.021351833 0.117253155 0.07094704
-0.115387164 -0.082467645 -0.029745443 -0.19685875 -0.005745332 -0.06041798 -0.03088237 -0.04317876
0.004620861 -0.12336432 0.06916329 -0.04490171 0.058277514 0.118444696 -0.021027109 0.143468
0.06741978 -0.016067633 -0.10969961 0.092353895 0.057496015 -0.074787654 -0.091294535 0.019510869
0.02923524 -0.056630738 0.0015900775 -0.12032899 -0.049754903 -0.0137337465 -0.047668554 0.07756065
0.049624205 0.12578326 0.09515723 -0.18822089 -0.045075525 0.067682825 -0.018009692 0.11467129
-0.028430037 0.1139282 0.02336186 -0.021430187 -0.087739326 0.08117451 0.040285133 0.2476095
0.056979176 -0.0011111541 -0.062365126 -0.101233914 -0.017654948 0.07538635 0.013273707 0.02033578
-0.00862072 0.016956676 0.09199355 0.07239029 -0.01564966 0.010634838 0.12208756 0.18588753
-0.010836539 0.080320254 0.058418233 -0.08520514 0.049635164 0.016803956 -0.03758168 -0.033474896
0.11928325 0.033598866 -0.10803711 0.09541818 -0.0009047111 0.054006178 0.035266727 0.19273923

scale_down.conv1_2.dilation_conv1d.weight f4 [16, 16, 4]
00000000: 7f0f 3cbb 5429 f0bd 491f ab3d 98bf ca3d
00000010: bfad a5bd 216f d2bc cb63 85bd 3f27 53bd
00000020: 2866 e53d 7e07 4cbd 1d8e 913d 78bd b83d
00000030: 6b91 1e3d 95ad 85bd f739 54bc 0393 91bd
00000040: d6c2 183e d558 813d c1fb 533d baab 2d3e
00000050: 7a94 83bd b9c1 e23d 0bd4 1e3e 99d8 853e
00000060: 34bd 82bd 5fe0 c0bd 26d4 b43d 3543 f53d
00000070: 9ef7 863c ce71 053d 424a 123e a35b eabd
00000080: 1ceb 833c 998b e7bd 1a1c 623d e89a 873d
00000090: a4f2 e6bd d342 0cbd c2fc e4bd 3f61 c83d
000000a0: 3a6d da3d b6d6 3f3d de74 613c 54a0 913c
000000b0: 7bb9 183d 9922 f43c 0a80 33be dec3 cabc
000000c0: fff3 063e cde3 aa3d 857b 18bd e374 e73d
000000d0: 74e0 c23d 1cd0 a73d f45e c8bd 4b11 19bd
000000e0: c91c 233d ee79 0cbd d991 bc3d 8e7a 8e3d
000000f0: 972d 00bc 1c45 0f3c 6760 6ebd 60e0 47be
00000100: 1551 dc3d 4c9f 7e3d 8685 1f3c 44b0 59bd
00000110: 2002 d73d 09ac e63d 8d84 f5bc af5e b3bd
00000120: 20ac 5fbd 8967 a23d ffcf d9bd 61ef 9cbd
00000130: 39e4 d33b 6d45 af3d d164 c237 669d 20be
00000140: 991a 15be 583f a1bc d6a0 65bd 15ae 843d
00000150: 5062 9b3d 44e8 473d c737 943c 1119 dcbc
00000160: 62aa b5bd 7958 02be 0886 5c3d 4c5a 763c
00000170: f35d da3d c50b 30bd 4c51 ecbd 422e 98bd
00000180: 8fb5 c7bd 9448 12bd 765f f9bd 4499 c33d
00000190: 407f b03d 6683 4e3b dc11 07be 0658 873d
000001a0: c4d1 c8bc b020 033d 373d 13bd 07d6 d6bd
000001b0: 2c33 c4bd 254a 313d 34a3 15bd baa6 f63d
000001c0: 5f69 3dbd 13e9 51bc e3d4 273d 4726 373e
000001d0: 85b3 263d 4bb0 d13d 5bcf b23d 7ee8 293e
000001e0: 935a a1bd 5cac b43d e2f7 dbbc bf03 f6bd
000001f0: c79c 99bb db24 993d 5f6e c03d 8ec8 8ebd
00000200: 3abf 4a3d 52f5 2fbc 77b5 8f3c ee97 eb3c
00000210: 3976 70bd 1ce7 a3bd 5a87 e8bd c81d 64bd
00000220: b266 ec3d eadd 313d aac2 f43b b607 22be
00000230: 1ea0 bbb9 f608 e1bd f49b ec3c a7a1 5abe
00000240: bd7f 013d aa77 033d 0ec2 08be 90b1 5e3e
00000250: 6e1c 03bd fd7b f0bd 7a8e d0bc f7ee ad3c
00000260: d79e 7f3d f90f 4e3b 4dc0 b83d 25ad 8ebd
00000270: 6c2b 59bd 4fa0 f5bd c280 0fbc 99fa ebbd
00000280: e95f 743d ae74 803d c568 2dbd 4b76 533e
00000290: d6e8 b5bd 0a7c c3bd d1e2 04bd e792 b63d
000002a0: d17d e53d a33f aebd 7142 cc3d 9cc8 b03c
000002b0: 61b3 82bd 3743 b3bd 92f2 263d 92c6 1abd
000002c0: f5b0 8a3d 7b0c 7bbc 916d 1cbe fcb6 0c3e
000002d0: cc89 54bd 010a 9bbd 86b8 bdbc 01cb 2d3e
000002e0: 5a12 5abd 60a6 403c 8539 36bd 1653 903b
000002f0: e9e1 963d ffee b13d dfac ab3d cd0c 52be
00000300: cbd6 b1bd 8128 c03d ebe3 7a3d 78dd 88bb
00000310: 5e24 8cbd b2c6 c9bd d3a8 41bd be8f ec3d
00000320: 48ed 74bd 90b4 9fbd 08c3 233d 8bb9 fa3d
00000330: cc64 0bba 0113 ac3c b212 853d 8a62 aa3c
00000340: 6690 5cbd ce87 8c3d 230d dcbc dbac 70bc
00000350: f532 97bd 0c94 e03d 3889 dfbc dcb9 a23d
00000360: ff6b aabd fa53 cebd 91ac 46bd 2651 29bd
00000370: ef11 c03d 1f9f cabd dc5e 73bd 087e 1d3d
00000380: 77d8 5c3c 7dd9 19bd 2540 b73d f337 dabd
00000390: fd93 743d b668 003d f052 6bbd 300a 7b3b
000003a0: 9e19 223d 7686 45bc 3a7f 37bd f50e 883d
000003b0: eec7 24bd 8769 00bd 2eb3 13bd b7c8 383c
000003c0: de04 453d ea4b 693d ea53 80bd aee4 04be
000003d0: cd4a 093d e8ad df3d 4936 89bd 2919 8fbd
000003e0: da3e d7bd 9b91 02be b047 16be 0801 6a3d
000003f0: 793f ef3c 2fbc 74bd 6a5d f73d ee7e 033d
-0.002869576 -0.11726633 0.083555765 0.09899825 -0.0808978 -0.025687756 -0.065131746 -0.0515511
0.112011254 -0.049811833 0.07107184 0.09020513 0.0387129 -0.06527249 -0.012953273 -0.071081184
0.14918074 0.063157715 0.051753763 0.1696004 -0.06424804 0.11072106 0.15510575 0.26141813
-0.06383744 -0.094177954 0.088295266 0.11975709 0.016475495 0.032579236 0.1428614 -0.114432596
0.01610332 -0.11305923 0.05520258 0.06621343 -0.11276749 -0.034243416 -0.11181022 0.09784173
0.106653646 0.046835624 0.013760773 0.017776646 0.037286263 0.029801654 -0.17529312 -0.0247516
0.13179015 0.08344231 -0.037227172 0.11301591 0.09515467 0.081939906 -0.09783736 -0.037370007
0.039822374 -0.03429597 0.09207506 0.06956969 -0.0078233695 0.008744504 -0.058197405 -0.19519186
0.10757653 0.062163636 0.009736424 -0.053146616 0.10498452 0.11263282 -0.029970432 -0.08758294
-0.05460751 0.07929904 -0.10635375 -0.076628454 0.0064664152 0.08558164 2.3173548e-05 -0.15685043
-0.14560927 -0.019683525 -0.05606159 0.06478516 0.07587111 0.04880549 0.018093003 -0.026867421
-0.088703886 -0.12729062 0.05383876 0.015036177 0.10662451 -0.042979974 -0.11538944 -0.07430698
-0.097514264 -0.035713747 -0.12176411 0.095507175 0.08618021 0.0031511425 -0.13190407 0.06608586
-0.024514087 0.032013595 -0.03594705 -0.10490041 -0.09580073 0.0432836 -0.036532596 0.12043519
-0.046243068 -0.012811917 0.04097451 0.17885695 0.040698547 0.10238703 0.08730956 0.16592595
-0.07878604 0.088219374 -0.026851598 -0.12012433 -0.004687879 0.07477733 0.093960516 -0.069718465
0.049498774 -0.010739641 0.017542584 0.02875897 -0.058706496 -0.08003065 -0.11353941 -0.055692464
0.11543025 0.043424524 0.007469495 -0.15823254 -0.00035786716 -0.10988037 0.028882958 -0.21350728
0.03161596 0.032096542 -0.13355276 0.21747422 -0.032009535 -0.11742399 -0.025458563 0.021232111
0.06240734 0.0031442626 0.090210535 -0.069666184 -0.053019926 -0.11993467 -0.008758726 -0.11522407
0.05966178 0.06272255 -0.042336244 0.20650594 -0.088823006 -0.09545143 -0.03244287 0.08914738
0.11205638 -0.085082315 0.0997361 0.021580033 -0.0638187 -0.087530546 0.040758677 -0.037787028
0.06772033 -0.0153228 -0.15276171 0.13741678 -0.051889226 -0.075702675 -0.023159277 0.16971971
-0.053240158 0.011758417 -0.04448845 0.004404436 0.07367308 0.08688163 0.08382582 -0.20512696
-0.08683547 0.093827255 0.061252516 -0.0041767918 -0.06842874 -0.09852351 -0.047280144 0.11550854
-0.0597966 -0.077981114 0.03998092 0.12242421 -0.0005317449 0.021005156 0.064977065 0.02079894
-0.053848647 0.0686184 -0.026861733 -0.014689649 -0.07382766 0.10965738 -0.02728711 0.07945606
-0.0832138 -0.10074611 -0.048504416 -0.041337155 0.093784206 -0.09893631 -0.059416637 0.03845027
0.013479344 -0.03756093 0.089477815 -0.10655203 0.059711445 0.03134986 -0.057452142 0.0038305633
0.03957521 -0.012055984 -0.044799067 0.06643478 -0.04022973 -0.03135064 -0.03605955 0.011278323
0.048100345 0.056957163 -0.06266005 -0.1297786 0.0335186 0.10921842 -0.06699807 -0.06987221
-0.10510035 -0.12750857 -0.14675784 0.05712989 0.02920507 -0.05974978 0.12078364 0.03210347

scale_down.conv2.dilation_conv1d.weight f4 [1, 16, 16]
00000000: 94c2 7abd 39c8 063d d566 56bd 6eb6 803d
00000010: 62cb ccbc 7d70 023d c7a6 b9ba 264b 05bd
00000020: 69df c4bc 3b15 233c c7a2 af3c 44a5 d5b9
00000030: 5cd2 c9bc 2df3 93bd 8569 303d 7413 b23d
00000040: e651 f83c d514 4abd fb0a c93c c7de 133d
00000050: 2aed 773c 3385 133d 606d 333d 5d2f 213d
00000060: defe a63a 6d50 2c3d 117e 57bc 2fce 863c
00000070: 0cf3 bd3c b5e4 693d 0598 7b3d 2513 2e3e
00000080: 2dfa bbbc 8a7c fa3c 50ab 35bc d287 39bc
00000090: 1095 bb3c 0edc ff3c 3d02 fbbc c85e 133d
000000a0: 4970 11ba d498 52bd 1484 30bc 58bb 2c3d
000000b0: c482 9c3c 75a3 603d 6d4f 953d b91c 783e
000000c0: 1b3e 793d 1eb6 3a3d c8a2 f93b 7537 01bd
000000d0: 127f fc3b ef52 cc3c 9adc b0bb 8a23 503d
000000e0: 2a9f 43bd b2ed 74bc 7953 0dbd a7e6 e7bc
000000f0: 5ad1 263c 818a 8fbc 1cc7 dfbc ab44 adbd
00000100: 54d2 0a3d 89d6 88bd daab 1bbd f39b c93c
00000110: 735d 5c3d 9700 d13c 7664 67bd 5e02 1ebc
00000120: 9e59 053d fb47 523b 6ab6 4f3d 16db 153d
00000130: d285 a1bc 62df ce3c 0b0c e6bc 0084 82bd
00000140: 2620 4e3d 5785 ed3b b270 303d b34b 6c3c
00000150: ab97 5dbc 2192 513d 05d4 31bd 0ca7 4ebd
00000160: c11d d83c 2c6e 583d 6d3c 06bd 782d 963c
00000170: 2d5f a2bc bfc5 343d d247 05bd 25e3 8cbd
00000180: 8973 55bc aa5b 603d b028 dcbc 3b23 73bd
00000190: fcc6 d3bc 83f5 903c e95b ce3c 77f2 663d
000001a0: 486d 4f3c 912f e93c 4c43 b6bb 89fd b2bc
000001b0: 593e 03bc 4d6c 923d 7a56 a73d 795c 283e
000001c0: 8788 7738 44cc 20bd cc9c 49bc 67df e1bc
000001d0: eb53 5a3d 3e54 09bc 1a6d 2c3c b5b5 603d
000001e0: 5891 97bc 1644 f23c ebc4 0cbd b48f 1fbd
000001f0: 1401 8e3c 170c 803b cccb 8e3d 541a a83d
00000200: 64fa f53b e446 093d a5f8 31bc d860 47bd
00000210: e666 6f3d b3a7 aabc fe0c 20bd 0106 0a3d
00000220: e53c 98bd 08f1 91bc 3a51 013d 9aec 85bd
00000230: 00b8 a13d ed07 b43d a6b2 853d 1077 ebbd
00000240: 351f 56bc 034f 093d 1e3f fbbc dc98 b4bc
00000250: 7dff 43bd 73af c8bb 1b04 223d d456 59bc
00000260: d46c ef3c 19c9 81ba 1cb9 4bbd 724d 323d
00000270: 6260 b03d fcc3 193d e8bb 243d 1445 dbbd
00000280: e6a7 51bc ba82 3f3d 81f6 33bd a132 8abd
00000290: 547e a4bb d398 58bd c320 62bd 8f74 3d3d
000002a0: f67c 8bbd 42e9 43bd 4367 d33c fc9d 1eba
000002b0: 9740 80ba 1858 843d a572 a03d f79b b43d
000002c0: 644e 6bbc ea39 8fbd 28b3 703a f8c7 7bbc
000002d0: d2d4 4dbd c826 ec3c b4c5 cb3b 73b4 2dbc
000002e0: d5a1 ea3c e5a0 d43c a836 553c f3ac c33b
000002f0: 8845 4dbb 6cf0 623b ffe8 513d bd9c ab3b
00000300: 6a97 6a3c e076 483d efd8 8c3b 01b7 07bd
00000310: cd0c 8c3c 8789 a4bc d56a 29bd 30d1 4cbd
00000320: 4e96 9f3c 3cad 26bc a892 8abd ca2c d93c
00000330: 6283 f03c d5e1 b4bc bbb5 ae3c 5e61 0a3e
00000340: 7e42 6cbc 0552 ff3c 3799 eabc 39dc 9cbc
00000350: 0111 bc3a fbfa 3ebd 5e3d 223d 71d1 ad3d
00000360: 943f d63c 5852 223d bc97 403d b492 4c3c
00000370: 826c fbbc 40fc 1a3d a669 633d 575f 9b3c
00000380: 27ca 563d ac78 45bd de56 ca3c 2b16 cd3b
00000390: 4c37 263d 64da 0ebd 0b6f e03a c0e2 49bd
000003a0: f720 4ebd 2620 05bc fd3b 803d 2123 bd3b
000003b0: d4ac 13bc 448a 3b3d f9c7 423d 96e3 033e
000003c0: dc96 02bd 7e9c 13bd 0504 653d 3bc0 35bd
000003d0: 4dc9 8fbd f0bb 993b ac75 84bc f854 eb3b
000003e0: b259 57bd 0ebd c53c 611e f03c 13e7 90bc
000003f0: e2a1 12bd b6a1 253d e15e bb3d a502 f93d
-0.06122072 0.03290579 -0.052344162 0.06284796 -0.024999324 0.03184556 -0.0014164083 -0.03254237
-0.024032312 0.009953792 0.021439923 -0.00040749658 -0.02463644 -0.072241165 0.04306938 0.08695117
0.03031249 -0.049336273 0.024541369 0.03610113 0.015132228 0.0360157 0.04380548 0.03935181
0.0012740751 0.042068888 -0.013152615 0.016455738 0.023187183 0.057102878 0.061424274 0.1699949
-0.022946442 0.030576963 -0.011088207 -0.011323886 0.022898227 0.03123286 -0.030640716 0.035979062
-0.0005548043 -0.05141528 -0.010773677 0.042170852 0.019105323 0.054843385 0.0729054 0.24229707
0.060850244 0.045583837 0.007618282 -0.03154703 0.0077055776 0.02494189 -0.0053973915 0.050815143
-0.047759213 -0.014949249 -0.034503434 -0.028308226 0.010181749 -0.017522098 -0.027316622 -0.08460363
0.03389199 -0.06681544 -0.038005687 0.024610495 0.053800058 0.025512977 -0.05649229 -0.009644119
0.03255617 0.003208636 0.050711073 0.03658589 -0.01971713 0.025253002 -0.028081914 -0.06372833
0.050323628 0.0072485614 0.043076225 0.014422345 -0.01352493 0.05116475 -0.04341509 -0.050452277
0.026381375 0.052839443 -0.03277247 0.018332228 -0.019820774 0.044133898 -0.032539196 -0.06879262
-0.013028034 0.054774918 -0.02687487 -0.05935977 -0.02585172 0.017695194 0.02519031 0.056383576
0.012660332 0.028465064 -0.0055622216 -0.02184941 -0.00801047 0.07149563 0.08170791 0.16441526
5.901654e-05 -0.039257303 -0.01230545 -0.027572347 0.053302687 -0.008381901 0.010524059 0.05486079
-0.018501922 0.029573482 -0.034367483 -0.038955405 0.017334498 0.003907691 0.06972465 0.08208147
0.0075066555 0.033514872 -0.010862504 -0.04867634 0.05844774 -0.020831918 -0.03907489 0.033697132
-0.0743349 -0.017815128 0.031571604 -0.06539269 0.07896423 0.08790574 0.06528215 -0.11497319
-0.013068964 0.033522617 -0.030669745 -0.022045545 -0.047851074 -0.006124431 0.039554697 -0.01326533
0.029226698 -0.0009901851 -0.04973708 0.04353089 0.086121336 0.03754042 0.040218264 -0.10706535
-0.012796378 0.04675553 -0.043936256 -0.06747938 -0.0050199423 -0.05288012 -0.055207025 0.046253737
-0.06810944 -0.047829874 0.025806075 -0.0006050763 -0.0009784874 0.06462115 0.07834367 0.088188104
-0.0143619515 -0.06993468 0.000918197 -0.0153675005 -0.05025179 0.028827086 0.0062186364 -0.0106021045
0.02864162 0.025955627 0.013013519 0.005971545 -0.0031321961 0.0034628166 0.051247593 0.0052371905
0.0143183265 0.048941493 0.0042983214 -0.03313351 0.017095948 -0.02008511 -0.04136165 -0.050004184
0.01948085 -0.010173138 -0.06766254 0.026510615 0.029359523 -0.022080341 0.02132689 0.13513705
-0.01442015 0.03116704 -0.028637512 -0.01914798 0.0014348329 -0.046626072 0.039609306 0.084872134
0.026153363 0.03962931 0.047019705 0.012486149 -0.030691389 0.03783822 0.055520676 0.01896636
0.05243888 -0.048210785 0.024699625 0.006258746 0.04058008 -0.034876242 0.0017122937 -0.04928851
-0.050324406 -0.008125341 0.06261442 0.00577201 -0.009013373 0.045786157 0.04755399 0.12879786
-0.031882152 -0.036037914 0.055912036 -0.04437278 -0.07020817 0.0046915933 -0.016169392 0.00718176
-0.052575774 0.024138 0.02931136 -0.01768831 -0.035798915 0.040437423 0.09148956 0.121587075

scale_up.conv1.dilation_conv1d.weight f4 [16, 1, 4]
00000000: 9e61 f2bc ed1d cd3d 6101 83be 3646 fa3c
00000010: fe1d 013e 94f0 973e b264 bdbe b0db c73e
00000020: bc13 8f3c a49b 4dbc acaf 603e ecb8 723d
00000030: 32b4 e4be cf4e e0be 9685 bfbd 14f3 f73e
00000040: d986 c7be e012 f43e 05ad 5ebe 2861 923e
00000050: 7e91 923d 5eae d3be 267b c53e 2a3d b6be
00000060: 34e4 bbbd ac74 98bd 0b7f f93e 336e a4be
00000070: 1661 e7be e5b2 973d 2dc9 08be dfad 95be
00000080: 15e9 a3be a6b9 e7be 1fc7 d53e 6f55 c8be
00000090: de58 313e bba2 913e 3ec9 6c3d 615a 273e
000000a0: c027 5a3e d453 e6be 9b5a c13e 0e46 0f3e
000000b0: 68c2 f63e bbab 7ebe 4980 78be 1dae e73e
000000c0: ba3d fbbe fe59 95be 94bb b83e 1ab6 603e
000000d0: d0ce b8be 3660 94be 6043 bf3e 07d4 443e
000000e0: 9b14 e5bd 4f0c ccbe 372c e4be 56d1 c33e
000000f0: 5327 9b3d eeeb 8a3e 7da4 7b3d f63b fb3e
-0.029587563 0.100154735 -0.2558699 0.030551057 0.12609097 0.29675734 -0.36990887 0.39034796
0.017465465 -0.012549315 0.21942014 0.059258386 -0.44668728 -0.43810126 -0.09351651 0.4842764
-0.38970068 0.4767065 -0.21745689 0.2858975 0.07156657 -0.4134397 0.38570517 -0.3559354
-0.09174386 -0.074441284 0.4872974 -0.32115325 -0.45191258 0.07407168 -0.13357992 -0.29234216
-0.32013765 -0.45258826 0.4175348 -0.3912768 0.17319056 0.28444466 0.057809107 0.1634307
0.21304226 -0.4498583 0.3776444 0.13991567 0.48195195 -0.24870197 -0.24267687 0.45250025
-0.4907053 -0.2917022 0.3608061 0.21944466 -0.36095285 -0.28979653 0.3735609 0.19221507
-0.11185571 -0.3985314 -0.44564983 0.38245648 0.0757586 0.27133125 0.061436165 0.49069184

scale_up.conv1_1.dilation_conv1d.weight f4 [16, 16, 4]
00000000: e68b d43c 5834 9d3c b72b 933d 3825 a7bd
00000010: 2ae6 d3bd 82b7 d63d 1142 5b3d e7c7 aa3c
00000020: 2974 0f3d 68be 0bbc b42a d3bc a233 9ebd
00000030: f5c9 313c ec36 90bc a058 c23d 5bb3 87bd
00000040: 885e 873d 1384 e4bd fb1c c7bd 3fee c43d
00000050: 34e9 863d cd73 0dbc 3113 6d3b ed6f e23d
00000060: 448f d5bd 1894 46bd cc6e 04be bf20 9dbc
00000070: c26d 8fbd 3698 1a3d a193 253d 5844 28bb
00000080: ed44 013b dd4c 72bc a8fe abbc adee 053d
00000090: 617d 083e 7868 aa3d 6051 173d 749a 18bd
000000a0: 5fab d73d d9db 8dbd 735c fa3d ad09 59bd
000000b0: 46a5 ad3d 250f a63d 63fd ae3d 5fe7 d6bd
000000c0: 5fad 6abd efc4 39bd eb7c d93b 6ac1 193e
000000d0: 8bdd 54bd 7d3b 1ebd e5ec d4bc bc83 2e3e
000000e0: 7af4 8bb9 4bc1 303d 97ca 623d 94a3 d73d
000000f0: 81c0 dc3d 3e91 0f3e 56d8 0a3e 6903 48bd
00000100: fe42 893e df84 09be e2a7 0b3e a8f2 88bd
00000110: 8935 243e cbfd 7abd e09d 2a3c 3fb3 cc3d
00000120: 3079 7fbe 7433 f93d f3e3 55bc 27bf cabd
00000130: 362b d63d a3c5 303e 3f2f 78be a916 c13d
00000140: 77fa fc3d 2f9f 233e 7b6a 23be 401d 13be
00000150: 9147 60be b27c 553d 06d2 e43d 0ae3 7b3d
00000160: 6339 c1bd 672e c43d f5b2 4bbc 3eba 9fbb
00000170: f4e5 b4bc cef6 723d 3da9 14be a89f 13bd
00000180: 06fb d1bc 815c cfbc 7a17 2abe e279 2abd
00000190: 7c14 8dbd cf78 e1bd 8c69 d93d bd72 14bd
000001a0: 1d61 57be 62cc 493d 40ca 04be 640a 553d
000001b0: f05e c6bb 3e58 80be c1b7 4a3c 6d0c 7b3d
000001c0: a4de 41be f196 d63d f604 8dbe cdbf b73d
000001d0: f865 4ebe 0f84 473e 4417 75be 4389 21bd
000001e0: 0af3 ce3d ece8 dabd 9d93 153d eb01 30bc
000001f0: d63a f9bd 6ff0 09bd d701 d33c 73fc b73d
00000200: 6fc0 20bc b048 b9bc d32f 3a3d 50a2 26bd
00000210: ca1a ac3c 94ba 13bd cf01 5dbd 55b7 1f3d
00000220: e661 90bd 5c11 cf3d 24ea c3bb cad3 223d
00000230: bc31 bb3c e7d5 bfbd ae0e 88bd ad37 ef3c
00000240: 2ec1 bc3d f102 af3d e85d 5a3d 5f71 ab3d
00000250: 86b0 81bd 1f74 753d 6ce1 1f3d de7f 65bd
00000260: 62ee cf3d b484 7b3d 8efa febc cc91 8e3d
00000270: 40ab b1bc 9193 3fbc e442 8abd 7df2 80bd
00000280: 3fc4 833c 6089 9cbd 5aa5 e63d 8315 80bd
00000290: 0c14 4e3d 0524 313d f55e c7bd bdbf e43d
000002a0: 2b2b 1abd 2951 443d ee9f d2bd da34 cbbd
000002b0: 5089 353d 8516 b53d bc98 193d 0851 f03c
000002c0: e3b1 afbd d50c 49bc ca93 633d 3d1e e93d
000002d0: 928d 65bd 9eb5 a53d 2c98 3bbd ce78 7bbc
000002e0: 5f12 c33d 8031 32bd 6b02 76bd e5fa 9d3d
000002f0: f42d 2abd 8aa1 1abd b20d edbc 5e2d db3d
00000300: d6f3 f23d 2bdd 8bbd e048 babd 4ff5 d4bd
00000310: 46fd 10be 48a3 653d bd64 04be 4b2c 8d3d
00000320: b2cf 823d cb4c dabc 4659 35bd f563 bdbd
00000330: 821e 983d 4046 a73d 40f9 933d f209 89bd
00000340: ad38 c43c 220b 173d d741 903d 96e3 603d
00000350: dae8 533d 76e3 583c bae3 0c3e 364c 35bd
00000360: d7ec 053d e899 debd b8ff edbd 011c 5fbd
00000370: 9157 063e 6ac6 b83c 5337 abbc 6d40 c8bc
00000380: 97ca 163c a69b 96bb 767b b5bd 8ee0 703d
00000390: 2364 a9bd e79a efbc d5c0 3abd 1b2e 5e3d
000003a0: 0626 ff38 bf63 0dbe 5f68 c83d 9f18 17be
000003b0: de42 803d b4f8 9a3d ce29 bdbd 7d12 44bd
000003c0: a9d7 6e3d 10bb a53d c065 f43d a7ca 5fbd
000003d0: c30d e53d 853a 8f3c 9f23 6fbd 6c11 853d
000003e0: 9b07 103e b837 8dbd 118d 45bd 7808 c5bc
000003f0: e816 bebd 8006 debd 18a5 023d 05d2 efbd
0.025945615 0.019189999 0.07186072 -0.08161396 -0.10346635 0.1048422 0.053529803 0.020847274
0.03502289 -0.008529283 -0.025777198 -0.07724692 0.010851373 -0.017604314 0.0948956 -0.06626006
0.06609827 -0.11158004 -0.097223245 0.09615754 0.06587449 -0.008633566 0.003617477 0.110565044
-0.104277164 -0.048481077 -0.1293289 -0.019180654 -0.070033565 0.037742816 0.040423993 -0.0025675502
0.001972492 -0.014788833 -0.020995453 0.032698322 0.13329078 0.08320707 0.03694284 -0.037256673
0.10530733 -0.06926698 0.122246645 -0.052987743 0.08478789 0.08108357 0.085444234 -0.10493349
-0.057294246 -0.045353826 0.006637206 0.15015188 -0.051969092 -0.03863095 -0.025991866 0.1704244
-0.00026694295 0.04315309 0.055368986 0.10529247 0.10778905 0.14020249 0.13559088 -0.048831377
0.26808923 -0.13429593 0.13638261 -0.06686908 0.16036047 -0.061277192 0.010413617 0.09995126
-0.24948573 0.12168017 -0.013054836 -0.09899741 0.104574606 0.17262892 -0.24236773 0.0942815
0.1235246 0.15978692 -0.15958588 -0.14366627 -0.219023 0.05212087 0.11172871 0.06149582
-0.09434774 0.09579163 -0.012432803 -0.0048744967 -0.022082306 0.059317403 -0.14517684 -0.036040932
-0.025632393 -0.025312664 -0.16610518 -0.041620143 -0.06888673 -0.110093705 0.106158346 -0.036242235
-0.2103314 0.04926718 -0.12967777 0.052011862 -0.006053798 -0.25067323 0.012372912 0.061291147
-0.18932587 0.104780085 -0.27542847 0.0897213 -0.20156085 0.1948397 -0.23934656 -0.039437544
0.1010495 -0.106889576 0.036517728 -0.010742645 -0.12169425 -0.03367656 0.025757713 0.08983698
-0.009811505 -0.022617668 0.045455765 -0.040682137 0.021008868 -0.036066607 -0.053956803 0.0389932
-0.07049923 0.10110733 -0.0059788395 0.03975276 0.022850864 -0.093669705 -0.06643425 0.029201353
0.092165336 0.08545483 0.053312212 0.08371233 -0.06332497 0.059925195 0.03903334 -0.056030147
0.1015289 0.061405852 -0.031125333 0.06961402 -0.021688104 -0.011692897 -0.067510396 -0.06296251
0.016084788 -0.0764339 0.11262007 -0.06254103 0.050312087 0.04324724 -0.097349085 0.11169384
-0.037638824 0.047928963 -0.102844104 -0.0992219 0.044320405 0.08842186 0.037499174 0.029335514
-0.08578851 -0.012271126 0.055560865 0.113827206 -0.056043215 0.08091281 -0.04579942 -0.015348626
0.095249884 -0.043504238 -0.0600609 0.0771387 -0.04154773 -0.037751712 -0.028937194 0.107020125
0.11862914 -0.06829294 -0.09095931 -0.103983514 -0.14159116 0.05606392 -0.12929054 0.06893214
0.06387271 -0.026647946 -0.04427459 -0.09247581 0.07427694 0.08167696 0.07225275 -0.0669135
0.023952806 0.03687585 0.07043808 0.054904543 0.051735736 0.013237825 0.13758746 -0.044262134
0.03269657 -0.10869199 -0.1162104 -0.054470066 0.13119341 0.022555549 -0.020900404 -0.024444783
0.009203575 -0.0045961915 -0.08861439 0.058807902 -0.08271053 -0.029248668 -0.045594055 0.05424319
0.0001216643 -0.13807581 0.09785532 -0.14755486 0.06262754 0.075669676 -0.09236489 -0.047869194
0.05831114 0.0809232 0.1193347 -0.054636624 0.111842655 0.017483959 -0.05838358 0.064974636
0.14065401 -0.06895393 -0.048230235 -0.02405189 -0.09281713 -0.108410835 0.031895727 -0.1170998

scale_up.conv1_2.dilation_conv1d.weight f4 [16, 16, 4]
00000000: 7f8b 80bd b85c c33c b20f 9abd 0f8a 9a3d
00000010: 8914 c83d 847f 9cbd 1e88 0b3e dc9b 04bc
00000020: 4422 4b3d 036d debd 4dec 733c 57a8 fdbd
00000030: 2b84 753c e47c dd3c 878e e0bd e1b5 60bd
00000040: 9bb0 9a3d f147 1abd 216d debb 1dd7 993d
00000050: f839 edbd f9a7 eb3d 5051 a83c 6744 86bd
00000060: 3270 333d d8ce f8bc c5f6 dbbc 0782 293d
00000070: d20d a63d aa96 a23d 3fc5 d2bc 9b33 7abd
00000080: 05bb dbbd 22c1 25bd 29c2 11bd ba20 a9bd
00000090: c151 d63d 13c9 a53d bac2 103d 2820 0ebd
000000a0: 5038 983d 3e00 863d d8b5 bbbd d4b5 053d
000000b0: 293b 813d 6020 e3bd 46f1 38bd eea8 acbd
000000c0: d3f1 303d 4a6e fd3d 15b1 86bd c358 b63d
000000d0: b6bd 5abd e2aa 843c a454 cbbd 904b e6bd
000000e0: 8248 ce3d a10c 02bd e59a aa3d d80a d93d
000000f0: 5f58 0cbe cf2b 4a3d dd36 a33d 521e c73a
00000100: 7bba b23d 70cc acbd 485c 14be 4ccf f2bd
00000110: 819e a4bd 2bcc 53bc 3c2a b7bd 055a 163c
00000120: 7279 e2bc d09d bc3c c0e0 b7bd 691b 1dbd
00000130: 935d 8a3d 8c0e 88bd 6429 c9bd babd 5f3d
00000140: 79d0 bebc 9700 80bd f8d1 debd 04df 4b3d
00000150: b152 c43d d59d 59bb 2c6f a0bb 5d01 b73d
00000160: 3177 163e 5735 09bd 851e 563d d217 0bbe
00000170: 4608 b23d 50fe cc3c a26a 593b 714d a33c
00000180: fea0 04bd 8e3a ec3a 01b0 14ba ea5d cebd
00000190: a846 9abd 068d 193d 1b64 00be 817d 683d
000001a0: a321 fa3b 4e8c 9cbc af5c 1b3e 60f5 223e
000001b0: dcc0 723a f23b b7bd 8bf4 973c e004 a73d
000001c0: 01df a63d 8f79 0e3e ab5f 8a3d c9bb efbc
000001d0: a0d8 b6bc fc89 993d 71bb 3f3a ccde 9d3d
000001e0: c55d ea3d e61b 1dbd 6400 bbbd 9dfb 14bd
000001f0: f5e2 47bd af80 553c 02d3 00bc 4b78 09be
00000200: def9 763d 4f4b 2bbd 15be 203c 70f2 543d
00000210: 6e78 0b3e 34d9 ed3c 78a6 9bbd 33da b63d
00000220: 2228 8abc b9c6 d9bd 8d36 9fbd 49d6 bd39
00000230: dc67 033e 2339 bbbd 1233 053e 4814 e1bd
00000240: fd3f 75bd 8fec 91bd 124d ee3d c12d af3d
00000250: 7667 a9bc d7f7 83bd 8df9 df3d 7f1b cd3c
00000260: c37b e1bd 7a10 d63c 2854 a6bc 6abf 04bc
00000270: 3f19 643d c709 3ebd 2441 933d ab78 b93d
00000280: 20be dabd 1104 7b3c 459e e1bd b27b 453c
00000290: c473 cabd 20f0 dfbd 8c43 c0bd 9e0d 2dbd
000002a0: a9f5 e93c 3c5b ae3d 426c fa3c c220 9fbd
000002b0: 1fc5 8bbd cce2 773d 88e0 223d 6c8c 63bc
000002c0: 81ae bfbd 64de f93d 8c94 73bd 33e7 ecbd
000002d0: 27e9 5f3c aaf5 a8bc b371 b7bd f666 6c3c
000002e0: 4022 073e 30df a93d cfce 9e3d ede7 56bb
000002f0: 0d88 c7bd e73b 59bd f267 0cbd 38e6 c6ba
00000300: caea eabd 3864 9b3d c447 5c3d efb4 adbd
00000310: e8ec fa3d 2457 b6bc 8f21 803d cffc 9a3d
00000320: 86f8 3f3c ad7b b63d 2e5b a7bd 98de 1e3c
00000330: e0aa a8bd 8ece 893d d6b0 94bc 0b8f ea3d
00000340: c63b cfbc aa31 10be 6435 bfbb c2bc 2cbd
00000350: d6c0 91bd 2b2d 64bd e474 13be 581e 9cbd
00000360: c311 d0bc 2e1a 9ebd 07bb ffbd 3904 95bd
00000370: 3212 d93c 6140 f4bc 186e 37bd 6dbc 6fbc
00000380: fa21 e53d c182 44bd 0ff5 c6bd bebc f0bd
00000390: 9ec0 393b c903 b1bd c71e 503d 6218 85bd
000003a0: 2663 14bc 06ba ebbd 70e4 34bd 2cdf d93d
000003b0: b7ce 4a3d fb34 28bc 2054 c33d ebb6 1d3d
000003c0: 3993 ce3d 5b99 46bd e63b a4bd 82b8 173d
000003d0: e7ef e53d cb8c 813d f63d c63d d4d3 d6bd
000003e0: d86e 443d ae86 a53d a637 163e 2078 2abc
000003f0: 58e3 f4bd 3fd7 d0bd 8628 61bd ae24 ce3d
-0.06276607 0.023847923 -0.07522525 0.07545864 0.09769542 -0.07641509 0.13626143 -0.0080938
0.049593225 -0.10860636 0.014887881 -0.12385624 0.014985125 0.027037092 -0.10964685 -0.054860953
0.07553216 -0.037666265 -0.0067879115 0.07511733 -0.11583322 0.115066476 0.020546585 -0.065560155
0.04380817 -0.030372068 -0.026851067 0.04138377 0.08108105 0.07938893 -0.02572882 -0.06108437
-0.107290305 -0.04046739 -0.035585556 -0.08258195 0.10464812 0.080949925 0.035341956 -0.034698635
0.07432616 0.06543015 -0.09165543 0.032644108 0.06310112 -0.110901594 -0.04515197 -0.08430658
0.04319937 0.123745516 -0.065767445 0.08903649 -0.05340358 0.016194765 -0.09928253 -0.11244881
0.100724235 -0.031750325 0.08330325 0.105977714 -0.13705586 0.049358185 0.07969449 0.0015191531
0.087269746 -0.08437431 -0.14488328 -0.11855945 -0.08038045 -0.012927095 -0.089436024 0.009176736
-0.0276458 0.02302447 -0.089784145 -0.03835622 0.06756129 -0.066433996 -0.09822348 0.054624297
-0.023292767 -0.062501125 -0.10879892 0.04977323 0.09586085 -0.0033205647 -0.004896065 0.08935807
0.14693905 -0.033498134 0.0522752 -0.13583305 0.08692984 0.02502361 0.003317513 0.019934388
-0.032380097 0.0018022822 -0.00056719786 -0.100765064 -0.07533008 0.037488006 -0.12538187 0.056760315
0.0076334043 -0.019109871 0.15172075 0.15913916 0.00092603057 -0.089469805 0.018549224 0.08155227
0.08148003 0.13913558 0.067565285 -0.029264348 -0.022320092 0.074970216 0.0007314003 0.07708511
0.11443666 -0.038356684 -0.09130934 -0.03637277 -0.048800427 0.013031169 -0.007862808 -0.13424794
0.060296886 -0.041819867 0.009810944 0.05198902 0.13620159 0.029034235 -0.07600111 0.08928337
-0.01686484 -0.106336065 -0.077740766 0.00036208544 0.12832588 -0.09141757 0.13007763 -0.109901965
-0.059875477 -0.07125198 0.11635794 0.08553649 -0.020679217 -0.06443756 0.1093627 0.025037525
-0.11009934 0.026130904 -0.0203038 -0.008102277 0.05568814 -0.046396043 0.07190159 0.09056219
-0.10680795 0.015320794 -0.11016516 0.012053417 -0.09885362 -0.10934472 -0.093878835 -0.042249314
0.028559523 0.08513495 0.0305692 -0.0776992 -0.06824707 0.060519025 0.03976491 -0.01388846
-0.09359456 0.12200621 -0.059467837 -0.11567535 0.013666428 -0.020624954 -0.08957233 0.014428845
0.13196659 0.08294523 0.07754289 -0.0032792047 -0.097427465 -0.053035643 -0.034278817 -0.0015174812
-0.11470564 0.075874746 0.05377938 -0.08481776 0.122522175 -0.022258349 0.06256401 0.07567751
0.011716967 0.08910308 -0.08171688 0.009696625 -0.08235717 0.0672885 -0.018150728 0.114530645
-0.025297057 -0.14081445 -0.005835222 -0.0421722 -0.07116859 -0.055707138 -0.14400059 -0.07622975
-0.025399094 -0.07719837 -0.124868445 -0.07276196 0.026497934 -0.029815855 -0.044782728 -0.014632327
0.11188121 -0.04797626 -0.0971471 -0.1175475 0.0028343569 -0.086433 0.0508106 -0.06498791
-0.009056842 -0.115100905 -0.044163167 0.1063827 0.049513545 -0.010266538 0.0953753 0.038504522
0.10086674 -0.048486095 -0.08019237 0.037041195 0.11227398 0.06325682 0.09679787 -0.10489622
0.04795727 0.08082329 0.14669666 -0.010404617 -0.11957425 -0.10197305 -0.054970287 0.1006559

scale_up.conv2.dilation_conv1d.weight f4 [1, 16, 16]
00000000: 6377 3bbd 80dd 143c 0c28 46bd ac2f 173d
00000010: 8e70 353d fd1d 34bb b8dd 1f3d 0ecf 0d3d
00000020: cc2f 09bc 106c 603d 2e9a 68bd 7bfa d13c
00000030: 02b6 1cbd 9169 7ebd 7578 86bc edaa 92bd
00000040: 0404 b73c c9a9 b13a e2cc 81bc 5e96 afbc
00000050: fd35 7ebd 27b2 003d c2bc 85bd 8992 55bd
00000060: f47e fd3c 0d10 1fbd ec72 03bd 3741 a0bd
00000070: 23a7 70bd c400 e7bc fb4d 6cbd 32f1 7dbc
00000080: 9061 5e3d 2fd9 95bc c0d9 aa3b b262 bb3c
00000090: bec1 5f3d 5b3e 0bbc a05f 85bd 4fd4 8dbd
000000a0: a533 8abd 3c24 773b 8ef1 c83c 6313 b43c
000000b0: 4be5 32bd 7357 95bc 5c38 23bb 6b11 15bd
000000c0: c443 f9b9 ea90 fb3b d220 6bbd 20fb 573c
000000d0: 2912 afbc f0ac 15bd 19bd 49bd 08f3 5ebd
000000e0: 745b 8abd c760 753c 1ee9 aebc af75 fc3c
000000f0: a93b 93bd a660 80bd 2faf 0f3b 95f5 5fbd
00000100: 2659 503d a3fb a23a 1c09 33be e60b 98bd
00000110: f0d8 e9bd 8d14 2e3e 868e bc3d e466 163d
00000120: e67a 6cbb d36a 7d3d 253f 963c e51a 93bd
00000130: c719 933d bf43 85bb a097 80bd b2f4 093a
00000140: 9e11 09bd 38a8 ba3c cf4d e43c 35ae 1a3c
00000150: a457 8f3d 31bc d0bb 7ec4 3d3c aac6 243d
00000160: 2041 503d 777f 5ebc 9372 903d f998 b73c
00000170: 3f9e 21bd 7424 493d e5f3 9bbc 8138 a63c
00000180: cbf3 fa3c d998 a9bb 2dd7 613c cab7 973c
00000190: 2623 8f3d 5461 c2bc 4178 f33c 6edc 80bc
000001a0: d5a9 f63c 2c59 49bc 010a c6bb 13ca 853d
000001b0: 54d5 923d 0a16 823d ce27 39bb 79f7 d03c
000001c0: 74a2 34bd a7d7 5d3d 5a7f a63d d2e6 6a3a
000001d0: 2bce c33c 7322 643c ab11 43bd f84b 0ebd
000001e0: c994 58bd 3036 fa3c 650e 34bd ef14 dd3c
000001f0: d1c3 d0bc 63b9 24bd 44a4 afbc 9718 3e3a
00000200: 2935 5e3d 0d8a 46bd a831 563d 9590 9c3d
00000210: e488 a9bc 856f 20bd 4679 cc3c 6d68 31bd
00000220: 1c74 aabc e010 833c f431 9fbc 04af 4a3d
00000230: dae2 773d 45ec c2bc fb74 7d3d efc6 123c
00000240: cb57 f6bc a10d 09bd 0616 8b3d 2a13 6f3c
00000250: efb3 a6bc 52fe 9c3c ec64 a6bb 9da7 09bd
00000260: 8787 6bbc 1371 8a3d 1d79 403d 7b0c 883d
00000270: 407e 90bc 7e13 603d 1625 2bbd 92e8 1d3d
00000280: ab86 4f3c b3b2 c8bc c4f8 37bd ff7c d2bc
00000290: 71c9 013d e90f 99bc 8ea9 25bd 5899 f63b
000002a0: 258a 7c3d de64 963d 8d43 80bc a8b1 7b3b
000002b0: d2dd ad3c d080 1ebc 5e1a 95bd eb69 493d
000002c0: 286b ad3c 14c0 5ebb 5439 063c b239 8e3c
000002d0: 98c8 9bbd 6367 9abd 90fe a83b d072 fbbb
000002e0: 5772 eb3c a793 9fbd f80d ae3c 6aba 183d
000002f0: 1234 edbc 7e04 563c dda5 a2bd ffa3 bebc
00000300: d1f8 38bd bd5f 8b3c 5faa a53c ae1b 81bd
00000310: 3b29 d13b e184 98bc 238d a3bd 666e a5bd
00000320: 7207 dcbc 2217 44bc 9149 70bc 8a1d 61bd
00000330: 46c3 73bd 9320 343d 989e 67bd c7af 50bd
00000340: bf6c 65bd 8855 cbbc fa0c 10bd bffb 463d
00000350: ed2d ffbc 240b 5dbd ca08 3bbc 3dc6 79bd
00000360: 8e15 2a3d a07c 94bc 80b6 4bbd bf86 15bc
00000370: 76d4 5cbc 7ba9 4e3d dbb8 7ebd 6f1d 0f3d
00000380: 9eda 9dbc 81f7 6dbd fb6e 87bd 25d3 353b
00000390: 0ac0 063c b342 0c3d 21e1 85bd bcd2 4dbd
000003a0: f2c4 f739 8e14 533c 6831 1cbd cedc 16bd
000003b0: 32a3 863c a68d c43c 0d23 9fbd f30c adba
000003c0: b58d 3d3c 5353 273d 8ee8 c6ba bcc7 4bbc
000003d0: 57e0 203d 85a7 c7bc 0aee 1abd adff f9bc
000003e0: 6c17 163d c144 033d 5010 c8bc 910f 693d
000003f0: 745b db3c 8c34 dabb e706 7c3d 1c20 c239
-0.045768153 0.009086013 -0.048378035 0.036910698 0.044296794 -0.0027483695 0.039029807 0.03462129
-0.008373212 0.054790556 -0.056787662 0.025632134 -0.038259514 -0.062112395 -0.01641486 -0.07161508
0.022340782 0.0013554628 -0.015844766 -0.021434005 -0.062063206 0.0314199 -0.06530143 -0.0521417
0.030944325 -0.038833667 -0.03209202 -0.07824939 -0.058753144 -0.028198607 -0.057691555 -0.0154994
0.05429226 -0.018292038 0.005213946 0.02287421 0.054628126 -0.008498753 -0.0651238 -0.0692526
-0.06748132 0.0037710806 0.024529245 0.0219819 -0.043675702 -0.018230176 -0.002490542 -0.036393564
-0.0004754347 0.007677187 -0.057404347 0.013182431 -0.021370964 -0.03654188 -0.049252603 -0.05443099
-0.067557245 0.014976687 -0.021351393 0.030817835 -0.07189114 -0.06268434 0.0021924486 -0.054677565
0.05086627 0.0012434613 -0.17483944 -0.074241444 -0.11418331 0.17000027 0.09206872 0.036719218
-0.0036083995 0.061869454 0.018340657 -0.07182864 0.07182651 -0.004066914 -0.0627892 0.00052625977
-0.033464067 0.022785291 0.027869133 0.009440948 0.06999138 -0.0063700904 0.011582492 0.040228523
0.050843358 -0.013580195 0.07053103 0.02241181 -0.039457556 0.04910703 -0.019037196 0.020290615
0.030633828 -0.0051756916 0.013784212 0.018520255 0.06989126 -0.02372805 0.029720427 -0.015730109
0.03011028 -0.012289327 -0.006043673 0.06532683 0.07169595 0.0635186 -0.0028252485 0.02550863
-0.04410024 0.05416074 0.08129759 0.00089607865 0.02390202 0.013924229 -0.04762427 -0.03474042
-0.052876268 0.030543417 -0.04395904 0.026987521 -0.025483998 -0.04021586 -0.021440633 0.0007251589
0.054249916 -0.0484715 0.05229345 0.07644764 -0.020695157 -0.039168853 0.024960171 -0.04331248
-0.020807318 0.015999258 -0.019433 0.049483314 0.060519077 -0.023794303 0.06187914 0.008958562
-0.03007116 -0.033460263 0.0679131 0.014591971 -0.02034947 0.019164238 -0.005077949 -0.033607114
-0.014375574 0.067598484 0.046990503 0.066430055 -0.017638326 0.05470609 -0.041783415 0.038551874
0.012666385 -0.024499273 -0.044914976 -0.025694368 0.03168625 -0.018684344 -0.040444903 0.007525604
0.061655182 0.07343458 -0.01565721 0.0038405452 0.021223936 -0.009674266 -0.0728042 0.049173277
0.02116926 -0.0033989 0.008192379 0.017361496 -0.076066196 -0.07539251 0.0051572993 -0.007673599
0.028741045 -0.07791834 0.021246895 0.037287153 -0.028955493 0.013062594 -0.07941792 -0.023271559
-0.045159165 0.017013425 0.02022284 -0.063041076 0.006383089 -0.01861805 -0.07985904 -0.080776975
-0.026859019 -0.011968406 -0.014665977 -0.05495981 -0.0595124 0.043976378 -0.05654773 -0.050948884
-0.05601191 -0.024821058 -0.035168625 0.048579928 -0.031149829 -0.053965703 -0.01141567 -0.06098007
0.041524462 -0.018125832 -0.049734592 -0.009126364 -0.013478389 0.050454598 -0.06218801 0.03494018
-0.019269284 -0.058097366 -0.06612965 0.002774426 0.008224497 0.034243297 -0.065370806 -0.0502498
0.00047258247 0.012883319 -0.038133055 -0.03683167 0.01643524 0.023993324 -0.07770357 -0.0013202712
0.01156943 0.04085095 -0.0015175508 -0.012437757 0.039276447 -0.024371872 -0.037824668 -0.030517424
0.03664343 0.03204799 -0.02442184 0.05689961 0.026777007 -0.006659096 0.06153002 0.00037026487
