result/Dilation_X_net_3/model_ph1.pth (torch, 22223 bytes, 8 tensors)

scale_down.conv1.dilation_conv1d.weight f4 [16, 1, 4]
00000000: 06fa eabe ccfc cebd 361b 96be 2f08 8ebe
00000010: 23fb dbbe 19cb 3d3e e6d9 0dbf 8dfa 30be
00000020: 5734 253e 9b5a 35be 93d0 953e a932 de3d
00000030: 0717 8f3e 52cd a53e d039 66be 3914 2a3e
00000040: 1d9c 70be a993 133e fc9a 79be 45d7 973e
00000050: a740 fb3d 4ef5 3dbe c8ec 86be 3597 a53d
00000060: 6aa5 ec3e 3094 713e 82e4 5abd 41b1 cebc
00000070: 9347 963e 4d21 b1be 8498 123e cfc2 7cbe
00000080: e8c2 8c3e 6501 3cbe ab41 3a3d 84f4 693e
00000090: fcd4 b43e ed1e 74bd ba59 f03e 07f1 d5be
000000a0: 6db7 a9bd f0e2 fbbe b0c7 453d 6de8 153e
000000b0: 37db 3bbe 607d 5f3e 1fd7 b7bd eb10 f6be
000000c0: a09d bf3e 0263 9c3e 681a 8b3e 32ee ec3e
000000d0: 2b45 323e 24b2 8f3e eaf4 f23e 9926 cabc
000000e0: 1419 c5be c9ac 7cbe 07cc a1bd e76e 9dbd
000000f0: dd83 833c b02e 9b3e af52 293e 2bcc c7be
-0.45893878 -0.10106811 -0.29317635 -0.2774062 -0.4296504 0.18534507 -0.5541061 -0.17283078
0.16133247 -0.17710344 0.29260692 0.108495064 0.27947256 0.3238321 -0.22482991 0.16609277
-0.23497052 0.14411797 -0.24375528 0.29656425 0.12268191 -0.18550608 -0.26352525 0.08085481
0.4621995 0.23591685 -0.05344058 -0.025231006 0.29351482 -0.3459572 0.14315993 -0.24683689
0.27492452 -0.18359907 0.045472782 0.22847182 0.35318744 -0.059599806 0.46943456 -0.41785452
-0.08286939 -0.49196577 0.04828614 0.14639445 -0.18345343 0.2182517 -0.08976578 -0.48059782
0.37424946 0.30544287 0.27168584 0.4627548 0.17409198 0.28065598 0.4745248 -0.024676608
-0.38495696 -0.24675287 -0.07900243 -0.076871686 0.016054088 0.30309057 0.16535448 -0.39022955

scale_down.conv1_1.dilation_conv1d.weight f4 [16, 16, 4]
00000000: 8593 06bd a609 d9bc 8b25 a33d fe97 39bd
00000010: f909 42bd 7546 8cbc d720 e1bc ddfa ffbc
00000020: 3f48 01be cd67 df3d 6970 7c3d ee69 61bd
00000030: a368 a9bd 9af1 903a aafa 8d3d 1545 bbbd
00000040: 6654 23bd f855 633d 5e3d aabd f75c 703c
00000050: d464 b7bd 89b2 ef3d 1b3d 923d 22d6 d7bd
00000060: 38f6 97bd 4dd6 273d c1ea b73b 4771 de3c
00000070: 1450 cdbd a68f 84bd b9e0 843d 5b9c ecbd
00000080: 3264 f9bc e141 533d 2d97 773d 9fff 7a3c
00000090: d6c1 ef3c 355f 553d 6cc8 7dbc a412 5abd
000000a0: fd6d ce3d b42f ff3d b591 6e3d 972b 2dbd
000000b0: e976 d8bd 1860 f7bd d7de e13b dba9 7fbd
000000c0: 8e90 11bd 050a a4bc 7059 ea3d 6e4a f63d
000000d0: dd79 88bc de1e 24bd e7cf 6a3d 15be 69bc
000000e0: 2092 e9bd 1524 333d 8efa f93d 2d05 c4bd
000000f0: 2350 14bd dc3f c43c 6e5e c8bd 6fe3 24be
00000100: 19c9 b33d 1048 46bd cde0 993d 33f2 273d
00000110: 9e58 cc3c 0779 b3bd 5f90 ccbc ba51 ed3d
00000120: 0d81 803d 002a 07bd 6f81 1e3c de93 433d
00000130: 282b d5bd 5ac8 ab3d b354 23bd e657 2fbd
00000140: b969 733d 8b99 cfbd d44b 1abd b9d8 993d
00000150: 5e5a 2b3d 8eda 55bd c9fe 0abd 9ef7 f63d
00000160: f5f5 563d 9b97 b53d f2e1 9fbd 2589 003d
00000170: e1de c13c b9b8 b33c 246f 083e e902 253e
00000180: 8e28 be3d ef3f 6f3d d7a1 373d 5be1 87bd
00000190: 7e18 ddbd d995 cdbd 38ec 79bd f543 6ebd
000001a0: b105 623d 9cd7 0b3d 9f75 2dbd 1c2d ccbd
000001b0: 98bd f13d fa23 be3d c645 993d ae99 4d3e
000001c0: 90e6 7bbd 218a 8bbd 87ef a0bd 64cd 36bd
000001d0: 105e d8bd eb9c d33d 10a2 833b bfb4 1e3d
000001e0: 3f54 97bd c627 8abc 5b59 873c 61d6 8cbc
000001f0: c98d e43d 23d2 61bd 3176 983d 3a89 86bc
00000200: d5de a0bc b1d4 18bd c1d9 703d b699 0d3e
00000210: 662a cf3c 3649 80bc fc5d e1bc abb3 1e3e
00000220: 55ea c8bc d42c be3d 698b 87bd c070 ab3c
00000230: e69d 033e faf7 b63d 0c1c 8a3d a787 833c
00000240: 7cce 74bd 3f65 ad3b 7989 b43c 0d9f aebd
00000250: 4da7 9a3c 1745 8a3d ace1 f7bd 6cf3 96bd
00000260: f217 92bd 14f8 9c3c 85d6 afbc 0e96 873c
00000270: 836f edbc 2e08 99bd 1c50 6b3d d4d3 623e
00000280: f816 8ebd 9947 e73d 5e6a 993c 3675 483d
00000290: 24bb e8bd 0d39 eabd 379a 773d 352a b7bd
000002a0: 7f45 d6bd a779 713d 0060 5d3d 9d2e eebd
000002b0: dc0c ae3d 2b65 c7bc 58bf f43d 30f6 683d
000002c0: 1725 eabd 08eb a3bd 2969 edbc 9914 44be
000002d0: 945f 8bbb 12a1 6dbd b29b f7bc 7508 29bd
000002e0: 4580 3f3b 3d56 01be ddfc 863d a14c 3fbd
000002f0: 1a8f 913d 0e8f f43d 7727 3fba 1d37 bf3d
00000300: 1b95 843d b721 afbc d276 e9bd 3ced af3d
00000310: b106 603d 3903 a5bd 5d2e c1bd 168f 563c
00000320: 95a2 013d 82b0 50bd 4231 313b 5120 e7bd
00000330: bf14 3fbd 80c8 09bc 6279 20bd 4748 ac3d
00000340: c509 393d 6c7c 003e db41 a83d 7e8f 5fbd
00000350: 2a0a 59bd 94b6 743d 680c c2bc f7cd e13d
00000360: b0cc e2bc 6a28 f03d 22ef f33c 98d6 a7bc
00000370: 8b7f bebd 43f0 9f3d 8658 1a3d af2f 6a3e
00000380: 4111 6e3d 1195 843b 6779 75bd 353b bbbd
00000390: bfe1 71bc 1672 a63d 1c62 a13c f0eb 473c
000003a0: e090 4dbc b4e0 4e3c 6717 a73d 0ec8 963d
000003b0: de92 97bc 085b 903b 0834 f63d 6d0b 303e
000003c0: 9cce fcbb 079b af3d a3c9 803d e738 9fbd
000003d0: c4f7 583d 44c7 b43c 8eab 08bd bec1 f1bc
000003e0: 18a9 ed3d 7ffb e43c 30cc eabd 960c b93d
000003f0: d90c da3b cbd3 643d d749 643d fab7 1c3e
-0.03285553 -0.026493859 0.07966145 -0.045310967 -0.047372792 -0.01712344 -0.02748148 -0.03124755
-0.12625216 0.1090847 0.06163064 -0.055032663 -0.08271911 0.0011058331 0.06932576 -0.09144036
-0.03987541 0.055501908 -0.08312486 0.014670602 -0.08954778 0.11703975 0.07140561 -0.105388895
-0.074200094 0.040975858 0.0056127016 0.027153624 -0.10025039 -0.06472711 0.06488175 -0.1155326
-0.030443285 0.0515765 0.060446907 0.015319734 0.029267233 0.05209275 -0.015489679 -0.053240433
0.10079572 0.124602705 0.058244426 -0.0422779 -0.10569555 -0.12078875 0.0068930197 -0.062417846
-0.03553825 -0.020024309 0.1144284 0.12025915 -0.016659671 -0.0400685 0.057327177 -0.0142665105
-0.11404824 0.043735582 0.12205993 -0.095713 -0.036209237 0.023956232 -0.09783636 -0.16102384
0.08778591 -0.048408568 0.075135805 0.041002464 0.0249446 -0.087633185 -0.024971185 0.11587854
0.062746145 -0.03299904 0.009674414 0.04774844 -0.10408622 0.083878234 -0.039875697 -0.042808436
0.059426997 -0.10136708 -0.03766997 0.0751204 0.041834228 -0.052210383 -0.03393439 0.12058948
0.052480657 0.08866807 -0.078067675 0.03138079 0.023665847 0.021938669 0.13323647 0.16114391
0.09285079 0.05841058 0.044832077 -0.0663478 -0.10795687 -0.10038347 -0.06101629 -0.058170278
0.05518121 0.034141168 -0.0423485 -0.099695414 0.1180374 0.09284206 0.07484011 0.20078155
-0.06149918 -0.068134554 -0.07858186 -0.04462947 -0.10564816 0.10332664 0.004017122 0.03874659
-0.073891155 -0.016864669 0.0165221 -0.017192068 0.11159856 -0.055132043 0.07444418 -0.016422857
-0.019637505 -0.037312213 0.058801416 0.13828167 0.025288772 -0.01565991 -0.027510636 0.15498225
-0.0245258 0.09285894 -0.06618387 0.020927787 0.12853202 0.089340165 0.06743631 0.016055895
-0.05976723 0.0052916105 0.022038208 -0.0852643 0.018878603 0.06751459 -0.1210359 -0.07370648
-0.071334735 0.019161262 -0.021464596 0.016551044 -0.028983837 -0.07472263 0.057449445 0.22151119
-0.06937975 0.11292953 0.018727478 0.048939906 -0.11363819 -0.11436663 0.060449805 -0.08943597
-0.10462474 0.058953907 0.05404663 -0.116299845 0.084985465 -0.024340233 0.119505584 0.056875408
-0.114328556 -0.08003813 -0.028980808 -0.19148482 -0.004253337 -0.058014937 -0.030225608 -0.04126783
0.0029220742 -0.12630554 0.065911986 -0.04670394 0.071073726 0.11941348 -0.00072919525 0.09336684
0.06473752 -0.021378381 -0.11399616 0.08590171 0.05469388 -0.08057255 -0.09432671 0.013095638
0.03164919 -0.05094958 0.0027037417 -0.11285461 -0.046650644 -0.008409619 -0.03917826 0.08412223
0.045175333 0.12547463 0.08215686 -0.054580204 -0.05298821 0.059744433 -0.023687556 0.11025613
-0.027685493 0.11726458 0.029777113 -0.020488068 -0.09301671 0.07809498 0.03768208 0.22869752
0.058121923 0.0040460904 -0.05993023 -0.09142152 -0.014763295 0.08127229 0.019700103 0.012202248
-0.012546748 0.012626816 0.081587605 0.07362376 -0.018502649 0.004405383 0.12021643 0.17191859
-0.0077150594 0.08574491 0.06288459 -0.07774525 0.052970663 0.022067674 -0.033366732 -0.029511329
0.11604518 0.027951954 -0.11464727 0.09035604 0.0066543636 0.055866044 0.05573448 0.15304556

scale_down.conv1_2.dilation_conv1d.weight f4 [16, 16, 4]
00000000: 0de5 f2bb 795f d9bd a44d c03d b983 d93d
00000010: a0da c1bd 146c 08bd 1c9c 91bd cc94 8abd
00000020: 1409 e13d fa68 73bd a981 803d 5a67 873d
00000030: 8ea5 be3c e3a8 98bd e814 343b 30ba 48bd
00000040: c134 f33d ca94 af3d 5916 b93a ef9a c43d
00000050: 8b29 c3bd 55c8 8f3d bf3b 863d 86cf 0b3e
00000060: 370c 10bd 154f acbd 17e7 ca3d c8b7 fb3d
00000070: fea0 cb3b 86ed e33c 2434 023e 062b d6bd
00000080: 9ab5 f6bc 29a6 bbbd 10db 6b3d 188f c73d
00000090: 0348 d4bd 3ecc 9fbc 8206 f8bd 1a09 c73d
000000a0: 38b1 c43d 3d19 253d a425 8b3b 7a79 ec3a
000000b0: d316 9d3d 3032 1f3d c566 bdbd 76de f13c
000000c0: 1491 c83d 34f8 9e3d afa0 c7bd 8b9c 7abd
000000d0: 47cd a73d c4d3 c63d 9638 96bd 87ef 7fbd
000000e0: edc6 0f3d fc1a 80bd 72a9 9d3d 82ed 0e3d
000000f0: bb84 ad3d 0a31 a0bc c236 f3bc 703c e7bd
00000100: 3f5c e83d ba5d 863d c9f7 243c d1ed 66bd
00000110: ea35 d23d 7a44 e63d 9dbf ddbc c745 a7bd
00000120: 1161 68bd 9455 a23d 234f d3bd 6ab9 8fbd
00000130: 6a0b 88bb 4f13 993d ce29 9fbb 25fb 1fbe
00000140: 5993 b8bd 3b62 243d 042e 37bc 68b0 9b3d
00000150: 0ab5 a23d 8928 363d 6d0f 5b3c b015 19bd
00000160: 19b9 a4bd c039 f8bd 2040 693d d158 783c
00000170: 7eb1 cc3d aa5c 42bd 7a71 efbd a6b0 93bd
00000180: 2f90 b8bd e738 f4bc 311a f9bd 368c be3d
00000190: 4897 bc3d d632 fb3b 5452 06be b46e 813d
000001a0: 20cb ecbc fa48 f53c caec 0ebd e7e9 cdbd
000001b0: 0a73 d3bd 1316 0c3d 3157 1ebd 7a8c f43d
000001c0: d92e 4ebc 1ceb a73c 95d0 923d b37e 3c3e
000001d0: d8a2 4b3d d82b df3d f45f b93d c7eb 253e
000001e0: 37eb c9bd 5409 553d 514f 32bd 563c 26be
000001f0: 6e6c 403c c237 bc3d c4d4 ea3d 1d87 1cbd
00000200: 5b98 5c3d 9d23 0ebc f650 893c d0bd ba3c
00000210: cfc7 76bd eed9 a1bd f4a9 dfbd aff1 42bd
00000220: 7a51 ea3d aa5b 373d f2e5 433c 4a30 19be
00000230: fa05 1dbc f393 f4bd f4fe d63c 4256 52be
00000240: 9e52 a83d 6540 ad3d 0a55 c7bd 459f 453e
00000250: 71b1 fdbc 4a8e 00be 0546 1abd 6665 22bb
00000260: 2f6d 8f3d 35fe 023c 3861 bc3d 4cda 93bd
00000270: 98b2 70bd 56ee fcbd 0dfb 0bbc a831 e2bd
00000280: 86c8 813d a03c 873d 9772 33bd 8330 4c3e
00000290: 1554 acbd 0cd4 bcbd 00b4 07bd 5e31 a73d
000002a0: 7e61 de3d 9026 b0bd 941e d13d 790a e73c
000002b0: def2 88bd 3192 a8bd c58d 473d 2c00 f4bb
000002c0: aae2 cc3d dd5d 833c 7756 fcbd 6852 f93d
000002d0: 97cf 39bd 450d 92bd 7e86 a9bc 6e05 233e
000002e0: 3aa8 7bbd 2d19 a5bc 9b2a 87bd 5581 e0bc
000002f0: a745 be3d 75b6 df3d d2fe ec3d 333c 09be
00000300: 597f bdbd 8d71 b83d 79bd 733d 1926 e6ba
00000310: 8a37 83bd f552 c8bd b6d6 47bd 0f98 e23d
00000320: 535d 66bd dff0 9ebd 8feb 1b3d d513 ef3d
00000330: 4eda 783c f7a5 f43c 8f0d 973d 4839 a83c
00000340: 51e6 dbbd 040d a03c 4d0d 94bd 7e03 d2bc
00000350: f60a 81bd 77b1 f13d e683 92bc 4159 c43d
00000360: 7cf6 bfbd 14be dbbd 4164 5cbd 68f0 32bd
00000370: 43eb d13d f170 c1bd 5443 67bd a483 1a3d
00000380: a90b 373c 5f6a 2dbd e47d b23d 2c59 d9bd
00000390: 9111 553d f342 d93c f547 7abd 3094 d43b
000003a0: 1cbc 3a3d b530 1cbc 7826 37bd 1421 813d
000003b0: a51b 41bd d45f b2bc a1bc b6bc 2499 e5ba
000003c0: 5c99 4a3c a55d d83c d40b c7bd 1827 08be
000003d0: 61ab d13c 10ef d33d 8627 95bd fb90 8bbd
000003e0: 3023 a6bd 3114 e5bd 1509 e7bd 6935 ba3d
000003f0: f678 b9bb 07d2 86bd 272c ef3d 5535 7d3c
-0.007412559 -0.10613913 0.09389809 0.10620827 -0.094655275 -0.033306196 -0.071098536 -0.06766662
0.1098806 -0.059426285 0.06274731 0.066115096 0.023272302 -0.074540876 0.0027478281 -0.049005687
0.118752964 0.08573301 0.001412104 0.09599864 -0.09529408 0.07020632 0.065543644 0.13653383
-0.0351679 -0.08413521 0.09907358 0.12290913 0.00621426 0.027823221 0.12715203 -0.10457425
-0.030115891 -0.09162552 0.05758196 0.0974409 -0.10365298 -0.01950657 -0.12110616 0.09718533
0.09604114 0.040307272 0.0042464305 0.0018041574 0.07670369 0.038866222 -0.09248117 0.029525023
0.097932965 0.07762185 -0.09747445 -0.061184447 0.081934504 0.0970836 -0.07335012 -0.06248429
0.03510182 -0.06255147 0.07698335 0.034894474 0.08472582 -0.019554634 -0.029689196 -0.112908244
0.113457195 0.06560846 0.010068842 -0.056379143 0.102641895 0.112435296 -0.027068907 -0.08167606
-0.056733195 0.07926479 -0.103178285 -0.07017787 -0.0041517513 0.07474386 -0.0048572784 -0.15623148
-0.09012479 0.040132742 -0.011180405 0.07602006 0.07944687 0.04447225 0.013370377 -0.0373742
-0.08043117 -0.1212039 0.05694592 0.015157894 0.099947914 -0.047451653 -0.11691566 -0.072114274
-0.09011876 -0.02981229 -0.12163199 0.09304087 0.09208542 0.007665972 -0.13117343 0.06319943
-0.028905451 0.029942024 -0.03489379 -0.10054379 -0.10324676 0.03420074 -0.03865737 0.11940856
-0.012584412 0.020497851 0.0716869 0.18407707 0.049715847 0.108970344 0.09051505 0.16203223
-0.09859317 0.05201085 -0.043532673 -0.16233954 0.011744602 0.091903225 0.11466363 -0.03821479
0.053856235 -0.008675483 0.016762238 0.022795588 -0.060249146 -0.07902895 -0.10921088 -0.04759377
0.11441322 0.044765152 0.011956679 -0.14959827 -0.009583944 -0.119422816 0.026244618 -0.20540717
0.08218883 0.08459548 -0.09733017 0.19299038 -0.0309684 -0.12554279 -0.037664432 -0.0024779676
0.07003247 0.007995178 0.091982305 -0.07219371 -0.05876407 -0.123501465 -0.008543742 -0.110446274
0.06337075 0.0660336 -0.043810453 0.19940381 -0.08414475 -0.09220132 -0.033130646 0.08163713
0.10858439 -0.08601105 0.102109104 0.028203236 -0.06686948 -0.08231009 0.048719186 -0.0074463096
0.1000417 0.016035968 -0.12321179 0.12173921 -0.04536399 -0.07131437 -0.020694014 0.1592004
-0.06143973 -0.020153606 -0.06599923 -0.02740542 0.09290629 0.10923473 0.115720406 -0.1340187
-0.09252805 0.09006033 0.059506867 -0.0017558961 -0.064070776 -0.09781448 -0.04878875 0.11064159
-0.056241345 -0.07760786 0.038066443 0.116737045 0.015188767 0.029864294 0.07375633 0.020535126
-0.10737289 0.019537456 -0.072290994 -0.02563643 -0.06300919 0.11801427 -0.01788516 0.09587336
-0.09373185 -0.10729614 -0.053806547 -0.0436863 0.10249951 -0.0944537 -0.056460693 0.0377232
0.011172214 -0.04233777 0.08715418 -0.10612711 0.052018706 0.026521182 -0.06110378 0.006487392
0.04558955 -0.009533097 -0.04471442 0.06305137 -0.047145505 -0.02177421 -0.022306742 -0.0017516953
0.012365665 0.02641184 -0.09719053 -0.13296163 0.025594415 0.10348332 -0.07282929 -0.06814762
-0.0811218 -0.11185492 -0.11281029 0.090922184 -0.0056601716 -0.06583028 0.11678343 0.01545461

scale_down.conv2.dilation_conv1d.weight f4 [1, 16, 16]
00000000: c483 62bd 8cfb a33c bf7a 62bd 67d3 523d
00000010: 20f4 dabc ab64 a93c ed61 003c 511a 42bd
00000020: d902 0cbd b009 8e3c 8282 6e3c a6d6 dabc
00000030: 290f 133c edda 10bd 4b0c 813d 5026 9b3c
00000040: 58c8 213d 6796 2ebd b91a 023d 3382 253d
00000050: d25e bc3c 10d0 293d 3cb3 553d 5a4d 2f3d
00000060: 8fb3 613b a7c6 3d3d 287a 4ebc 8e33 8d3c
00000070: 77a7 083d 00e6 853d 00f6 793d 9ac7 1b3e
00000080: c501 56bc aaf8 1b3d b76c 7fbb 3892 c9bb
00000090: 3c4d 003d e206 1b3d 6556 aebc ad92 253d
000000a0: 1854 0c3b 4e02 3dbd a094 33bc 9dc8 313d
000000b0: c823 023d bae8 813d 3879 973d 4403 663e
000000c0: aa2b 1f3d c51a d93c 03fc 41bc 04d6 2bbd
000000d0: 253a e9bb 2d55 523c 9172 dbbc 3b98 233d
000000e0: 5aa5 7ebd d2e8 08bd 98ab 37bd 7d32 27bd
000000f0: 58bd 60bc ce26 40bd 1187 31bd d143 92bd
00000100: 5aa8 093d 0560 88bd 2041 29bd adfd 293d
00000110: e1c3 663d 503a 283d 76c8 4fbd 5be5 373c
00000120: b15e 3f3d 6918 4fba a897 573d ac6c 503d
00000130: ebad a7bc 3b87 203c 3aa4 9fbc 2a15 f5bc
00000140: 7733 5f3d 193d 663c 444f 533d 755b bf3c
00000150: 7ef9 04bc c6d2 743d 105d 12bd 1f25 26bd
00000160: 3ca2 173d 938e 823d ac0e 9bbc 9a81 033d
00000170: d62e 38bc d847 613d b8bf b8bc 0e45 38bd
00000180: a204 0fbb ba28 7e3d 0530 a6bc 48b9 5dbd
00000190: 9e26 9abc d2fb bb3c cd15 063d 087d 733d
000001a0: 0f29 7d3c 96bc 033d 8f4f bbbb fb9b b1bc
000001b0: 4c08 2bb9 7f33 9e3d 2436 a63d 6c2d 193e
000001c0: ed32 fd3b 11d4 0abd 7378 e4bb 02f7 b8bc
000001d0: 9b83 703d ec24 99bb 913a 7e3c 1ee9 6c3d
000001e0: 3663 8abc 8159 023d c166 0fbd d954 22bd
000001f0: f2b2 ad3c 2567 be3b 3745 8c3d 01d5 933d
00000200: ccfb 29bb 5bee 2c3d 4012 b5bb 5517 05bd
00000210: 732d 6b3d 52a0 9bbc c615 65bd e339 3b3d
00000220: 2069 8abd 5266 00bd a7ad 2c3d 379b 20bd
00000230: e07f 633d 36f0 843d e9b3 ce3c eb90 4bbd
00000240: 592e 3dbc 7cd1 453d b845 27bd 8c25 023a
00000250: 6cf8 52bd 2a5f b0bc b5a2 bf3b b28c 93bc
00000260: fb80 a93c bf84 f2bc 92f5 5abd f9cf 3c3d
00000270: c19a 783c b7d5 64bc c125 323a 4983 37bd
00000280: cc48 e03b 23f6 813d 6461 bbbc 1d1f 56bd
00000290: bb4a 923c df56 40bd a167 16bd 1f75 653d
000002a0: 1bc4 6dbd a727 0abd b092 293d 5944 893c
000002b0: 0862 253d e28e c63d e81a b23d edd1 753d
000002c0: a4db ce3b 3e7c 73bd 2c5b 043c b7a5 b3bb
000002d0: 54d7 34bd 3656 023d cbdd 6a3c 5b3b 1f3b
000002e0: 5385 1c3d 7922 1e3d a099 d83c 7760 9b3c
000002f0: b2e5 693c 3eaa 9e3c ed7a 803d 1b26 463c
00000300: cd2e b53c 84c5 603d 637c 513c 1b0c e0bc
00000310: e17a e33c ba37 46bc 9199 f1bc 0efa 31bd
00000320: 60ef c33c 30a1 ebba 7291 86bd d9f1 f63c
00000330: 8b0d 323d eace 4cbc 8aae e23c cd88 f73d
00000340: 8b8d 40bc 54aa 973c f5ee 44bd 927d 56bd
00000350: 6ca9 fcbc 448e 4cbd fa85 9a3c ce10 543d
00000360: e6f7 a13b c365 053d 0d82 a83c 7bec 52bc
00000370: ccbc ddbc 3527 2f3d 8a2b 133d f8e7 083b
00000380: 8021 843d 1618 30bd 9b59 f93c cd86 f43b
00000390: 5e57 433d d0f3 f7bc 927c 4c3c 2e2b 51bd
000003a0: d1bd 53bd b154 66bb 727c 733d 71cf 6e3b
000003b0: 9c84 f43b f627 6f3d c71c 373d b5d6 c23d
000003c0: d249 b1bc 0e60 e2bc f980 873d 814b 1bbd
000003d0: d39a 71bd dfde 623c 1ca9 94bb b2ad 5c3c
000003e0: f689 42bd 107c 083d 73c1 093d 479b 6bbc
000003f0: 44f4 a0bc 2348 5f3d ad7c bf3d ff69 d53d
-0.055301443 0.020017408 -0.05529284 0.05147114 -0.026727736 0.020677885 0.007835847 -0.04738838
-0.034182403 0.017338604 0.014557483 -0.02671368 0.008975782 -0.035365034 0.06301173 0.018939167
0.039497703 -0.042623904 0.031763766 0.04040737 0.022994433 0.04145819 0.052172884 0.042798378
0.00344393 0.046332028 -0.0126023665 0.017236497 0.033362832 0.0653801 0.06102562 0.1521286
-0.013061945 0.03807894 -0.0038974711 -0.006151464 0.031323656 0.03784836 -0.02128143 0.040423084
0.0021412428 -0.046144776 -0.010960728 0.04340421 0.031772405 0.06343217 0.073961675 0.22462183
0.03886 0.026502023 -0.011839869 -0.041952148 -0.007117527 0.01283769 -0.026788028 0.0399401
-0.06216941 -0.03342516 -0.04484138 -0.040819634 -0.013717018 -0.046912007 -0.0433417 -0.07141841
0.03360782 -0.06658939 -0.041321874 0.04150169 0.05633915 0.041071236 -0.050728284 0.011224116
0.046721164 -0.0007900061 0.052634865 0.050884888 -0.020468673 0.009797866 -0.019487489 -0.029917318
0.05449244 0.014052653 0.051589265 0.02335904 -0.008116124 0.05977132 -0.035733283 -0.040562745
0.037019953 0.0637485 -0.018927895 0.03210602 -0.011241635 0.055000156 -0.022552356 -0.04498773
-0.002182283 0.06205056 -0.02028657 -0.054131776 -0.018817242 0.022947226 0.032735635 0.05944541
0.015451684 0.03216227 -0.005716271 -0.021680823 -0.00016310922 0.07724666 0.08115795 0.14958733
0.007727018 -0.03389365 -0.0069723665 -0.02257872 0.05871926 -0.004673591 0.015516893 0.057839505
-0.01689301 0.03182364 -0.035010103 -0.0396317 0.021203492 0.0058106356 0.06849139 0.07218362
-0.0025937436 0.0422195 -0.005525857 -0.032492954 0.05741639 -0.018997345 -0.055928968 0.045709502
-0.06758332 -0.03134758 0.042157795 -0.039210524 0.055541873 0.06491129 0.025232272 -0.04969875
-0.011546695 0.048295483 -0.040837973 0.00049647014 -0.051506445 -0.021529753 0.0058482536 -0.018011425
0.020691385 -0.029604314 -0.05345685 0.046096776 0.015173615 -0.013966969 0.0006795787 -0.044802938
0.0068446156 0.06345775 -0.022873588 -0.052275766 0.0178579 -0.046957847 -0.036719922 0.0560199
-0.05804835 -0.03372922 0.041399658 0.016756224 0.040376693 0.096952215 0.08696538 0.060014654
0.0063128043 -0.05944466 0.008078378 -0.0054824012 -0.044150665 0.0318205 0.014335106 0.0024296853
0.038213085 0.038607094 0.026440442 0.018966896 0.014275955 0.019368287 0.06273446 0.012094046
0.022117043 0.054875866 0.012786004 -0.027349522 0.027768554 -0.012098247 -0.029492171 -0.04345136
0.023917854 -0.0017977115 -0.0657071 0.030144619 0.043469947 -0.012500504 0.027671117 0.120866396
-0.0117524965 0.018513836 -0.04807945 -0.052365847 -0.030842505 -0.049940363 0.018862713 0.05177384
0.004942882 0.03256775 0.020569826 -0.012873764 -0.027067564 0.042762 0.035930194 0.0020890217
0.06451702 -0.04299172 0.030438235 0.0074623586 0.04769074 -0.030267626 0.012480872 -0.05106657
-0.051694695 -0.0035145695 0.059444852 0.0036439563 0.0074620973 0.05838772 0.04470518 0.09513608
-0.021641646 -0.027633693 0.066163965 -0.037913803 -0.058985543 0.013847082 -0.004536761 0.013469147
-0.04749485 0.03332144 0.033631753 -0.014380283 -0.019647725 0.054512154 0.09349952 0.10420608

scale_up.conv1.dilation_conv1d.weight f4 [16, 1, 4]
00000000: 88e7 01bd c1be d03d 5685 7dbe 9c5a 1b3d
00000010: e9c6 e13d c925 8f3e ee2f c5be d0da be3e
00000020: c847 123b 7214 f5bc facc 4b3e a453 2b3d
00000030: 7dd9 e3be 442f e0be 2c56 c3bd 65e8 f63e
00000040: 0213 ccbe 617a ec3e 6066 6fbe a932 8a3e
00000050: 24b0 9b3d 50d0 d0be 31b5 c63e 9fec b3be
00000060: ce4f f9bd ba42 04be 6a13 ce3e a067 cfbe
00000070: 9a4c e9be a1fd 863d 52ed 0ebe cd7e 98be
00000080: f09a a1be ec14 e5be bc2c d83e f357 c5be
00000090: c31f 1d3e 9673 873e 61d9 1b3d 55a6 133e
000000a0: 657f 543e 446f e9be 9f0f b83e 3397 f73d
000000b0: 9e9d ef3e d8fa 85be 1b0f 81be 0652 e23e
000000c0: 5d9e fbbe 1a07 97be 8bd7 b23e 5a57 563e
000000d0: fdf2 b4be 074a 91be 25cc c03e 6095 4c3e
000000e0: f3e4 e6bd 35d6 cabe 8fbb e2be ab5a c53e
000000f0: 1187 673d 4f44 803e c956 2a3d 9775 f03e
-0.031714946 0.101926334 -0.24757895 0.03792821 0.11024267 0.27958515 -0.3851313 0.37276316
0.0022320617 -0.029916976 0.19902411 0.041827813 -0.44501868 -0.4378606 -0.0953792 0.48224178
-0.39858252 0.46187118 -0.23378897 0.26991776 0.076019555 -0.4078393 0.38810113 -0.35141465
-0.12173425 -0.12916079 0.40249187 -0.40508747 -0.45566255 0.065913446 -0.13957718 -0.2978424
-0.3156352 -0.44742525 0.4222163 -0.38543662 0.15344147 0.26455373 0.038049106 0.1441892
0.20751722 -0.455927 0.35949418 0.12089386 0.4679994 -0.2616794 -0.25206837 0.44203204
-0.4914426 -0.29497606 0.3493007 0.2093176 -0.35341635 -0.2837679 0.3765575 0.19978857
-0.11274137 -0.39616552 -0.4428372 0.38545737 0.056525294 0.25052115 0.04158667 0.46964714

scale_up.conv1_1.dilation_conv1d.weight f4 [16, 16, 4]
00000000: 5b31 323d 7088 003d e540 903d fdd6 8bbd
00000010: 1676 04be 8287 ac3d 21cd 023d 53eb 463c
00000020: 2fcf 3f3c e451 d4bc 2b4b 08bd 253c bebd
00000030: 4fed fb3c 9aed 84bb 2adf c83d 3c8f 94bd
00000040: 3259 413d 7028 f3bd 58cd e6bd 92db 923d
00000050: e384 ab3d 13dc 513b 4b2a a43c 4397 ee3d
00000060: 6d48 c7bd d507 d2bc 0604 c1bd 0364 ddbc
00000070: bdcd 5ebd d635 493d e351 423d 4367 2e3b
00000080: 6ead 9c3c 3435 28bb 807f 13bc 29ef 0e3d
00000090: e1c6 d43d 200b 723d ce35 9e3c 4327 52bd
000000a0: c233 ad3d cfc2 afbd f306 f03d 9505 8cbd
000000b0: c2e8 773d b5a9 753d fc57 833d d429 e3bd
000000c0: f871 08bd 51a4 d6bc 2654 ba3c 175e fe3d
000000d0: be09 cebc 5eb3 82bc c171 79ba 2d7c ec3d
000000e0: cf74 943c d466 623d 1c61 653d b2c1 e23d
000000f0: fbb1 9f3d f724 ef3d f29e f13d c98b 85bd
00000100: b76b d53d e125 26bd 02e3 003e f309 9bbd
00000110: f21d aa3d 5880 f93c 0109 6fbc fe48 f63d
00000120: 7292 02be e514 7c3d 5a48 00bb 2361 aabd
00000130: 9e9b f53d ae6d c43d ba88 e0bd cc7d b83d
00000140: 0593 ac3d e38c 973d 3824 c3bd 5c91 c7bd
00000150: 806b 40bd f545 883c 0bc0 013e 5bd7 d83c
00000160: 4061 f33d ecd1 9abd 2559 223c e119 9dbc
00000170: bac4 6dbc 58a0 4b3d 16a0 f2bd 4e2c 51bd
00000180: c3a7 5e3d d613 bcbd e3f7 e8bd 5eff 89bd
00000190: f418 10bd 7e84 87bd 01d7 a13d a711 5dbc
000001a0: 4aa0 043c 9bc9 c6bc 57b5 9ebd 6a1b 133d
000001b0: 55fc 33bd 1736 debd 803d 35bb 17c1 483d
000001c0: 2b52 e2bd c98a 96bd 9912 76bd 3215 b83d
000001d0: 8afa cabd 8235 9dbc f06e 563c a578 1cbd
000001e0: c14f 923d 61fe 4fbd 634d cc3d c6c1 dfbc
000001f0: e64b 7fbd 3432 21bd a1ef de3c 31da d93d
00000200: a1b4 3ebc bbfc c7bc 4b90 383d 8962 27bd
00000210: d3a2 473c 8fab 26bd a6b9 64bd 3b0d eb3c
00000220: 42d0 99bd 68d2 c83d 2596 12bc 5676 083d
00000230: 8bea d13c 4ea4 cabd 62ae 9abd 411e 1b3c
00000240: 02aa ab3d b8e1 b83d 8e47 723d 73fb 923d
00000250: 6573 78bd 2727 643d 347d 033d 6024 55bd
00000260: d19d e23d 45db 583d c985 54bd d5a9 c03d
00000270: 7f97 ccbc bf66 8abc fb17 96bd 58ac 81bd
00000280: 7bbd 803c 1950 a7bd 78c1 d73d a11b 83bd
00000290: 6279 203d bb82 113d 6c34 d4bd 407b d33d
000002a0: bf5a 17bd cda5 323d 2122 debd 6f90 e7bd
000002b0: 5389 223d c79c a93d d182 0b3d 978d 6c3c
000002c0: a72a a0bd 26a2 84bc 089d 2e3d 3885 b63d
000002d0: 7343 25bd 3d50 9c3d 7563 85bd 7c37 78bd
000002e0: 079e c43d 7dc0 45bd e283 87bd 0908 843d
000002f0: d91d 5bbd 2c71 3fbd 358b 15bd 1b43 c03d
00000300: 76cc d83d 82ab abbd 52a2 d7bd 890e f3bd
00000310: 55ec fabd 1e9d 943d 97fe e3bd 635c b83d
00000320: c79a a53d ebe8 0cbc 8e64 dbbc bea8 95bd
00000330: 60ad 6c3d 6b54 8e3d 881c 7b3d 2293 94bd
00000340: 41b1 353d 06d5 413d e3e9 a43d 1cf5 9b3d
00000350: fc56 133d b844 3d3b 2643 013e 4912 76bd
00000360: dddc b53c cdbc e4bd d99e f8bd 33d2 a5bd
00000370: 2f15 f33d 14bd 2a3c 0ed3 08bd 331a 1cbd
00000380: be54 a2bb b5d4 7cbc 9f63 cdbd d630 3b3d
00000390: cc5a 7ebd 081f 18bc f7b7 cebc 7365 9b3d
000003a0: ddba 623c 0010 f2bd b6a9 f13d 1115 00be
000003b0: 4f5d a13d f0f4 be3d aa61 94bd 5c53 cebc
000003c0: 1166 273d 0c0e 923d bd66 df3d 43f0 67bd
000003d0: b3e4 bf3d 5e92 743c bc06 81bd ce7b 9d3d
000003e0: 3633 003e f45a a8bd 490e 75bd 3d14 08bd
000003f0: 76a7 91bd 5a7f b2bd d868 5b3d 63b7 bdbd
0.0435041 0.031380117 0.07043628 -0.06828115 -0.12935671 0.084242836 0.031933907 0.012141067
0.011707111 -0.025917955 -0.03327481 -0.092888154 0.030752806 -0.0040566446 0.0980819 -0.07253882
0.047204204 -0.11872947 -0.11269635 0.07170786 0.083749555 0.0032022044 0.020039698 0.11649945
-0.09730611 -0.0256385 -0.094245955 -0.027025228 -0.054395426 0.049123608 0.047441375 0.0026611842
0.019125666 -0.0025666477 -0.009002566 0.03489605 0.10389496 0.05909264 0.019312765 -0.051306974
0.08457138 -0.08582079 0.117200755 -0.06837002 0.06052471 0.0599763 0.06413266 -0.110919625
-0.033311814 -0.026201399 0.022745203 0.1242029 -0.02515113 -0.01595467 -0.0009515547 0.11547122
0.018122105 0.055273846 0.056000814 0.11072101 0.07797619 0.11676972 0.117978945 -0.065208025
0.104209356 -0.040563468 0.12586597 -0.07570257 0.08306493 0.030456707 -0.014589549 0.12025641
-0.12751177 0.061543364 -0.0019574375 -0.083193086 0.11992572 0.09591232 -0.109635785 0.09008369
0.08426479 0.07399919 -0.095283926 -0.09744522 -0.04697752 0.01663492 0.12670915 0.026469877
0.11883783 -0.07559571 0.009908949 -0.01917738 -0.014512235 0.049713463 -0.1184694 -0.051067643
0.05435921 -0.09183471 -0.11375406 -0.067381606 -0.035180047 -0.06617068 0.07902337 -0.013492978
0.0080948565 -0.024266055 -0.077494316 0.035914816 -0.043941814 -0.108501606 -0.0027655065 0.04901227
-0.110508285 -0.0735069 -0.06007633 0.08988418 -0.09911068 -0.019190554 0.013087973 -0.038200993
0.07144118 -0.050779704 0.09975698 -0.027314078 -0.06232824 -0.039354518 0.027213873 0.1063732
-0.011639745 -0.024412503 0.045059483 -0.040865455 0.012184816 -0.040690955 -0.05584111 0.028692832
-0.07510425 0.09805757 -0.00894693 0.03331598 0.025624534 -0.0989462 -0.07552792 0.009467662
0.08382036 0.090274274 0.05915027 0.071768664 -0.060656924 0.0557014 0.032101825 -0.052036643
0.11065257 0.052943487 -0.0518854 0.09407393 -0.024974583 -0.016894696 -0.07328793 -0.063317
0.015715351 -0.08169574 0.10534948 -0.06401754 0.03917826 0.035525065 -0.10361561 0.103262424
-0.036951777 0.04361515 -0.10846353 -0.113068454 0.039681744 0.08281856 0.034060303 0.0144380545
-0.07820635 -0.0161906 0.042630225 0.08912128 -0.040347528 0.07632492 -0.065131105 -0.06059979
0.09600454 -0.048279274 -0.066169515 0.06446845 -0.05349526 -0.04673879 -0.03650971 0.09387799
0.10585873 -0.08382322 -0.10529007 -0.11868007 -0.12252108 0.0725653 -0.111325435 0.09001996
0.08086162 -0.008600454 -0.026781347 -0.07307576 0.05778253 0.06949695 0.061306506 -0.07254626
0.044358496 0.047322296 0.08052423 0.0761511 0.035971627 0.002888007 0.12623271 -0.06007603
0.022200042 -0.111688234 -0.12139673 -0.08096733 0.11869275 0.010421056 -0.033404402 -0.038110923
-0.0049539497 -0.015431573 -0.10028767 0.04570087 -0.06209831 -0.009284742 -0.025234206 0.07587709
0.013838497 -0.11819458 0.11799948 -0.12508036 0.07879125 0.09324062 -0.072451904 -0.025186233
0.040868822 0.071315855 0.10908268 -0.056625616 0.09369793 0.014927475 -0.063001126 0.076896295
0.12519535 -0.08220473 -0.059828077 -0.033222426 -0.07112019 -0.08715697 0.053566784 -0.09263494

scale_up.conv1_2.dilation_conv1d.weight f4 [16, 16, 4]
00000000: 19da fdbc 976d 4e3d 747f 82bd ba9a 8c3d
00000010: d6c1 d43c a57e 74bd ca4c d53d b54e c03c
00000020: 2826 733d fbb0 cfbd 51ce 313c 0f08 debd
00000030: f23a fcbb e803 bd3b 0def eabd aa61 63bd
00000040: 338f b43d 4404 2abd 7879 8abb a31d c53d
00000050: 4a51 c9bd 39eb f93d 5265 ce3c c6bf 56bd
00000060: d11b 513d 4049 3abc f9c8 b7bc 02a7 653d
00000070: bb8a 913d 84a2 9e3d d2da c8bc 146b 9dbd
00000080: e87a afbd e7bd dcbc d32e 0cbd 00de 9ebd
00000090: 69c5 da3d b670 973d 1f9b d23c 8b51 cbbb
000000a0: 5327 953d fa3d 363c 7ab0 65bd ff5f 96bc
000000b0: afad 3a3d bb51 fbbd 7713 40bd e6c1 b0bd
000000c0: e9ae c03c 5eda e03d 7b6e 8abd 77dc 923d
000000d0: 8582 84bd a5d7 cfb9 cfe7 fcbd b355 e6bd
000000e0: 3e15 ab3d 4d7d 33bd 4a11 a43d d388 ba3d
000000f0: dce0 f4bd ce4a 6a3d bd5a ad3d fb96 863c
00000100: 4620 c73d 427d 72bd cf43 f2bd 103a babd
00000110: a1bf a9bc 8015 12bd d696 5cbd 3946 b4bc
00000120: 8ee6 78bc 9fef 123d 8b62 9ebd 7b34 d2bc
00000130: 5d30 5e3d cc03 b4bd f3b2 f5bd 9ef0 0c3d
00000140: 5ac6 cebb 129a 33bd 6f54 c2bd 1ca4 853d
00000150: 6cf5 e03d 8fc3 613c 382a 473c 4534 d93d
00000160: ee9a f13d 4c23 22bd 778d 2d3d 0b98 cbbd
00000170: ca22 913d 0672 5b3c e2ad 37bc b39a 203c
00000180: f472 c2bc 483b a33c 5089 843c 3012 acbd
00000190: 2b8d 6fbd 22c0 553d a777 eebd 8b37 8b3d
000001a0: e995 253d 7302 63bc 7b27 fa3d 8c6b d53d
000001b0: 0e82 46bc d042 d9bd fcf6 993a 49dd 873d
000001c0: 457d 783d ac1a f13d 7a3a 3c3d 21f2 48bd
000001d0: 4af1 e8bc fd97 913d dde5 babb c882 933d
000001e0: 7e66 cd3d 5782 65bd 3ed5 dcbd 9786 5ebd
000001f0: baac 06bd ac94 fd3c 9315 1f3c 277a eebd
00000200: 2394 943d cac6 d0bc 820a 293d a424 873d
00000210: a4da a43c a007 e03d 333d 83bd c2af a53d
00000220: b688 85bc ffb5 cdbd c7f3 87bd 66fd 1f3b
00000230: 3b67 003e 2677 c0bd 04bf d73d c0ad fcbd
00000240: 8a67 4ebd fe34 61bd e517 ea3d fb7f c13d
00000250: d457 9dbc 4cd0 50bd f4a0 f33d 6dc5 123d
00000260: 1344 81bd a20a 22bd 92a9 5d3d 0ae1 d0bc
00000270: 38c5 8a3d f786 81bd 541e 863d 7649 b53d
00000280: 29c7 d0bd a50b 933c 91a5 c9bd bf26 a03c
00000290: c56d b7bd 1460 c0bd 4d22 d2bd 1402 2dbd
000002a0: 5967 023d 5525 8f3d 539b 523d c46f 73bd
000002b0: 4e33 84bd 84f7 5b3d ef0b d13c 6512 aebc
000002c0: 4199 d7bd 8dca c93d 0a22 9fbd 446d fbbd
000002d0: 46e8 8bbb 3fa3 ebbc 0ac9 d1bd 27db 283c
000002e0: 09d7 e53d 7fff 8a3d a627 793d 479f 1cbc
000002f0: f498 babd 1ecf 1dbd 977b bebc 8c78 c53b
00000300: 08d4 ccbd 445e be3d 6b5e a43d 2ab9 7bbd
00000310: 3029 853d ed1d d8ba 1bc0 f33c 0084 843d
00000320: dbba ad3c 2fec ce3d accd 8cbd 7849 c03c
00000330: f029 c7bd ea59 5c3d de2e 1dbd e22c c13d
00000340: 917e 3dbc 2e99 f7bd dfee 2b3c 6722 c0bc
00000350: 731c 74bd 003e 22bd 88a2 01be 01f6 6bbd
00000360: 1d56 f1ba 82a2 d7bd 1261 bebd cd47 82bd
00000370: d513 a43c 71d2 35bd f624 74bd 4aa1 e0bc
00000380: 76cd fd3d 1fbc 0dbd b088 a9bd 63ca cdbd
00000390: 6bf2 653c e481 8abd ccc2 7a3d 7941 4abd
000003a0: 0a1d ca3c 1214 f6bd ec24 fcbb 2d81 8b3d
000003b0: bd03 1a3d d54b bdbc e364 a23d 4112 bd3c
000003c0: 737e ab3d 89b4 91bd 904f d3bd 046d 803c
000003d0: 7bf0 d13d 1fa7 6c3d e9fe ab3d 28ae e2bd
000003e0: fd7c f83c 0250 7b3d 3f09 013e 7dba f2bc
000003f0: b91c d6bd 71fe acbd bcf0 15bd 01a7 f33d
-0.030987786 0.05039748 -0.06371966 0.06865449 0.025971334 -0.05969109 0.10415037 0.02347503
0.05936256 -0.10141178 0.010852412 -0.10841381 -0.0076974565 0.005768288 -0.114713766 -0.05551306
0.088163756 -0.041507974 -0.004225906 0.096247934 -0.09829958 0.12203068 0.025194798 -0.052428983
0.05105192 -0.011370003 -0.022434698 0.056067474 0.07106539 0.07745841 -0.024518404 -0.07686439
-0.085683644 -0.026946021 -0.034224343 -0.07757187 0.10682184 0.07394545 0.025708733 -0.006204789
0.07282891 0.011123175 -0.056076504 -0.018356321 0.045575794 -0.12271448 -0.046893563 -0.08630733
0.023520904 0.1097915 -0.06759354 0.071709566 -0.06470207 -0.00039642784 -0.123489015 -0.112468146
0.08353661 -0.043820668 0.0801111 0.091081284 -0.11956951 0.057200246 0.084645726 0.016429415
0.097229525 -0.059201486 -0.1182934 -0.09093106 -0.020721259 -0.035665035 -0.053854786 -0.022006141
-0.015191687 0.03587305 -0.07733639 -0.02565979 0.05424534 -0.08789787 -0.119970225 0.034409158
-0.0063102664 -0.043848105 -0.09488761 0.06525442 0.109843105 0.013779535 0.012156062 0.10605673
0.117971286 -0.039584443 0.04237124 -0.09941109 0.070867136 0.0133938845 -0.0112108905 0.009802508
-0.023736455 0.019925728 0.016178757 -0.084019065 -0.058484238 0.052185185 -0.116439156 0.06797703
0.04042617 -0.013855564 0.122145616 0.104209036 -0.012115968 -0.106084466 0.0011746581 0.06634004
0.06066634 0.117726654 0.045954205 -0.049059037 -0.028435368 0.071090676 -0.0057036714 0.07202679
0.100293145 -0.056032505 -0.1078286 -0.054327574 -0.03287957 0.030954681 0.009709734 -0.116443925
0.07254817 -0.025485415 0.041269787 0.065987855 0.020123787 0.10938954 -0.06408157 0.08090164
-0.01630054 -0.100444786 -0.06638294 0.0024412512 0.1253938 -0.09397726 0.1053448 -0.12337828
-0.05039171 -0.054982178 0.11430339 0.094482385 -0.019206919 -0.050979897 0.11895934 0.03583281
-0.06311812 -0.03956092 0.054116793 -0.025497932 0.06775898 -0.063245706 0.065487534 0.08851902
-0.10194237 0.017949888 -0.098460324 0.019549726 -0.08956484 -0.093933254 -0.102604486 -0.04223831
0.03183684 0.069895424 0.05141766 -0.05943276 -0.06455098 0.053702846 0.025518386 -0.021249006
-0.10527278 0.098530866 -0.07770164 -0.122767 -0.0042696325 -0.028764365 -0.10243423 0.010306156
0.11222655 0.06787013 0.060828827 -0.009559459 -0.09111205 -0.0385276 -0.023252292 0.006026333
-0.10001379 0.092953235 0.08025821 -0.061455883 0.065019965 -0.0016488411 0.029754689 0.064704895
0.021207264 0.10103642 -0.06875166 0.023472533 -0.09724796 0.053796686 -0.038374774 0.09432389
-0.01156582 -0.120897636 0.010493963 -0.023453904 -0.059597444 -0.03960991 -0.12659657 -0.057607654
-0.0018412505 -0.10529043 -0.092958584 -0.06361351 0.020028988 -0.044390146 -0.05960556 -0.027420659
0.12392704 -0.034603234 -0.08278024 -0.10048368 0.014034848 -0.06763056 0.06122093 -0.049378846
0.02467205 -0.12015547 -0.007694831 0.06811748 0.03760122 -0.023107449 0.07929399 0.023079993
0.08373728 -0.071145125 -0.1031791 0.015676983 0.10250946 0.057776567 0.0839823 -0.11068374
0.030333037 0.0613556 0.12601183 -0.02962994 -0.10454697 -0.08446968 -0.036606535 0.11897088

scale_up.conv2.dilation_conv1d.weight f4 [1, 16, 16]
00000000: b877 b2bc a632 be3c ee83 32bd 7ed0 083d
00000010: f9a1 1c3d 4622 abbb 8efe e53c 8cd0 0a3d
00000020: f1b0 93bb 81de 543d 5447 56bd 4b80 f73c
00000030: c935 dbbc 6be4 47bd 42ea 0bbb fb77 4dbd
00000040: 1305 013d e778 7c3c 7a9b cb3b ec30 ac37
00000050: 8fc4 32bd ae96 323d e4ed 3ebd d0b6 0cbd
00000060: cfd5 473d ff10 bfbc bffe 52bc e409 65bd
00000070: 941c 30bd d7d3 41bc 4c7d 27bd 20bd edbb
00000080: 8514 713d b1a5 42bc 5bdd 153c 08fe b63c
00000090: 164c 563d d55d 0abc 2759 5fbd 9e81 63bd
000000a0: 35e7 4abd 5233 933c a5ff 113d 77e5 0c3d
000000b0: 10ed e0bc cd5c d1bb ccd2 393c 7d63 c6bc
000000c0: 9149 323c ee4f 9f3c 1be3 37bd fa42 de3c
000000d0: 5eef bebb 5244 98bc c196 fdbc 6cb0 19bd
000000e0: 3132 50bd 9f05 033d cd39 36bb d6d4 403d
000000f0: eea6 49bd e133 22bd 09ac 9c3c 3544 1abd
00000100: 1474 2f3d 2dc6 1a3d b1cf 87bd ac60 193d
00000110: dff2 20bd cb6a 293d 2976 b13b 7926 b03c
00000120: 796d 9f3b 3f04 343d 1b8a 56ba 5be2 63bd
00000130: 1d11 633d c86b 3f3a eca9 e2bc ec2c d43b
00000140: 516e 3abd f949 203c ab7e f03b 0df6 1dbc
00000150: e7c2 5a3d 748f 8dbc 7c40 0dbb ce21 ba3c
00000160: 40b0 143d d504 cbbc 3f97 5f3d 70cc 0b3c
00000170: 4d39 5cbd 436f ec3c 1b11 10bd a513 c73a
00000180: 8871 e33c c81d 6fbc ba1f fab9 2192 a33b
00000190: 74b7 693d 6c8d 19bd 5d8e df3b 7261 23bd
000001a0: 4fc2 0d3c 6bf3 f3bc 42fc a9bc 5db8 403d
000001b0: 2995 533d 7ea6 413d fe7a 72bc 4599 233c
000001c0: eecf 20bd 7747 373d b8ec 843d 0bdb 59bc
000001d0: fd51 443c d8f5 cd3b 34d2 5dbd 1ecc 05bd
000001e0: 60a4 2bbd b473 293d 7f10 02bd f34e d23c
000001f0: cc7f abbc b9ae d8bc c52b 60bc 8317 383c
00000200: 694d 613d c9c8 65bd f8d9 0f3d 14ea 703d
00000210: 0220 f8bc f788 31bd 67c5 973c 61ab 4cbd
00000220: 7044 00bd 78ef 0e3b 0629 16bd b1c0 013d
00000230: 4e9c 433d be32 10bd bde0 503d abda 243b
00000240: e637 1fbd 3b6b 2fbd 07ca 5f3d dd46 eaba
00000250: 3548 17bd 19f1 163c f952 46bc 70f0 32bd
00000260: 2ef5 d2bc ad6e 513d 4ee2 d03c 6030 3f3d
00000270: 2ba6 0bbd c97d 1d3d d1a7 75bd d23a ab3c
00000280: abe1 563d fabc 8eba 7b4d ddbc 7886 babb
00000290: b5c1 b03c 428d 88bc b265 1abd 562a 9d3c
000002a0: 25ec 543d 83f3 533d 6b73 843c a02d 403b
000002b0: b510 04bc f43b 8f3a 2593 74bd 948d d5bc
000002c0: 587a 1f3d 771b 243c 7a39 9e3c 0b71 043d
000002d0: 1b7d 5bbd b0e3 65bd 6287 7e3c 0ab2 423b
000002e0: a5a2 373d 80c9 64bd 5ba8 1d3d 701c 693d
000002f0: 86c2 8abc 9f3d a83c cb5e 6dbd 8772 6dbb
00000300: 3ecd f8bc c5c3 f63c c740 0a3d a866 4abd
00000310: 407a b93c 6af6 f63a 2cfb 66bd f1fe 66bd
00000320: e48d a1bb c6e3 ac3b 5637 bb3b b122 10bd
00000330: 7bed 27bd 14f3 713d 7988 20bd 96b6 f4bc
00000340: 0dd7 5bbd e19e 88bc 340a d6bc 1573 633d
00000350: 4115 e6bc 3a36 44bd fc40 e53b aac0 26bd
00000360: ea44 6c3d 9f76 0fbc 06cd 12bd ab6f 2d3c
00000370: cf95 203a 5dab 773d 8e43 4dbd 51f2 333d
00000380: 657c 97bb d56a 32bd b345 5abd 068a 763c
00000390: a9a7 a63c aa84 453d 8429 46bd 014a 08bd
000003a0: 7395 853c b158 e63c 92bc 8bbc 01fe 82bc
000003b0: 51aa 103d ca5a 243d 4f6a 65bd 14a5 973c
000003c0: 7cbd 4cbb de37 dd3c 73ff 04bc 3ee8 8bbc
000003d0: f9b2 f93c d6b1 f8bc 4d4c 18bd c5e2 fbbc
000003e0: c94a e03c 3d2a bf3c 4177 12bd 8069 293d
000003f0: ab75 643c 4026 8abc a123 2a3d 0f10 b0bc
-0.021785602 0.02321751 -0.04358285 0.03340196 0.038240407 -0.0052225916 0.028075483 0.033890292
-0.004507177 0.05197001 -0.052314118 0.030212542 -0.026759045 -0.04880182 -0.0021349345 -0.05016325
0.03149898 0.015409685 0.0062136026 2.0526779e-05 -0.043644484 0.04360073 -0.04661359 -0.03435403
0.04878789 -0.023323534 -0.012878119 -0.055917636 -0.042996004 -0.011830292 -0.040890977 -0.0072552115
0.05885746 -0.011880324 0.009147014 0.022337928 0.052318655 -0.008445223 -0.05452838 -0.055543534
-0.049536902 0.017968807 0.035644192 0.034398522 -0.02745679 -0.0063892365 0.011341762 -0.024217362
0.010881797 0.019447293 -0.04489432 0.027131546 -0.0058268746 -0.018587265 -0.030955674 -0.037521765
-0.050829116 0.031987783 -0.0027805448 0.047077976 -0.049231462 -0.039600257 0.019125002 -0.037662704
0.04283531 0.03778665 -0.06631411 0.03744571 -0.03929412 0.04136161 0.005415697 0.02150272
0.004865345 0.043949362 -0.00081840315 -0.05563579 0.055436242 0.00073021324 -0.027668916 0.0064750817
-0.045515362 0.009783261 0.0073393187 -0.009641183 0.05340853 -0.017280318 -0.0021553328 0.022721197
0.036300898 -0.024782578 0.0545876 0.008532628 -0.053765584 0.028861647 -0.035172563 0.001518835
0.027764097 -0.014594503 -0.00047707354 0.004991785 0.05705972 -0.037488386 0.006822391 -0.039887853
0.008652284 -0.029779157 -0.020750169 0.047050823 0.051655922 0.04727792 -0.014799831 0.009985273
-0.039260797 0.04474589 0.06490463 -0.013296853 0.011982438 0.0062854104 -0.054155543 -0.032665364
-0.041904807 0.04137011 -0.031754013 0.025672412 -0.020934962 -0.026450502 -0.0136823105 0.011236074
0.055005465 -0.056099687 0.03511998 0.058816984 -0.0302887 -0.04334351 0.018526746 -0.049968127
-0.031315267 0.0021810215 -0.036660217 0.031677905 0.047756486 -0.03520464 0.050995577 0.002515475
-0.03887167 -0.042826872 0.054636028 -0.0017873902 -0.036934096 0.009212756 -0.012104743 -0.04368633
-0.025751676 0.05113094 0.025498535 0.046676993 -0.034094017 0.038450036 -0.059974495 0.020902071
0.052461307 -0.001089006 -0.027014485 -0.0056922995 0.021576742 -0.01666892 -0.03769464 0.019185226
0.051983017 0.051745903 0.016168317 0.002932407 -0.008060624 0.0010927902 -0.05971064 -0.026068486
0.038935035 0.010016314 0.019314516 0.03233437 -0.053586107 -0.056125343 0.015535207 0.002970817
0.044832844 -0.055856228 0.038490634 0.056911886 -0.01693846 0.020537196 -0.05795173 -0.0036231594
-0.030371305 0.030122647 0.033753183 -0.049414307 0.022641301 0.0018841748 -0.05639188 -0.056395475
-0.0049302448 0.005276176 0.0057133837 -0.035189334 -0.040997963 0.059069708 -0.03919265 -0.02987222
-0.053671885 -0.016677322 -0.026127912 0.055529673 -0.028086307 -0.047903277 0.006996272 -0.040711083
0.05768291 -0.008756309 -0.035840057 0.010585706 0.0006125839 0.06046616 -0.050113253 0.043932263
-0.0046229833 -0.043558914 -0.053289127 0.015047556 0.020343618 0.04822222 -0.048379436 -0.0332737
0.016306615 0.028118463 -0.01705769 -0.01599026 0.035318676 0.040125646 -0.056009587 0.018511333
-0.0031240871 0.027004179 -0.008117544 -0.017078515 0.030480849 -0.030358236 -0.03718214 -0.03074778
0.02737941 0.02333557 -0.03575826 0.04136038 0.01394407 -0.016863942 0.041537885 -0.021492032
