result/X_net_1/model_ph1.pth (torch, 6111 bytes, 4 tensors)

scale_down.conv1.dilation_conv1d.weight f4 [16, 1, 16]
-0.24082944 -0.053638507 -0.12404099 -0.07009487 -0.22340275 0.09821276 -0.22614764 -0.017619014
0.08554316 -0.08603234 0.13881952 0.028022273 0.1345216 0.15702206 -0.11522968 0.083851635
-0.10330993 0.08294732 -0.12613803 0.119651295 0.054029293 -0.09429831 -0.11835024 0.06956194
0.23848239 0.12605375 -0.016538411 -0.0027577025 0.1536203 -0.1585957 0.10347931 -0.0572781
0.14680614 -0.086308606 0.015939878 0.08784703 0.17565621 -0.030979676 0.23577859 -0.20256025
-0.034822278 -0.23812637 0.033980615 0.085817404 -0.08581278 0.11960069 -0.023472408 -0.1987615
0.19672324 0.15842645 0.13016999 0.20323028 0.096052326 0.13694285 0.21167505 -0.044921044
-0.18816014 -0.115429126 -0.024798255 -0.016657056 0.011747399 0.15996307 0.100795224 -0.16034769
-0.06579194 -0.05051641 0.15990414 -0.08365056 -0.09989673 -0.03762026 -0.0619331 -0.061940894
-0.2478128 0.2168909 0.12557934 -0.1277377 -0.16898946 -0.008290457 0.1222803 -0.20137604
-0.08315545 0.11603363 -0.1500255 -0.016768938 -0.17824443 0.23981929 0.13971469 -0.2289971
-0.13928306 0.08345444 0.0043238355 0.05418954 -0.21880828 -0.1512787 0.09256895 -0.21458764
-0.053302 0.109096564 0.1291172 0.014847987 0.07124965 0.10874215 -0.033535477 -0.0749428
0.18179391 0.23160146 0.09980154 -0.1295878 -0.24273528 -0.2782381 -0.03605483 -0.13818328
-0.049672514 -0.023078391 0.2472168 0.24713717 -0.013895009 -0.067378625 0.12628691 -0.01801016
-0.23879819 0.07572627 0.22796467 -0.2133292 -0.07236695 0.031693105 -0.23116358 -0.24561965
0.19626725 -0.07975833 0.15290079 0.028208988 0.06667484 -0.16153611 -0.04996281 0.16697544
0.11599256 -0.07159236 0.02940113 0.1879785 -0.22358699 0.15520287 -0.08182627 -0.05922414
0.123313956 -0.20439917 -0.035583135 0.24005912 0.09122178 -0.09121187 -0.054226138 0.19730297
0.09570503 0.17188555 -0.15699862 0.07895039 0.05619695 0.060889103 0.256486 0.17276843
0.1711335 0.1084246 0.10338887 -0.04623095 -0.22406346 -0.21440956 -0.15873826 -0.16514826
0.11506966 0.07725025 -0.06650898 -0.1803203 0.26274875 0.21707849 0.16550481 0.3088666
-0.13447861 -0.14319687 -0.14662267 -0.012325798 -0.22161947 0.19573015 0.0023862543 0.11818764
-0.14602855 -0.037777614 0.017028507 -0.08767415 0.21307842 -0.1412586 0.046848923 -0.20341773
-0.042508923 -0.07922611 0.096234426 0.16492504 0.054419216 -0.025434695 -0.06350495 0.19914722
-0.053904552 0.18865737 -0.09865673 0.22287826 0.26950485 0.19669336 0.17446606 0.12854621
-0.12430856 -0.0015247236 0.07878333 -0.074462876 0.03593976 0.13900737 -0.2402803 -0.23855451
-0.16274814 0.015944853 -0.06110348 0.037024956 -0.07996968 -0.19034143 -0.0022831943 0.12684709
-0.15344961 0.21570383 0.057439078 0.24335082 -0.23110166 -0.24133268 0.082063176 -0.2362718
-0.20862149 0.121831484 0.11337555 -0.23922262 0.1650956 -0.06768505 0.1592235 -0.18063544
-0.23299344 -0.16149385 -0.035038907 -0.24649812 -0.0139262825 -0.1212016 -0.054351356 0.003896033
0.018129388 -0.23988011 0.13416745 -0.14691336 0.15986069 0.23867778 -0.07080021 0.044068485
00000000: fe9b 76be 0db4 5bbd 3409 febd e68d 8fbd
00000010: b1c3 64be c623 c93d 3f93 67be c055 90bc
00000020: 4131 af3d b931 b0bd b426 0e3e f78e e53c
00000030: 08c0 093e 64ca 203e 8afd ebbd 68ba ab3d
00000040: 2894 d3bd 49e0 a93d 542a 01be bd0b f53d
00000050: d24d 5d3d 791f c1bd 9c61 f2bd 7e76 8e3d
00000060: ba34 743e 3c14 013e 907b 87bc 92ba 34bb
00000070: a44e 1d3e e966 22be f6ec d33d 719c 6abd
00000080: 5954 163e 91c2 b0bd 5994 823c 25e9 b33d
00000090: 39df 333e 17c9 fdbc f16f 713e f46b 4fbe
000000a0: cea1 0ebd 66d7 73be 422f 0b3d 09c1 af3d
000000b0: 9cbe afbd 35f1 f43d 3549 c0bc 2288 4bbe
000000c0: d171 493e 8b3a 223e 484b 053e 991b 503e
000000d0: 15b7 c43d bf3a 0c3e 58c1 583e 21ff 37bd
000000e0: 0dad 40be 1b66 ecbd b625 cbbc 6174 88bc
000000f0: 2a78 403c 5ccd 233e ba6d ce3d 2f32 24be
00000100: edbd 86bd 4cea 4ebd e9bd 233e fc50 abbd
00000110: a896 ccbd b417 1abd 90ad 7dbd bcb5 7dbd
00000120: a3c2 7dbe a618 5e3e df97 003e accd 02be
00000130: 930b 2dbe b2d4 07bc 186e fa3d 8535 4ebe
00000140: 684d aabd 0aa3 ed3d 49a0 19be 035f 89bc
00000150: b585 36be 3093 753e 5e11 0f3e 377e 6abe
00000160: 38a0 0ebe 29ea aa3d f6ae 8d3b daf5 5d3d
00000170: 470f 60be cee8 1abe ca94 bd3d ddbc 5bbe
00000180: 3353 5abd 056e df3d 4d37 043e f944 733c
00000190: 56eb 913d 34b4 de3d 7f5c 09bd 9c7b 99bd
000001a0: 2f28 3a3e ef28 6d3e c064 cc3d aab2 04be
000001b0: 998f 78be 3975 8ebe 3bae 13bd eb7f 0dbe
000001c0: 6875 4bbd e50e bdbc 6726 7d3e 8711 7d3e
000001d0: e4a7 63bc cefd 89bd 5b51 013e 0b8a 93bc
000001e0: 8387 74be 6016 9b3d 926f 693e f872 5abe
000001f0: 2035 94bd a1d0 013d 25b6 6cbe b883 7bbe
00000200: 48fa 483e 5658 a3bd 0692 1c3e 8916 e73c
00000210: d28c 883d b969 25be cea5 4cbd 9cfb 2a3e
00000220: 828d ed3d 049f 92bd a3da f03c 707d 403e
00000230: fdf3 64be 80ed 1e3e 8894 a7bd 0395 72bd
00000240: 078c fc3d 044e 51be 9fbf 11bd 0fd2 753e
00000250: 7cd2 ba3d 4acd babd 3a1c 5ebd ca09 4a3e
00000260: 0001 c43d c402 303e 3fc4 20be beb0 a13d
00000270: c62e 663d da66 793d 2252 833e 35ea 303e
00000280: 9f3d 2f3e b70d de3d 8bbd d33d aa5c 3dbd
00000290: e470 65be 2e8e 5bbe 488c 22be a01c 29be
000002a0: a4a9 eb3d 6135 9e3d dc35 88bd e2a5 38be
000002b0: 0187 863e d349 5e3e 187a 293e c323 9e3e
000002c0: c3b4 09be 33a2 12be 4124 16be 25f2 49bc
000002d0: 37f0 62be 7c6d 483e b462 1c3b 5d0c f23d
000002e0: 8288 15be b3bc 1abd 5e7f 8b3c 818e b3bd
000002f0: 3b31 5a3e 18a6 10be a8e4 3f3d bd4c 50be
00000300: d61d 2ebd 4c41 a2bd 8e16 c53d 1ce2 283e
00000310: afe6 5e3d 6c5c d0bc e20e 82bd 40ed 4b3e
00000320: 05cb 5cbd 662f 413e 8a0c cabd 333a 643e
00000330: 8afc 893e fc69 493e 3ba7 323e 9ea1 033e
00000340: 7c95 febd 3cd9 c7ba 2859 a13d fe7f 98bd
00000350: 9235 133d f357 0e3e 0a0c 76be a247 74be
00000360: 73a7 26be c89e 823c a547 7abd 7ba7 173d
00000370: 25c7 a3bd dde8 42be a5a1 15bb 34e4 013e
00000380: e521 1dbe 77e1 5c3e 3d45 6b3d f530 793e
00000390: eaa5 6cbe ea1f 77be bd10 a83d 3cf1 71be
000003a0: dfa0 55be c982 f93d 7131 e83d c6f6 74be
000003b0: d20e 293e 769e 8abd 7c0b 233e 7ff8 38be
000003c0: d595 6ebe a55e 25be f584 0fbd 016a 7cbe
000003d0: 102b 64bc 8b38 f8bd 879f 5ebd 9654 7f3b
000003e0: 1584 943c 22a3 75be 3163 093e 7570 16be
000003f0: 85b2 233e f367 743e b3ff 90bd 2881 343d

scale_down.conv2.dilation_conv1d.weight f4 [1, 16, 16]
0.025641872 -0.013642226 -0.06031866 0.021065958 0.024022691 -0.03896072 -0.04575226 -0.0127390195
0.0127445115 -0.029162174 0.0027793804 -0.020934973 -0.016700238 0.0004869832 -0.013496432 0.05918925
0.020078192 0.058012545 0.056493174 0.009520034 -0.026942076 0.03549932 -0.0057243677 0.044016257
-0.013108779 0.05594089 0.009284612 -0.009612947 -0.03105682 0.05970862 0.02391495 0.040365994
0.028006557 -0.0015202906 -0.029689971 -0.017376795 -0.0028438705 0.03668532 -0.009643458 -0.0252013
-0.021472195 -0.005222384 0.031889684 0.027136827 -0.025656069 -0.016281856 0.02973924 -0.00047566852
3.7459984e-05 0.043031994 0.03447275 -0.0109570585 0.030496076 0.009729478 -0.018685225 -0.0012519604
0.061077874 0.020183835 -0.050904248 0.039607726 0.012229366 0.028842038 -0.0013484091 0.02507084
0.01428847 0.05083399 0.030055378 -0.030480966 0.028114686 -0.007922831 0.038721997 -0.024844708
-0.023145098 0.05167835 0.00469168 0.0006885587 -0.005426934 -0.011788506 -0.016818542 -0.07695096
0.056766436 0.056958422 -0.044901825 0.013017772 0.04820441 0.0082884235 0.02326698 0.041373666
0.018305438 -0.021621814 -0.062968336 -0.042639516 -0.055358265 -0.02202175 -0.07132 0.009223972
0.022285594 -0.01760177 -0.027878169 0.026100932 -0.013115616 0.009933975 0.0011379403 -4.7232967e-05
-0.02038428 -0.027301364 -0.03104992 0.0067087626 -0.05983765 -0.020823 -0.05050149 -0.08788616
0.023579752 0.023187146 0.058473807 0.042394765 0.05918836 -0.05392571 -0.06195718 0.007378096
0.014133533 0.008867633 -0.061687518 0.025645986 -0.080059424 -0.01167168 -0.05555103 -0.057249416
0.056695655 0.060610447 0.029900499 0.03240376 0.0061870134 -0.034788243 0.018725729 0.05550533
0.028380604 -0.053649366 -0.012222823 0.020018503 -0.011097113 -0.018888775 -0.05505204 0.0064570587
0.019593515 -0.054051466 0.014498586 0.02144407 0.026359124 0.044155087 -0.032942563 0.025738828
0.013190491 -0.008859348 0.0072483243 0.07556907 0.02040577 0.0063106273 0.028224666 0.0009417365
-0.03733552 -0.014728017 0.03290937 -0.0023457923 -0.009874646 0.03342702 0.046590358 0.0055303033
0.004279303 0.032300293 -0.01062068 0.07134131 0.01042744 0.010056835 0.092096336 -0.009438994
-0.023066422 0.050436135 -0.03456824 -0.017994205 0.055176463 -0.02573792 0.023137428 0.020415496
0.0052925944 -0.059710644 -0.047094636 -0.05777238 -0.071414344 -0.03001934 -0.008896161 -0.07430129
-0.053990543 0.0051980675 -0.021595204 0.013125458 0.0150256185 0.064932294 0.0010904716 -0.046032242
-0.03489242 -0.049216356 -0.001089629 0.020045485 0.03703773 0.032524902 0.038996268 0.03726089
-0.010257606 -0.03178144 0.011533354 0.0055573685 -0.018866956 0.045689296 -0.05972048 0.01977011
-0.03456304 0.03282566 0.048497975 0.043433048 0.021430999 -0.03419163 -0.019856011 -0.027686745
0.003280488 -0.034681477 0.027010879 0.033620264 -0.028371133 -0.020248322 -0.043519814 -0.034001116
-0.031515125 0.04210096 -0.05569662 0.012891112 0.04564206 -0.055794176 -0.07296248 0.012564077
0.030452093 0.018448925 0.04234171 0.033719912 -0.014714415 0.041942414 -0.035027083 0.024211302
-0.038597092 0.014457111 0.035182267 0.02572128 0.037346646 -0.0052762018 0.02638045 0.013536985
00000000: e70e d23c a583 5fbc b310 77bd 8492 ac3c
00000010: 3ccb c43c 4795 1fbd b966 3bbd 52b7 50bc
00000020: 5bce 503c 83e5 eebc 4426 363b d27f abbc
00000030: f0ce 88bc c751 ff39 2420 5dbc 6d70 723d
00000040: 057b a43c 909e 6d3d 6365 673d ebf9 1b3c
00000050: a1b5 dcbc bc67 113d 7a93 bbbb 644a 343d
00000060: 34c6 56bc 4622 653d 7c1e 183c 9f7f 1dbc
00000070: df6a febc 0791 743d 49e9 c33c d056 253d
00000080: 026e e53c 7d44 c7ba 6238 f3bc c859 8ebc
00000090: 3b60 3abb 5943 163d 98ff 1dbc f572 cebc
000000a0: 75e6 afbc 8820 abbb c29e 023d 0d4e de3c
000000b0: ad2c d2bc 8761 85bc b59f f33c 2663 f9b9
000000c0: 5a1e 1d38 5142 303d 4c33 0d3d 3c85 33bc
000000d0: e8d2 f93c 6368 1f3c c211 99bc d218 a4ba
000000e0: cb2c 7a3d 9258 a53c f980 50bd b63b 223d
000000f0: ae5d 483c 2346 ec3c 1abd b0ba 5d61 cd3c
00000100: 301a 6a3c 4d37 503d b236 f63c 38b3 f9bc
00000110: c550 e63c c3ce 01bc f59a 1e3d 2187 cbbc
00000120: ca9a bdbc adac 533d aabc 993b 6480 343a
00000130: 6cd4 b1bb 9424 41bc 0ac7 89bc 7798 9dbd
00000140: ec83 683d 3c4d 693d faea 37bd 7e48 553c
00000150: fd71 453d 2bcc 073c 659a be3c 6f77 293d
00000160: 49f5 953c 3b20 b1bc 8bf5 80bd c6a6 2ebd
00000170: 59bf 62bd f566 b4bc 3810 92bd 2520 173c
00000180: 4790 b63c 9631 90bc c260 e4bc 9fd1 d53c
00000190: e1e2 56bc 1cc2 223c f126 953a 031c 46b8
000001a0: effc a6bc 1ca7 dfbc 675c febc 2ed5 db3b
000001b0: 5318 75bd ff94 aabc a6da 4ebd a9fd b3bd
000001c0: 532a c13c f8f2 bd3c 3b82 6f3d 22a6 2d3d
000001d0: 7e6f 723d 35e1 5cbd d0c6 7dbd f5c3 f13b
000001e0: 5690 673c 8c49 113c 0dac 7cbd 8817 d23c
000001f0: 32f6 a3bd 933a 3fbc 7a89 63bd 5d7e 6abd
00000200: b439 683d a942 783d e4f1 f43c ceb9 043d
00000210: 6ebc ca3b 1e7e 0ebd b366 993c 8f59 633d
00000220: 717e e83c 70bf 5bbd 3c42 48bc d8fd a33c
00000230: aad0 35bc a2bc 9abc 3f7e 61bd bc95 d33b
00000240: 9482 a03c 1265 5dbd 7a8b 6d3c 79ab af3c
00000250: 17ef d73c f7db 343d c8ee 06bd 3cda d23c
00000260: ee1c 583c cc26 11bc 5a83 ed3b f5c3 9a3d
00000270: 002a a73c 61c9 ce3b 6a37 e73c dede 763a
00000280: 21ed 18bd c84d 71bc facb 063d ddbb 19bb
00000290: 44c9 21bc c5ea 083d 88d5 3e3d 8c37 b53b
000002a0: 6539 8c3b 504d 043d 5c02 2ebc 651b 923d
000002b0: dad7 2a3c 6cc5 243c 019d bc3d 03a6 1abc
000002c0: cbf5 bcbc 1f96 4e3d 6d97 0dbd 9568 93bc
000002d0: b700 623d 55d8 d2bc b48a bd3c 663e a73c
000002e0: 806d ad3b 2693 74bd 4ee6 40bd bba2 6cbd
000002f0: af41 92bd 1eeb f5bc 34c1 11bc 462b 98bd
00000300: 3025 5dbd 8d54 aa3b 6de8 b0bc 290c 573c
00000310: 032e 763c 39fb 843d 28ee 8e3a 4e8c 3cbd
00000320: 5beb 0ebd 1797 49bd e2d1 8eba 6e36 a43c
00000330: e0b4 173d d538 053d 8dba 1f3d e09e 183d
00000340: 850f 28bc 412d 02bd 65f6 3c3c 961a b63b
00000350: e08e 9abc b324 3b3d 769d 74bd edf4 a13c
00000360: f991 0dbd 3374 063d d0a5 463d dae6 313d
00000370: 1090 af3c 860c 0cbd 13a9 a2bc 50cf e2bc
00000380: 75fd 563b 2a0e 0ebd eb45 dd3c 67b5 093d
00000390: 946a e8bc cfdf a5bc d541 32bd c144 0bbd
000003a0: 0116 01bd 0e72 2c3d 2422 64bd 3e35 533c
000003b0: 2bf3 3a3d 6f88 64bd 5a6d 95bd 8fd9 4d3c
000003c0: ab76 f93c 3322 973c 806e 2d3d e41d 0a3d
000003d0: bb14 71bc cfcb 2b3d 8f78 0fbd c856 c63c
000003e0: fc17 1ebd 85dd 6c3c 481b 103d 6fb5 d23c
000003f0: ccf8 183d fde3 acbb d01b d83c 3bca 5d3c

scale_up.conv1.dilation_conv1d.weight f4 [16, 1, 16]
0.20802003 0.14367737 -0.18538888 0.0916775 0.12543581 0.06176645 -0.1319233 0.24014513
-0.17588027 -0.20177266 0.08531388 0.11205225 0.025884843 0.014249855 0.105593875 0.17461742
-0.11697853 0.08121606 -0.090603106 -0.12866148 -0.12966532 -0.18563336 0.21222764 -0.08185554
-0.0662495 -0.0013974024 -0.15825994 0.16551608 -0.076189905 0.1320476 0.070017174 -0.25206727
-0.22980917 -0.24410711 0.22352432 0.2265501 0.08371456 -0.10595143 0.0799481 -0.19177449
0.037007887 -0.038337316 0.1661268 0.009601182 -0.008239259 -0.02958789 0.23215033 -0.18242876
0.11565269 -0.22072 0.05091628 -0.20507711 0.12466782 0.22478387 -0.12125231 0.22085781
-0.22808158 0.114862785 0.038685594 -0.059635576 -0.035574473 0.09995238 -0.0449253 -0.2402699
-0.09581009 0.20856532 -0.21649785 -0.08393981 0.10414619 0.18285942 -0.19092958 -0.17995776
0.13991353 0.15467367 0.14474335 0.1264069 -0.22726148 0.07207886 -0.014823048 0.03711912
-0.0920432 0.24577522 -0.009676653 -0.16757126 0.1328152 -0.0019572058 -0.1522447 -0.10680828
-0.15340944 0.053739864 0.05856421 -0.06418361 0.025938798 -0.12930834 -0.2401933 0.0027499683
0.23616846 -0.18664874 0.04983061 -0.12456575 -0.037428148 0.060703248 -0.120652065 -0.21161306
-0.000963966 -0.015274534 0.18502755 0.10469062 0.14942989 -0.15082875 -0.2278402 -0.14442603
-0.2015554 -0.008613108 -0.07392667 -0.022997659 -0.07102198 -0.042385064 0.05414661 0.24369545
-0.05195874 0.20590198 0.22628087 0.122339435 -0.06270369 0.07023026 -0.15983757 -0.016523523
-0.1139663 -0.1892325 -0.21038315 -0.08984536 0.06205171 -0.0063915183 0.007134727 0.103499144
0.07081803 0.16872959 -0.057797115 0.060299914 0.0004170956 -0.084141456 -0.16867362 -0.07282993
-0.24174798 0.025057478 -0.2018205 -0.089056194 -0.09893605 0.21230538 -0.20696467 -0.06431271
0.08350561 0.063042 0.19615783 0.051514328 0.1384057 -0.15682124 0.1503515 0.0035356586
-0.026388042 -0.11144112 0.092684336 0.12907949 -0.18332785 -0.19345646 0.0996656 -0.22135827
-0.23524062 0.1804571 0.07876758 0.017719714 -0.0040191486 0.100036345 -0.18360455 0.20196483
-0.034827933 0.025378473 -0.2357356 0.014985522 -0.1546826 0.13718376 -0.24207132 0.21978424
-0.06414599 -0.09033793 -0.006410105 -0.20917387 0.07536952 0.19816932 -0.11134249 -0.087893456
-0.20471214 0.06370053 0.18658033 0.20681354 0.08417077 0.11644247 -0.1790469 -0.09574076
0.24865143 0.008735629 0.10788159 -0.17750302 -0.19722328 0.20707722 -0.1013189 -0.12684792
-0.01267276 -0.019685196 0.10887253 0.15593204 0.22239812 -0.07272849 -0.06340131 -0.19584607
-0.12833306 -0.049279828 -0.13242793 0.00066039263 -0.059016634 0.13979901 -0.22134958 -0.007293387
-0.093574844 0.018271148 -0.13302182 -0.24358988 -0.0041065314 0.022273108 0.2152664 -0.17244796
-0.039876368 0.20004094 0.23964031 0.037866563 -0.12189585 0.14698398 -0.1822385 -0.21211544
0.022981022 -0.14450677 0.081156425 -0.10675828 -0.17886768 -0.08890055 -0.15949987 -0.17132823
0.13747406 -0.01867312 -0.10055607 -0.23850308 0.19803178 -0.14126855 0.2103524 -0.20501503
00000000: 3403 553e 2920 133e 95d6 3dbe 6ac1 bb3d
00000010: 3f72 003e d1fe 7c3d e716 07be 9be8 753e
00000020: f519 34be 7e9d 4ebe 0bb9 ae3d a67b e53d
00000030: 730c d43c 3978 693c 9a41 d83d e9ce 323e
00000040: 7192 efbd 9b54 a63d 1f8e b9bd d6bf 03be
00000050: fcc6 04be ac16 3ebe 3452 593e e1a3 a7bd
00000060: d1ad 87bd 0b29 b7ba e50e 22be 0c7d 293e
00000070: 7409 9cbd 7c37 073e 2a65 8f3d f60e 81be
00000080: 1853 6bbe 37f7 79be 8fe3 643e c0fc 673e
00000090: 8a72 ab3d 10fd d8bd d4bb a33d 8860 44be
000000a0: 9595 173d 9707 1dbd 251d 2a3e 474e 1d3c
000000b0: f5fd 06bc 4d62 f2bc d1b8 6d3e 9bce 3abe
000000c0: 51db ec3d 6c04 62be 978d 503d bcff 51be
000000d0: d851 ff3d be2d 663e 2253 f8bd 8d28 623e
000000e0: 388e 69be 2e3d eb3d c974 1e3d 6f44 74bd
000000f0: 8ab6 11bd d5b3 cc3d 9703 38bd 5009 76be
00000100: 1538 c4bd 2692 553e 9db1 5dbe a3e8 abbd
00000110: 994a d53d 803f 3b3e 0b83 43be d946 38be
00000120: 7e45 0f3e c662 1e3e 9a37 143e cf70 013e
00000130: 3cb7 68be 159e 933d 5fdc 72bc 380a 183d
00000140: 2581 bcbd 80ac 7b3e d38a 1ebc cd97 2bbe
00000150: b500 083e 7744 00bb 09e6 1bbe 4dbe dabd
00000160: 5d17 1dbe 551e 5c3d 06e1 6f3d b272 83bd
00000170: 9a7d d43c 6869 04be 3cf5 75be d038 343b
00000180: 25d6 713e d920 3fbe 2f1b 4c3d 541c ffbd
00000190: 424e 19bd f8a3 783d 6e18 f7bd 18b1 58be
000001a0: aab2 7cba 0a42 7abc dd77 3d3e 0968 d63d
000001b0: 2604 193e da72 1abe f14e 69be 6be4 13be
000001c0: 8a64 4ebe fe1d 0dbc de66 97bd 9665 bcbc
000001d0: f973 91bd f69b 2dbd d6c8 5d3d 4d8b 793e
000001e0: b0d2 54bd f8d7 523e 2cb6 673e 198d fa3d
000001f0: cb6a 80bd e2d4 8f3d 76ac 23be 575c 87bc
00000200: 2a67 e9bd 2ac6 41be ae6e 57be d800 b8bd
00000210: ef29 7e3d f16f d1bb 6eca e93b 5cf7 d33d
00000220: 0b09 913d 73c7 2c3e abbc 6cbd 0bfd 763d
00000230: a0ad da39 5b52 acbd c7b8 2cbe dc27 95bd
00000240: c88c 77be 5745 cd3c 08aa 4ebe 1863 b6bd
00000250: fc9e cabd 9566 593e 8cee 53be 62b6 83bd
00000260: fd04 ab3d 2a1c 813d 99dd 483e b000 533d
00000270: 39ba 0d3e bf95 20be bef5 193e 82b6 673b
00000280: bc2b d8bc 3e3b e4bd 49d1 bd3d 6a2d 043e
00000290: 4cba 3bbe 7319 46be 7a1d cc3d beab 62be
000002a0: ebe2 70be bfc9 383e e650 a13d ef28 913c
000002b0: 10b3 83bb dbdf cc3d d502 3cbe decf 4e3e
000002c0: bca7 0ebd 84e6 cf3c ac64 71be d685 753c
000002d0: 1e65 1ebe e679 0c3e 8be1 77be 1f0f 613e
000002e0: f95e 83bd 1803 b9bd dc0b d2bb ad31 56be
000002f0: 565b 9a3d e6ec 4a3e 8807 e4bd 7c01 b4bd
00000300: 0fa0 51be 6c75 823d ea0e 3f3e eec6 533e
00000310: ba61 ac3d 6479 ee3d 1258 37be bb13 c4bd
00000320: 7b9e 7e3e e21f 0f3c 06f1 dc3d 5ac3 35be
00000330: e6f4 49be 0d0c 543e 4980 cfbd 6ce4 01be
00000340: 68a1 4fbc d942 a1bc 90f8 de3d a6ac 1f3e
00000350: 55bc 633e adf2 94bd 8cd8 81bd df8b 48be
00000360: be69 03be a5d9 49bd 309b 07be 331e 2d3a
00000370: 6dbb 71bd 7927 0f3e 77a9 62be 5dfd eebb
00000380: 2ba4 bfbd 60ad 953c df36 08be a06f 79be
00000390: 1590 86bb 1876 b63c cc6e 5c3e 3396 30be
000003a0: 6755 23bd 88d7 4c3e 4564 753e f819 1b3d
000003b0: 88a4 f9bd f882 163e bb9c 3abe ca34 59be
000003c0: b242 bc3c 95f9 13be 5735 a63d 16a4 dabd
000003d0: 1729 37be 7e11 b6bd ef53 23be ab70 2fbe
000003e0: 00c6 0c3e 5ff8 98bc 57f0 cdbd 273a 74be
000003f0: d8c8 4a3e b4a8 10be 9f66 573e 76ef 51be

scale_up.conv2.dilation_conv1d.weight f4 [1, 16, 16]
-0.027761105 0.060357954 0.02639867 -0.039741177 -0.040223744 -0.029648695 0.027857745 0.038200557
-0.016538836 -0.044688597 -0.033334773 0.047593907 0.019028688 0.033008773 0.038999286 -0.034025554
-0.046182532 -0.043858495 0.061367877 0.001022906 0.0019819785 -0.06317055 0.0074705495 -0.06140898
-0.044742282 -0.00046975008 -0.060306825 0.023572387 0.040319066 -0.030531976 0.04011899 0.042233374
-0.046813264 0.012710449 -0.01020279 -0.0057520755 0.037469186 -0.031162206 -0.039903987 0.013050655
0.023216492 -0.021486266 -0.014887953 -0.04541586 0.042066302 -0.027902877 0.03298896 -0.04635642
-0.04294977 -0.0026694187 0.061472975 -0.008995083 -0.008087334 -0.016851839 0.0031495704 -0.025979023
0.039600536 -0.0038678623 0.020212997 -0.009731201 0.036836077 -0.046906497 -0.036023367 -0.027574081
-0.02337246 0.008025278 0.0337295 -0.04099391 -0.039234217 0.04129295 0.03074482 0.014197816
0.029110704 0.012158605 -0.014355087 -0.0017142363 -0.006504092 -0.015207404 -0.026668893 0.0016132579
-0.042451363 -0.03772924 -0.04052863 0.056157283 0.058975723 0.030409005 -0.018205091 0.009451724
0.018196283 0.001627888 0.023731804 0.014745369 0.011473276 0.050708838 -0.060785368 -0.0032265335
0.04887373 0.051393125 -0.017198985 0.04104732 -0.0402206 -0.009414305 0.048525944 -0.020342514
0.021883903 0.051907107 -0.035953995 0.019331394 -0.030162768 -0.021786474 0.04148002 0.013401864
-0.050455976 0.06362142 0.05021632 0.041183222 0.013049304 0.032999557 -0.017853068 -0.022142474
0.031705733 0.009018164 0.06169179 0.006658467 0.004816714 0.046525694 -0.018078241 -0.042033568
0.0028824233 0.063000605 -0.045585733 0.012069659 -0.03941242 -0.0535764 -0.0022802844 -0.025788948
-0.020351322 0.013634843 -0.022552276 -0.0011368495 -0.008630756 0.043060116 0.019748686 -0.022966284
-0.039239135 0.048822124 0.0010264687 0.03195083 -0.020178577 0.05015705 0.04705041 0.0066080224
0.01994586 0.016925378 0.02842171 -0.0018237281 -0.046674892 -0.034889974 0.019246247 -0.052027382
-0.056195833 -0.031135486 0.034570143 -0.0030897057 -0.043804444 -0.042330157 -0.02536694 -0.046305556
0.05986569 -0.037207756 -0.028824523 -0.03903972 -0.01818464 0.051684983 0.02261209 0.0017033283
-0.060949836 0.025180241 0.057983227 -0.0022321406 0.04120036 -0.021521822 -0.060075782 -0.0037462094
0.021983797 -0.03110935 -0.0011249896 0.005302342 0.05443824 -0.038048618 -0.0601319 -0.035813946
0.03952863 -0.033854295 -0.008456589 -0.048626795 -0.034914088 -0.056345858 0.0155419465 0.038355976
-0.011714285 -0.008453515 0.011243666 -0.015355162 -0.0025633469 0.017157085 0.039862536 0.025767978
0.012842184 0.05096703 -0.059299715 -0.04560278 0.045087263 0.052025378 -0.03490897 0.04402377
-0.011177023 -0.021483222 -0.007142105 -0.02302803 0.008493661 -0.0058190897 -0.011905525 -0.038682822
0.040969357 -0.03406801 0.003837759 0.045127403 -0.031622306 -0.043735653 0.011701731 -0.058759306
-0.03426976 0.04520759 0.026741311 0.04856851 -0.06360307 -0.05896268 0.017638184 0.024921348
-0.036393087 0.022054411 0.010043557 -0.02787184 0.056738377 0.04592002 0.04899657 -0.023780165
-0.0037157845 -0.034093525 0.04652849 0.051973253 -0.0364903 0.011833159 0.04533914 -0.0007122455
00000000: 426b e3bc e739 773d 0642 d83c a5c7 22bd
00000010: a7c1 24bd d2e1 f2bc ed35 e43c 3078 1c3d
00000020: 747c 87bc 640b 37bd 0b8a 08bd d4f1 423d
00000030: 0de2 9b3c 3534 073d b7bd 1f3d 615e 0bbd
00000040: e529 3dbd f7a4 33bd e25c 7b3d 0813 863a
00000050: 15e4 013b 905f 81bd 83cb f43b fc87 7bbd
00000060: af43 37bd ca48 f6b9 4a04 77bd e11a c13c
00000070: 9b25 253d 321e fabc cf53 243d e7fc 2c3d
00000080: 44bf 3fbd 7d3f 503c 9a29 27bc e87b bcbb
00000090: 4a79 193d e247 ffbc 5d72 23bd 6ad2 553c
000000a0: 8330 be3c f703 b0bc 9aec 73bc fb05 3abd
000000b0: b74d 2c3d 9394 e4bc 6f1f 073d 3be0 3dbd
000000c0: 19ec 2fbd 6af1 2ebb 16cb 7b3d 1d60 13bc
000000d0: bd80 04bc de0c 8abc 0669 4e3b f6d1 d4bc
000000e0: 2c34 223d f67b 7dbb ba95 a53c 9e6f 1fbc
000000f0: 6de1 163d 0721 40bd 3d8d 13bd 0ae3 e1bc
00000100: 9a77 bfbc 757c 033c f227 0a3d 3be9 27bd
00000110: 0fb4 20bd cc22 293d 90dc fb3c f59d 683c
00000120: 9279 ee3c e334 473c 9931 6bbc 3ab0 e0ba
00000130: 4720 d5bb 7a28 79bc b978 dabc f473 d33a
00000140: 7be1 2dbd fa89 1abd 5901 26bd 2e05 663d
00000150: 8790 713d 4e1c f93c d822 95bc 67db 1a3c
00000160: 5f10 953c db5e d53a 3369 c23c 8f96 713c
00000170: 68fa 3b3c 12b4 4f3d 14fa 78bd 4074 53bb
00000180: d22f 483d 9981 523d e3e4 8cbc 3c21 283d
00000190: 5bbe 24bd 753e 1abc 24c3 463d 58a5 a6bc
000001a0: df45 b33c 8c9c 543d 7f44 13bd df5c 9e3c
000001b0: e917 f7bc 8c79 b2bc f4e6 293d 7e93 5b3c
000001c0: edaa 4ebd f24b 823d a1af 4d3d bdaf 283d
000001d0: bfcc 553c 8b2a 073d 9940 92bc 2264 b5bc
000001e0: dfdd 013d ecc0 133c 88b0 7c3d 452f da3b
000001f0: 87d5 9d3b ba91 3e3d d218 94bc 642b 2cbd
00000200: 0ae7 3c3b 7606 813d 1bb8 3abd d2bf 453c
00000210: eb6e 21bd ed72 5bbd d370 15bb 5843 d3bc
00000220: d1b7 a6bc ad64 5f3c 8dbf b8bc 5702 95ba
00000230: 0468 0dbc ce5f 303d ffc7 a13c ca23 bcbc
00000240: 37b9 20bd b5f9 473d 938a 863a e0de 023d
00000250: 8b4d a5bc 7b71 4d3d eeb7 403d 1c88 d83b
00000260: 8065 a33c 17a7 8a3c a5d4 e83c 290a efba
00000270: 2c2e 3fbd cae8 0ebd 4eaa 9d3c aa1a 55bd
00000280: 9a2d 66bd d90f ffbc 6c99 0d3d a97c 4abb
00000290: 4a6c 33bd 6362 2dbd 54ce cfbc e5aa 3dbd
000002a0: ba35 753d 2967 18bd 6821 ecbc 1de8 1fbd
000002b0: f4f7 94bc a2b3 533d fd3c b93c 3742 df3a
000002c0: 89a6 79bd cb46 ce3c d27f 6d3d 1b49 12bb
000002d0: b5c1 283d 884e b0bc 0612 76bd f782 75bb
000002e0: 5d17 b43c 09d9 febc 6374 93ba 45bf ad3b
000002f0: a2fa 5e3d ded8 1bbd de4c 76bd a5b1 12bd
00000300: c6e8 213d cdaa 0abd 818d 0abc e42c 47bd
00000310: 1302 0fbd eaca 66bd a6a3 7e3c 281b 1d3d
00000320: 46ed 3fbc 9d80 0abc 5a37 383c 3894 7bbc
00000330: d3fd 27bb 048d 8c3c e646 233d 5e17 d33c
00000340: 0668 523c cec2 503d 42e4 72bd fbc9 3abd
00000350: 6cad 383d 9018 553d b5fc 0ebd 4552 343d
00000360: d51f 37bc 95fd afbc 5208 eabb 47a5 bcbc
00000370: ff28 0b3c 10ae bebb 640f 43bc e171 1ebd
00000380: 7ccf 273d e68a 0bbd e982 7b3b 83d7 383d
00000390: 6486 01bd 2824 33bd 9eb8 3f3c 99ad 70bd
000003a0: 735e 0cbd 982b 393d 9810 db3c c6ef 463d
000003b0: 5442 82bd da82 71bd f47d 903c db27 cc3c
000003c0: eb10 15bd 74ab b43c bb8d 243c 7c53 e4bc
000003d0: 8066 683d a216 3c3d a1b0 483d 9fce c2bc
000003e0: 8584 73bb a7a5 0bbd a894 3e3d e8e1 543d
000003f0: da76 15bd dedf 413c 89b5 393d fdb5 3aba
