result/X_net_1/model_ph2.pth (torch, 6111 bytes, 4 tensors)

scale_down.conv1.dilation_conv1d.weight f4 [16, 1, 16]
00000000: 244d 4dbe 46f7 0cbc 2ac8 e3bd 46b6 a0bd
00000010: ec2f 59be 514a 003e 1302 58be f6c6 c2bc
00000020: cea9 973d ef2d b0bd 83c2 053e c22f 8d3c
00000030: b7f9 0f3e ab21 3f3e 9ccb 4abd 5f5f 5c3e
00000040: 1e53 debd c841 943d 8849 05be d2f7 f43d
00000050: e5e1 3f3d f2b9 dabd 2914 03be 0bdd 863d
00000060: 1028 713e 1b3e f43d a49e dabc a5be 55bc
00000070: 1f16 153e 2e1a 21be b0b1 f03d 6bd2 08bd
00000080: e806 4c3e 7c77 debd 4d21 58bd 1a12 4e3d
00000090: 5717 523e c01c a23c 58e1 723e c288 7dbe
000000a0: faaa 8abd 351e 62be cb48 b63d 7135 033e
000000b0: 583b 90bd 7832 073e b32d 7ebc 455b 93be
000000c0: 5bf7 3f3e d7d3 1e3e 7a17 003e 8b23 483e
000000d0: 91ef b33d 0a61 023e 6695 513e cfeb 3abd
000000e0: 461b 42be d5e8 04be 8a0d 3cbd d9f8 fbbc
000000f0: a081 013a 3ed6 1a3e 20fc ce3d 2f44 09be
00000100: e3de 4fbd 7634 8dbd 034a 193e 4287 63bd
00000110: 2ef2 aabd 8564 65bd 58e4 8ebd 9235 26bd
00000120: c514 51be 802e 823e d10a 333e be1a 73bd
00000130: e3da d7bd 06fc 803c f5fd 7a3d db7c e9be
00000140: ff2b 61bd ff5b 013e 1a78 1dbe 466a 5ebc
00000150: 83f2 2abe c679 733e fab4 fd3d 487a 77be
00000160: e277 05be d388 dd3d 6ff1 d83c e3ab ba3d
00000170: 3d4e 2abe 5e02 ddbd 9073 db3d 5a3f 83be
00000180: 716c 66bd 111c ce3d a1ea fd3d 3356 583c
00000190: 16e4 8e3d 1b2d d73d 5176 13bd b31e 92bd
000001a0: a2e3 443e de61 7d3e 1abf fb3d aac2 cabd
000001b0: 21be 5cbe 09ad 8ebe 61a3 b4bd bfc3 84be
000001c0: 0e02 5ebd 6d26 b3bc 5eab 7e3e 25fb 753e
000001d0: 7678 fbbc 95b8 a1bd b3b6 053e e62a 70bb
000001e0: 41cb 66be 464a a33d 9586 763e 8a95 32be
000001f0: 3a4c ccbc 8d69 4f3d b3a3 8bbe c671 bcbe
00000200: 3e61 283e 2fc1 efbd 2d5e 133e 788c 083d
00000210: cc3d 423d 4a49 64be 4c37 fbbd 96fa 103e
00000220: 97f7 083e 6263 a5bd e62d 13bc 9378 423e
00000230: 5d60 29be 7fb8 543e e6cc e0bd 57c7 70be
00000240: b063 f13d 2c25 53be d004 21bd 383c 6f3e
00000250: 9a3e bc3d 0618 abbd 63ea 63bd e286 413e
00000260: a0ee af3d 7141 243e 3d58 30be 8773 663d
00000270: f43e 043d f8c6 3b3d 7997 843e 4f0e 5a3e
00000280: cc82 273e f622 df3d a857 dd3d 5745 30bd
00000290: cafb 62be 492f 58be a612 21be c35a 2dbe
000002a0: 1891 d83d 2cd4 833d f8f2 aabd 3179 55be
000002b0: 6acc 6b3e e82d 513e 3eb2 413e fe4a c63e
000002c0: 06bf 09be a7e2 11be 8519 13be ec91 29bc
000002d0: ae27 67be b988 413e 091a 283a 6191 f53d
000002e0: e025 0ebe ea30 ecbc bcb1 fc3c 39fc 7dbd
000002f0: becf 763e 6ab7 02be c8ea 0a3d a42f 86be
00000300: 4627 87bd 2bee d0bd 25ed a93d 1bb3 273e
00000310: c48c 9a3d 7e8c 05bc dc0e 99bd 7354 233e
00000320: 3c05 d0bd 95fe 163e a30c 16be 73a3 203e
00000330: 8db4 443e eb91 243e 4a51 6d3e 0eab 9e3e
00000340: e8de 9ebd 07ec b4b9 d7e2 943d d830 7dbd
00000350: 93da 9f3d db97 583e d223 44be 3ee4 4cbe
00000360: cead e9bd 3ca5 a23d f246 c63c 41ea c33d
00000370: 895f 59bd 8631 40be c854 2dbd ec66 b33c
00000380: 85d1 1abe 588b 613e eabe 763d 801d 7c3e
00000390: 5939 6bbe c8ca 78be 3d3a aa3d c116 68be
000003a0: 6847 4bbe 12b4 023e 7a64 f73d 5289 64be
000003b0: e38d 453e afa5 3dbd 7159 163e 8ecd 6fbe
000003c0: 0b4b 68be b159 23be a5f3 ffbc 9844 76be
000003d0: e48a d8bb 77dd e5bd 6747 49bd 344b 083c
000003e0: 0cb7 b03c ab25 74be b397 063e 1bc8 20be
000003f0: 89ce 1b3e 7ac0 773e 8814 5cbd 6d72 9f3d
-0.20048958 -0.008603876 -0.11122163 -0.07847266 -0.21209687 0.1252835 -0.21094541 -0.023776513
0.074054345 -0.08602511 0.13062482 0.017234687 0.14060102 0.18665187 -0.049510583 0.21520756
-0.10855697 0.07239109 -0.13016331 0.119613305 0.04684629 -0.106799975 -0.12800659 0.06585129
0.23550439 0.11925908 -0.026686974 -0.0130459415 0.1455922 -0.15732643 0.11752641 -0.033403795
0.1992451 -0.108626336 -0.052766133 0.05031023 0.20516716 0.0197891 0.23718774 -0.247592
-0.067708924 -0.22081836 0.08900603 0.12813355 -0.07042569 0.13202846 -0.015513825 -0.2878057
0.18746702 0.15510498 0.12508956 0.19544809 0.08785928 0.1273233 0.20467147 -0.04563504
-0.18955716 -0.12979443 -0.04591135 -0.030758308 0.0004940275 0.1512079 0.10106683 -0.13404916
-0.05074967 -0.06894772 0.1496964 -0.055548914 -0.08346973 -0.056004066 -0.06977147 -0.040578432
-0.20418079 0.25426102 0.17484595 -0.059351675 -0.10539796 0.015745174 0.06127735 -0.4560307
-0.0549736 0.1263275 -0.15377846 -0.013575142 -0.16694073 0.23776922 0.12388034 -0.2416774
-0.13034013 0.10817113 0.026482312 0.09114816 -0.16631408 -0.10791467 0.10715401 -0.2563427
-0.05625576 0.10063947 0.123982675 0.013204145 0.06977098 0.1050665 -0.036001507 -0.07134762
0.1922746 0.24744365 0.12292309 -0.099004105 -0.21556903 -0.2786639 -0.088202246 -0.25930592
-0.05420118 -0.021868909 0.24870059 0.24021585 -0.030697089 -0.07896534 0.13057975 -0.0036646663
-0.22538473 0.07973151 0.24074776 -0.17439857 -0.024938691 0.05063777 -0.2727333 -0.36805552
0.16443345 -0.11706769 0.14391394 0.033337086 0.047422215 -0.22293583 -0.122664064 0.14158091
0.13375698 -0.080755964 -0.008983111 0.18991308 -0.16540666 0.20773505 -0.10976581 -0.23513542
0.11786592 -0.20619649 -0.03931123 0.23362815 0.09191628 -0.083541915 -0.05564345 0.1889911
0.08590436 0.16040589 -0.1722116 0.05626252 0.0322866 0.04584405 0.25896814 0.21294521
0.16358489 0.1089534 0.10807735 -0.043034878 -0.22166362 -0.21111788 -0.1572977 -0.16929154
0.105745494 0.06436953 -0.08347124 -0.20847012 0.23027197 0.20427668 0.1891565 0.3872909
-0.13451776 -0.14246617 -0.14365204 -0.010349732 -0.2257373 0.18899812 0.0006412571 0.119906195
-0.13881636 -0.028831918 0.03084647 -0.062008116 0.24102685 -0.1276528 0.03391531 -0.26208222
-0.06599288 -0.10201677 0.08297185 0.16376917 0.0754638 -0.008151172 -0.07473537 0.15950184
-0.101572484 0.14745553 -0.14653258 0.15687351 0.192095 0.16071288 0.2317554 0.3098988
-0.0775736 -0.0003450813 0.07269829 -0.06181416 0.078053616 0.21151678 -0.1915429 -0.20008942
-0.11410104 0.07941672 0.024203751 0.09566165 -0.053069625 -0.18768892 -0.04231718 0.021899663
-0.15118988 0.22025812 0.060240664 0.24620628 -0.22971095 -0.24296105 0.08311889 -0.2266493
-0.19851458 0.12764004 0.12079711 -0.22318009 0.19292407 -0.046300586 0.14682557 -0.23418257
-0.22684877 -0.15952183 -0.031244108 -0.24049604 -0.006608354 -0.11223882 -0.04914036 0.008318711
0.021571659 -0.23842494 0.13143806 -0.15701334 0.15215506 0.24194518 -0.053730518 0.07785497

scale_down.conv2.dilation_conv1d.weight f4 [1, 16, 16]
00000000: 7ee9 9c3c e678 96bc c903 41bd 92eb 053d
00000010: 5bc0 0b3d 28e2 ecbc e7f8 0cbd bbc2 273c
00000020: 52d0 043d 56fc b4bc 1b75 96ba 944b c6bc
00000030: 982d eabc 99ef 9abc 397d ccbc 3bc9 ab3d
00000040: 135b 543c 1b6d a43d b30a 7c3d 73e6 5abc
00000050: 1a24 4bbd 7b7b e53c 8593 f83b 0bda 793d
00000060: b78b d7bb aa91 333d 8884 6bbb 4e92 8eba
00000070: a24b 90bc 4ecf 2c3d 641b 82bc db16 d73b
00000080: a10f 623d 3bc4 4abc 7526 59bd 9f49 afbc
00000090: 7254 413d 6f6d ce3d deeb 653c c766 a3bd
000000a0: 3ab8 b5bd 0d4c cd3b 3305 c03d 08f9 be3d
000000b0: e097 be3c aaeb 7ebc 4740 2bbd d5f9 59be
000000c0: 09f3 b6bb 6c4a 043d 1322 f63c bfd5 0bbc
000000d0: 9b6d 013d 076b ad3b 328b c4bc a775 c2bb
000000e0: 8631 683d d575 943c f827 5abd 57d6 073d
000000f0: 70d0 6a3b 1d14 ac3c 2e79 a0bb ea3c c83c
00000100: ad8a 883c 56ba 443d 42f6 ed3c 6b93 07bd
00000110: 218d 7e3c ee5a 2fbc 76e5 4d3d 4733 87bc
00000120: ebda c8bc 078d 513d 4284 c33c 8399 cd3c
00000130: 58be 743b 344a b7bc 7963 46bd 17d8 1ebe
00000140: 973f 7f3d ba3b 343d c277 6dbd afc8 3d3c
00000150: 4ed5 6b3d 727a 423c 58b8 aa3c 18ca 123d
00000160: fdb3 8a3c d757 edbb 6998 0abd e487 a5bc
00000170: b46e 59bd 22df e5bc 1bc7 afbd 8243 5bbd
00000180: 3f32 483d d388 11bc b248 23bd c7fa 143a
00000190: 52e1 18bd 2c6d ddb7 816b 683b 539c 09bb
000001a0: 21b8 dcbc 6531 eebc 697d 3ebb cc1b 663d
000001b0: f3ce 57bc 1ba0 713c 8440 1bbd 60f5 38be
000001c0: b63f 113c 1ced cd3b fa47 7e3d 6458 473d
000001d0: 3898 133d 88ef 9ebd 3175 51bd b037 df3c
000001e0: 3626 823c 95e0 fe3b fcdd 32bd 6728 833d
000001f0: 8d4a 0dbd 87bd 043c 5302 c9bd cf38 57be
00000200: ed4b 233d ffb4 833d 10f0 383d cd67 953c
00000210: 3879 d9bc cf47 2bbd 6ff1 a03c a3b6 843d
00000220: 9b5f 443d 08c9 56bd fe92 8fbc ded1 2b3d
00000230: 8439 023d 1384 2abb b76f e7bd 4476 0fbe
00000240: ddff a43c 77de 1ebd 787f a83c 192e 653c
00000250: 1bc1 a83c 7515 4a3d 8c4a d0bc 097b d23c
00000260: 0174 473b 2a05 b6bc 7c2d afbb 657a 7f3d
00000270: 4259 373c 7f3a be3b 3de6 3f3d 93f8 813d
00000280: 15d0 f7bc 511e b1ba 5864 2c3d c3e3 db39
00000290: b970 26bc c88d 083d 17fa 5f3d e3c3 983c
000002a0: d771 d83a da46 733c 6086 20bd f0b1 053d
000002b0: 8f1e e5bc 02bd 11bc 24f5 fd3d da55 ed3d
000002c0: 9fc7 03bd ed70 303d 13f0 ecbc 4481 e2bb
000002d0: 1be5 773d 22b2 d2bc b38e bc3c 1677 db3c
000002e0: 451e 6c3c cd72 4abd 855a ffbc 4a2a 32bd
000002f0: 0bf6 80bd cea6 29bd 9f9f 50bd a00f 21be
00000300: 014f 71bd 29bf 213c 8edb 84bc 341b 773c
00000310: bf11 7b3c a2a9 8c3d 4da1 ee3b efae 2cbd
00000320: 4365 19bd f859 70bd 000a 7cbc 101a 273b
00000330: fa0b a73c 6421 b83c cbec 343d 7049 a53d
00000340: 659f 08b9 d97f 0bbd 4b01 e0ba 937b 97bb
00000350: 9c92 90bc ec6b 553d 5294 7fbd be8e 1b3c
00000360: 3ddf 3bbd 3d77 c23c 8456 473d 42c4 453d
00000370: 5f63 e13c 4fc2 8ebc ca57 b23b acc5 44bc
00000380: b628 16bc 5cc8 1ebd 7c78 213d 4ceb 373d
00000390: ea02 1fbd 898b 15bd 77e6 bebc 8a7c b4bb
000003a0: 00e6 e0bc dff0 0d3d a7f1 69bd 0baa 5c3c
000003b0: ef9b 2a3d 809f 97bd 037c d7bd e377 41bd
000003c0: c6d7 a13c 6639 8a3c 230b 593d 03b8 323d
000003d0: 676a 84bc a820 233d 22ab 02bd 2a54 e53c
000003e0: 9089 1ebd cc2c c73b 7c75 c23c d91a 9c3c
000003f0: 368d f43c edd0 95bc 5e3d 873c 5a1c ad3c
0.019154307 -0.018368196 -0.04712275 0.03269536 0.03411899 -0.028916433 -0.03441706 0.010239298
0.032425232 -0.02209298 -0.0011478992 -0.02420596 -0.028586194 -0.018913077 -0.024962055 0.08387991
0.012961167 0.08028623 0.06153364 -0.013360607 -0.049594976 0.028012982 0.007585945 0.060998958
-0.0065779346 0.043840088 -0.003593715 -0.0010877342 -0.01761419 0.04218989 -0.015882201 0.006564004
0.055190686 -0.012375887 -0.05301519 -0.02139741 0.047199674 0.100794666 0.014033286 -0.079785876
-0.08873029 0.0062651695 0.09375992 0.09324843 0.023265779 -0.015559116 -0.041809347 -0.2128671
-0.0055831713 0.032297537 0.030045545 -0.008534848 0.03159867 0.0052922997 -0.023992155 -0.0059344354
0.056687854 0.018122593 -0.053260773 0.033163395 0.0035829805 0.021005685 -0.0048972582 0.024443109
0.016667688 0.048029266 0.029048089 -0.033099573 0.015536577 -0.010702832 0.05026766 -0.016503943
-0.02451845 0.051159885 0.023866776 0.025097614 0.00373449 -0.02237425 -0.04843471 -0.15512119
0.062316503 0.044002272 -0.057975538 0.011583491 0.05757647 0.011870014 0.020839855 0.035837263
0.016931528 -0.0072431373 -0.033836756 -0.0202064 -0.05308409 -0.0280605 -0.08582898 -0.053531177
0.048876043 -0.008882719 -0.03986425 0.00056831207 -0.037324257 -2.639609e-05 0.0035464468 -0.0020997718
-0.026943268 -0.029076288 -0.002906645 0.056178853 -0.013171899 0.014747645 -0.037903324 -0.18062353
0.0088652875 0.006284369 0.06208036 0.04866828 0.03603384 -0.07760531 -0.051137153 0.027248234
0.015887361 0.007778237 -0.043668732 0.064041905 -0.034494925 0.008101827 -0.098148964 -0.21017765
0.03986733 0.06431007 0.045150816 0.018237973 -0.02654706 -0.04181653 0.019646375 0.06480148
0.04794274 -0.052437812 -0.017526146 0.04194819 0.031793132 -0.0026018664 -0.11300605 -0.14009959
0.020141536 -0.038786378 0.020568594 0.013988041 0.020599892 0.04933687 -0.025426172 0.025693433
0.0030434134 -0.02221926 -0.0053459983 0.062372584 0.011190714 0.005805313 0.04685043 0.0634624
-0.030250588 -0.0013513063 0.042087883 0.0004194063 -0.010158711 0.033338338 0.054681864 0.018648094
0.0016513419 0.014848435 -0.03919065 0.032640398 -0.027968673 -0.008895161 0.124002725 0.115886405
-0.032172795 0.043076444 -0.02892307 -0.0069123823 0.060521226 -0.025719706 0.023017263 0.026790183
0.014411514 -0.04942589 -0.031171093 -0.04349736 -0.06296929 -0.041418843 -0.050933477 -0.15728617
-0.058913235 0.009872236 -0.016217973 0.015082169 0.015324055 0.068682924 0.007282412 -0.042159017
-0.037450086 -0.05867955 -0.015383244 0.0025497712 0.020391453 0.02247686 0.044171136 0.08070648
-0.0001302935 -0.034057472 -0.0017090229 -0.0046228855 -0.017648034 0.052104875 -0.06239731 0.009494482
-0.045867193 0.023738498 0.048666492 0.04828287 0.027513204 -0.017426638 0.005442594 -0.012010019
-0.00916498 -0.038765296 0.039421543 0.04490213 -0.03882114 -0.036510024 -0.023303254 -0.0055080103
-0.027453423 0.03465354 -0.057115223 0.013468276 0.041652616 -0.07403469 -0.105217 -0.047233474
0.01975621 0.016873073 0.052989136 0.04363252 -0.016164018 0.039826065 -0.031901486 0.027994234
-0.03870541 0.0060783383 0.023737662 0.01905577 0.02985249 -0.0182881 0.016508754 0.021131683

scale_up.conv1.dilation_conv1d.weight f4 [16, 1, 16]
00000000: 7679 5a3e 4657 1b3e ce7f 32be 3796 dc3d
00000010: 4992 143e 5d56 983d 76b1 02be ad12 783e
00000020: 459c 2cbe 688e 40be 08de c53d 5203 f03d
00000030: d572 eb3c bc2d c93c 8939 fc3d 806b 3f3e
00000040: 17c7 06be d80b 833d 56c9 debd b2e6 13be
00000050: ebe9 12be 39d5 4bbe a307 4d3e 7265 c5bd
00000060: 0409 a3bd 404c 5fbc a0cf 32be 311d 193e
00000070: 8eac b5bd 339c 003e 37ca 6f3d 2f2c 8cbe
00000080: 52d2 82be 5228 88be d17e 5b3e cc6f 6b3e
00000090: bd7b a33d 28f3 febd b54e 793d b3a1 4fbe
000000a0: 297a e33c de4d 67bd 5870 163e 7662 57bb
000000b0: 91d7 75bc 960a 16bd 3922 633e b3ae 4cbe
000000c0: e6f2 d13d 4cf4 77be 50e1 e03c be8d 63be
000000d0: 2fd3 e13d 3a1d 573e c488 09be f7f2 563e
000000e0: c788 75be 1f66 d23d faf0 bb3c 9c3d a2bd
000000f0: 2757 4dbd 86c4 bd3d 7dca 5cbd 7c90 83be
00000100: bc67 aabd a1de 5f3e 1039 55be 3e64 92bd
00000110: 7df5 f53d 8fa8 4a3e e56b 35be 10e3 2abe
00000120: d398 1e3e db9b 323e b1b1 263e 5793 083e
00000130: 799d 68be 5494 9f3d 30cb 49bb db39 453d
00000140: 064c b9bd bfba 763e d4c6 c6bb 83d8 1dbe
00000150: a7f8 1c3e 1164 893c 40ee 0dbe fac3 b2bd
00000160: fe59 13be eb2b 513d 3a45 713d babd 33bd
00000170: 2d6e 823d beec dbbd 4f58 79be d109 13bb
00000180: a013 8e3e 03a5 09be 35ac c23d cab4 cfbd
00000190: a4cb f2bc 9d01 993d a546 dabd 7394 52be
000001a0: 1c84 dd3c 7c70 183d 2e4f 723e 6ac9 1c3e
000001b0: f33c 2a3e 2158 23be 5d9a 59be 9f36 f8bd
000001c0: 64c2 43be 51ef 523b e2fc 6fbd 00cb babb
000001d0: 648d 5abd ef06 b5bc 18ac a13d cba4 8a3e
000001e0: 3345 edbc 265a 693e f2ee 7e3e f922 123e
000001f0: 237f 2dbd f5cb ba3d e8e9 0dbe 5baf f439
00000200: 12c8 0abe 6f4e 57be 3244 68be 8c66 dabd
00000210: da93 303d a891 d3bc 8c50 34bc 2a67 b23d
00000220: cd9a 5f3d bae3 1b3e 56be 9cbd f327 293d
00000230: 2046 9dbc fab0 d5bd 3a64 3cbe bbff b2bd
00000240: f6df 71be 5515 293d 77f0 42be d5b4 b0bd
00000250: e38e bfbd 06dc 743e e6ee 39be 739b 72bd
00000260: bec0 c73d b21f e23d 9382 813e 0925 b23d
00000270: fbfe 243e 8120 09be 0ce6 3d3e 75ba 783c
00000280: 07f1 28bd bdc8 fcbd 14bc b13d 0cb4 fc3d
00000290: 46f3 48be 5220 58be fc61 af3d 6832 6cbe
000002a0: 2ebf 7bbe 5309 2e3e 500d 853d d58f c43a
000002b0: 91d1 88bc 9126 b43d 5c0a 4cbe 071d 393e
000002c0: b59f 40bd 6172 a13b f20e 84be e023 473b
000002d0: a08e 24be bef4 013e 4948 81be 2487 5d3e
000002e0: 58cf 8cbd eca8 d3bd 04d2 c9bc 2732 69be
000002f0: 04cc 7e3d 6fc1 413e e808 00be 755e dfbd
00000300: f251 49be eb86 a83d 5b9a 573e c366 683e
00000310: 0a33 cc3d e1f2 003e c537 38be 3efc cbbd
00000320: 8221 833e 4d15 a33c 8447 de3d d318 40be
00000330: 8d39 56be 0297 4c3e ed09 dbbd 32f7 01be
00000340: 161c 23bd 8fce 31bd a4c7 b63d f523 143e
00000350: 79ae 5c3e 8250 adbd d9da 9dbd 13c3 50be
00000360: 2bf7 0abe 5167 73bd 4956 07be 76af d13b
00000370: 1680 7fbd b764 003e 2d37 71be ac1c 81bc
00000380: 7f3c d2bd dbc8 1c3c 7f23 1abe 1095 8abe
00000390: 9bf0 dabc cec8 4e3c 1819 553e 8187 42be
000003a0: a936 71bd f48e 3c3e 22c9 603e cc63 8f3c
000003b0: 8be1 0ebe 9ce6 063e 03df 48be dd9a 68be
000003c0: d1ca 173d 5e10 dfbd c291 d43d 5b9d cabd
000003d0: 072a 0ebe 1ea8 e6bc 8a4c e5bd 1cc4 24be
000003e0: d6c8 f23d cb15 d8ba b7df 63bd 6d59 44be
000003f0: 788b 6e3e 7ba6 dcbd 0b2c 833e d7fe 3dbe
0.21335396 0.15170011 -0.17431566 0.10770839 0.14508928 0.074383475 -0.12763008 0.24225874
-0.16856487 -0.18804324 0.0966149 0.11719383 0.02874128 0.02455794 0.123156615 0.18693352
-0.13161884 0.063987434 -0.108782455 -0.14443472 -0.14347045 -0.19905557 0.20022444 -0.0963849
-0.07960704 -0.013629019 -0.17462015 0.14952542 -0.08870803 0.12559585 0.058542456 -0.2737746
-0.25551087 -0.26593262 0.21435095 0.22991866 0.079825856 -0.12448722 0.060866076 -0.20276527
0.027768211 -0.056470744 0.14691293 -0.0032865084 -0.015005008 -0.03663119 0.22181024 -0.19988517
0.10251407 -0.24214286 0.027451187 -0.22222039 0.11026608 0.21007243 -0.13431078 0.20991121
-0.23977958 0.10273384 0.022942055 -0.07921907 -0.050131943 0.092659995 -0.053904045 -0.2569617
-0.08320567 0.2186227 -0.20822549 -0.07148026 0.12009714 0.19790863 -0.1771694 -0.1668818
0.15487985 0.17442267 0.16278721 0.13337456 -0.22716321 0.07791963 -0.0030791275 0.04815088
-0.090477034 0.24094675 -0.0060661826 -0.15414624 0.15329228 0.016771348 -0.13860416 -0.08728786
-0.14389798 0.051067274 0.05890391 -0.04388211 0.063686706 -0.10738514 -0.24350093 -0.002243627
0.27749348 -0.13441853 0.09505502 -0.10141905 -0.029638119 0.07471011 -0.106580056 -0.20564441
0.027040534 0.03721665 0.23663017 0.15311208 0.16624813 -0.15951587 -0.21250291 -0.12119793
-0.19117123 0.00321861 -0.058590777 -0.005700469 -0.053357497 -0.022098033 0.078941524 0.27078852
-0.02896366 0.22788295 0.24895838 0.14271154 -0.042357575 0.09120933 -0.1385876 0.00046669957
-0.13552883 -0.21026014 -0.22682264 -0.106640905 0.043109752 -0.02582629 -0.011005532 0.08711083
0.05459099 0.1522359 -0.07653491 0.041297864 -0.019198477 -0.10434146 -0.18397608 -0.08740183
-0.2362059 0.04128011 -0.19037043 -0.08628241 -0.09353425 0.23912057 -0.18157539 -0.05923028
0.097535595 0.11041202 0.25294933 0.0869847 0.16112892 -0.13391306 0.18544787 0.015181174
-0.041245487 -0.12342975 0.08678451 0.12339029 -0.19624051 -0.21106079 0.08563611 -0.23066103
-0.24584648 0.16995744 0.0649668 0.0014996479 -0.016701492 0.087964185 -0.19925827 0.1807748
-0.04702731 0.004926965 -0.25792652 0.0030386373 -0.16070032 0.12691018 -0.25250462 0.21633583
-0.06875485 -0.10334954 -0.024636276 -0.22773038 0.062206283 0.18921445 -0.12503397 -0.10906688
-0.19660166 0.082288586 0.21054976 0.2269545 0.099706724 0.12592651 -0.17990024 -0.09960221
0.25611502 0.019907618 0.10853484 -0.1875947 -0.20920391 0.1997948 -0.106952526 -0.12691954
-0.039821707 -0.04340988 0.08924797 0.14466842 0.21550931 -0.08462621 -0.077077575 -0.20386915
-0.1357085 -0.059424702 -0.13216509 0.0063990904 -0.06237801 0.1253842 -0.23556204 -0.015760742
-0.10265445 0.009569372 -0.15052603 -0.2706685 -0.026726058 0.012621118 0.20810354 -0.18997003
-0.05889002 0.18413907 0.21951726 0.017503642 -0.13953225 0.13173908 -0.19616322 -0.22715326
0.037058655 -0.10891794 0.103793636 -0.098932944 -0.1388322 -0.028156336 -0.11196239 -0.16090435
0.11854713 -0.0016485987 -0.055633273 -0.19174738 0.2329539 -0.10773941 0.2561954 -0.18554245

scale_up.conv2.dilation_conv1d.weight f4 [1, 16, 16]
00000000: 8079 6bbc 5305 a33d 0dce 1d3d 4e85 f7bc
00000010: 9f6b afbc 49d4 10bc 8ea2 103d 3e2a 2f3d
00000020: 904f a1bb 8498 0cbd a76c a3bc 5e12 873d
00000030: d7a8 193d 944f 403d df38 5b3d ce32 3ebc
00000040: d63b 90bd 6f42 8abd 5567 3c3d 20e9 45bc
00000050: c9ea 2abc f43a a2bd 65f9 19bc 07c2 a7bd
00000060: 578f 81bd 17b8 10bc d295 93bd aab0 0b3c
00000070: 9783 b13c eb82 42bd 41af f93c 7304 e63c
00000080: 1fa7 9fbd 1706 3bba 5554 22bc 66cf 87bc
00000090: cb31 b93c 4b13 34bc 071f c53b f0d2 bc3c
000000a0: 41e3 9e3b ef6b 42bd 5ebd 96bd fbec babd
000000b0: ebc2 8e3d db73 e13c bf80 653d b812 adbd
000000c0: 92f2 9abd 0287 dabc 842f 4d3d d7a0 91bc
000000d0: 511a 98bc f70b ecbc f281 193b a1b6 24bd
000000e0: c9f4 8e3c 5540 d7bc 4845 853c baf6 aabb
000000f0: 4413 e93c fc20 8ebd 81b9 95bd a5fd 3dbd
00000100: 7c4d b03a e682 1f3d c0c0 523d d964 2abd
00000110: 8797 23bd f297 603d ab2f 8c3d 53f9 753d
00000120: 920b 0d3d 554d 143b 9d4c 163a a6e3 e83c
00000130: c23f 783b e53f d0bc d4d4 81bc 6f23 ea3c
00000140: 56c1 38bd bd87 64bd b85f 8cbd ec1b 043d
00000150: 924f 3b3d 5e54 c43c d5f1 95bc b6a6 723c
00000160: a667 0d3c c418 90bc bc35 8e3c 606d 073c
00000170: 7edc 1dbc 46da 0b3d 3517 8abd d610 f1bb
00000180: acad af3d 6c73 8a3c 70f3 b7bd 8d80 03bc
00000190: d9e0 62bd c26c 2f3c 1f83 be3d 6cd4 cf3b
000001a0: 2339 c13c 264a 063d ed6b 2ebd ae36 183c
000001b0: a616 5cbd ce14 85bd 1788 793b 8fb5 fa3c
000001c0: 415e f9bc 20c6 aa3d 13f5 8b3d 7e05 5a3d
000001d0: e4b0 053d 4945 833d 7979 603c 2161 d73b
000001e0: c342 7c3d b78d 2c3d 866c b13d 655e 893c
000001f0: 8d51 563c fa44 803d ff96 bbbb 97e5 05bd
00000200: b79f 73bc 28b0 243d e682 8cbd 7955 f3bb
00000210: 73d3 6abd f646 99bd 0083 aebc 87f4 21bd
00000220: 1a78 05bd 256a 19bb e281 1fbd a10b 34bc
00000230: c06a 9abc 537e d23c cc71 bdbb 9d1a 41bd
00000240: a593 a4bc d2eb 993d 965c 7839 04e0 143d
00000250: 3bff 3ebc 19b5 ac3d e101 e13d 08c9 823d
00000260: 52d8 193c 8680 f3bc 8813 0e3d 3514 733b
00000270: c4af 71bd 9637 63bd 7786 953c d17d 5fbd
00000280: df04 80bd d13e 4bbd 967d a03c 4f9f dfbc
00000290: f217 8ebd 5b34 42bd 3c62 c9bc f65b 72bd
000002a0: dedf 283d b7ce 3cbd 477d 34bd a479 80bd
000002b0: cf19 00bd 59ec 6e3d f41f ca3c 1164 94bb
000002c0: 969f b0bd 206c 2d3b 2d14 383d 8026 0dbc
000002d0: 6fba e63c 9250 2dbd 7f4e abbd 9c5a 9fbc
000002e0: 6d0a 153c 5361 46bd 8a18 51bc 570f b4bb
000002f0: 3252 3a3d ed9a 5dbd 7552 a6bd a47f 49bd
00000300: 2575 103d 3064 02bd e336 953c 2e6d e3bc
00000310: 5fb9 3bbd ff6a 80bd a98e 863d aed4 023e
00000320: 2d8b ec3c 6c1b 21bb f24b 3d3c 4d86 10bc
00000330: cb5c 173d 6b60 783d ba2d 953d 809b 2e3d
00000340: 33d2 9bbb 6263 be3c 54ae a2bd d31c 75bd
00000350: 670f 163d 1855 353d 37f1 1dbd 5f8c 343d
00000360: b46d b4bc 741e 29bd db1e f3bc ec80 f8bc
00000370: 3183 7e3c 7862 3a3b 765f 69bc 742d 3ebd
00000380: 0d62 9d3c f69b 75bd 9f62 5dbc 40dc ab3c
00000390: b43c 68bd 37ca 5ebd 3423 793c c45e 86bd
000003a0: cbed 7dbd b688 f13c d8f1 cb3c e630 2a3d
000003b0: deb1 b3bd bfdc b4bd d488 8dba 513b 3b3c
000003c0: d44b 6cbd 7dbe 583b 1455 f8ba 8279 febc
000003d0: 872f 183d 7571 963c 25e5 123d 1b23 00bd
000003e0: e0d5 33bc d588 48bd a358 033d bc44 1d3d
000003f0: 8268 46bd cd01 b6b9 cd09 173d c324 1cbc
-0.01437223 0.0796 0.038526583 -0.030214932 -0.021413622 -0.008839675 0.035311274 0.042764895
-0.0049228147 -0.034325138 -0.01994927 0.065953 0.037514534 0.04695089 0.053521033 -0.0116087925
-0.07042663 -0.067509525 0.045996983 -0.012079507 -0.010431954 -0.07921401 -0.009397839 -0.08191305
-0.06326168 -0.008832953 -0.0720631 0.008526007 0.021669192 -0.047488134 0.030479075 0.028078293
-0.07795548 -0.00071343913 -0.009907802 -0.016578387 0.022606751 -0.010990928 0.0060156616 0.023049802
0.004848868 -0.047466215 -0.07360338 -0.09127232 0.069707714 0.027521065 0.056030985 -0.08450836
-0.07565798 -0.026675705 0.050094143 -0.01777689 -0.018567236 -0.028814299 0.00234234 -0.04021323
0.017450707 -0.026275793 0.016268387 -0.0052174004 0.02845157 -0.06939885 -0.07310773 -0.046384472
0.0013450827 0.038943194 0.051453352 -0.041600082 -0.03993943 0.054832406 0.068450294 0.060052227
0.034434862 0.0022629101 0.0005733462 0.028428864 0.00378798 -0.025421092 -0.015848555 0.02858135
-0.045106255 -0.055793513 -0.068541944 0.03225319 0.04573018 0.02396601 -0.018303791 0.014810255
0.008630669 -0.017589934 0.017359607 0.008265823 -0.009635089 0.03414371 -0.06742708 -0.0073567433
0.08578047 0.01690074 -0.08981979 -0.008026254 -0.055390213 0.010707082 0.09302353 0.0063424613
0.023586815 0.032785557 -0.042583395 0.00929038 -0.053732537 -0.06498109 0.00380755 0.030604152
-0.030440452 0.083385706 0.068338536 0.053227894 0.0326394 0.064096995 0.013700836 0.006572858
0.061587106 0.042127337 0.08663277 0.016768644 0.013080967 0.06263156 -0.0057247872 -0.032689657
-0.014869622 0.04020706 -0.068609044 -0.0074259606 -0.05733056 -0.07484238 -0.0213027 -0.03953984
-0.03258524 -0.0023409214 -0.038942225 -0.010989101 -0.01884973 0.025695002 -0.005781388 -0.04714452
-0.020089934 0.07515682 0.00023685614 0.03634645 -0.011657531 0.08432979 0.109866865 0.06386
0.009389954 -0.02972437 0.034686595 0.0037090902 -0.059005514 -0.055472933 0.018252594 -0.054563347
-0.06250929 -0.049620453 0.019591134 -0.027297644 -0.06938161 -0.04741321 -0.024582975 -0.059169732
0.04122912 -0.046095576 -0.044064786 -0.06273201 -0.031274613 0.058330867 0.02467344 -0.0045285304
-0.086241886 0.0026462153 0.044941116 -0.008615136 0.02816507 -0.042313166 -0.08364581 -0.019452386
0.009096724 -0.04843266 -0.012762198 -0.0054949927 0.045488544 -0.054102827 -0.08121196 -0.049193993
0.035267968 -0.031833827 0.018214649 -0.027762022 -0.04583108 -0.06270408 0.06570179 0.12776443
0.028874958 -0.0024582995 0.011553751 -0.008821082 0.03695373 0.060638826 0.07284112 0.042628765
-0.0047552823 0.023240749 -0.07943407 -0.059841942 0.036635783 0.044270605 -0.03856012 0.04407918
-0.022024967 -0.041288808 -0.029677799 -0.030334912 0.015534208 0.002844004 -0.014243951 -0.046430066
0.019211793 -0.05996319 -0.013512283 0.020979047 -0.056698516 -0.054392066 0.015206147 -0.06561044
-0.061994355 0.029484134 0.024895594 0.04155054 -0.0877416 -0.088311665 -0.0010798224 0.011427716
-0.057689503 0.0033072524 -0.0018946254 -0.031063799 0.0371547 0.018364647 0.03586306 -0.03128348
-0.010976285 -0.04895862 0.032066952 0.03839563 -0.04843951 -0.00034715087 0.03687458 -0.009530249
